megasena_model_1.pth (torch, 211116 bytes, 8 tensors)

fc1.weight f4 [256, 6]
00000000: 59ae 673e e669 193e 1f55 953e ff79 88be
00000010: 7bf3 96be c576 143e 546c 9fbc bd00 af3e
00000020: f61f 39bc b52b 36be 7177 abbe c2be d8bd
00000030: 139e 99be d2b0 74bb bcc8 293d 0e97 473e
00000040: 4c5e bebd 9162 933c 71dd 613d 16d5 3bbd
00000050: e0f6 a43e 27b8 a23e 9432 513e 8ec7 6e3e
00000060: d5e4 74bd dbfc ecbd 6bfb 163e 2b42 2dbe
00000070: 235e 22be ded9 77bd 382f 2cbe 9947 aa3d
00000080: f689 46bd 799a 893e 3e1f 81bd a83d 9dbe
00000090: 8ab2 a13e 9c94 a83e 854a 87bd cc00 a4be
000000a0: 818d b9bd ee57 283e a620 62bd aea4 6a3e
000000b0: 84bb a33e 218d 67be 24b7 48be 7845 8fbe
000000c0: 5d7e 26b9 3388 d6bb 003f 873e 0323 80be
000000d0: 65ea e1bd 73c8 2b3e c084 383e f4b4 6dbe
000000e0: 9c95 593e df23 a5bd 5777 7d3e 07e1 e2bc
000000f0: 24f3 363e 68ee 2c3d 1510 a9be 8759 9d3e
00000100: b63e 483e 7963 3abe 29b1 643e 189f abbe
00000110: 203c 24be 4951 cabd 44ee 95be 26d0 f5bc
00000120: e0b5 313e 682d 893e 5e98 8cbe 295f 783e
00000130: 67f7 973e 49a7 58be 3551 223e b78a 0e3e
00000140: f6ec 63be a197 8ebe 7e8b fa3d b7ca b7be
00000150: 3f4b 37be 05f8 0c3e 290e 68be a99f 99bd
00000160: 654f 123b f5ed 733d 7ada 09bd 6e15 2dbd
00000170: f829 84be be56 9ebd 29be 86be 0023 7e3e
00000180: bc6a b1bd b32a 10be a4d5 9ebe 878d 9abe
00000190: c934 72bb fce9 9a3e ea45 b33c 546c 9b3d
000001a0: 5516 403e 2526 0a3e ad88 2b3e 0688 f1bd
000001b0: 6495 a03d 5ea0 583e fe8f ad3c 91fd 4f3e
000001c0: c1aa 44bc f507 8e3d 0526 4a3e 731f 41be
000001d0: 6643 b7be d216 ac3c 5b1a c93d c414 5dbe
000001e0: cd0a 9a3e 8780 993d 889a ac3e def7 2b3e
000001f0: b04c 7f3e 16c8 39bc 1e88 cfbb 29c8 23be
00000200: 743c 073c 649c 37be f7b1 99bd 52e7 43bb
00000210: 6f11 1d3c fe8f a8be 20a4 573e 61b2 d7bb
00000220: 2712 87be 81f4 3b3e ca99 9fbd 2770 a1bd
00000230: 5eee 8bbd 660e 0bbe 1095 243e 9d89 05be
00000240: c7b8 c4be 62c0 64be 30f9 9ebe 108c 4c3e
00000250: e3a4 8e3e f653 953c a890 a93e bee3 683d
00000260: 6d3a 67be 7291 05be 998a a3be 11c3 9e3e
00000270: 4635 183e 9333 50be e3bd aebd d835 31bd
00000280: fafe 69bd 8a07 98be 3f39 b73e c640 813e
00000290: eef4 563d 4a3f 05be be39 e6bd 73e7 9a3e
000002a0: be93 7bbe 076a b4be b9d5 8dbb c7c6 08bc
000002b0: b700 843e 380f 053e 7578 3fbe d1eb 0cbe
000002c0: 4cd6 adbe 9118 ab3e 89dc 29be d084 713d
000002d0: 8a5e 89be e94d 123e adf2 3cbe d066 98bd
000002e0: e4f1 01be a995 103e e830 8bbe ec2d a9bd
000002f0: a701 bebe aa4d 953c c6d6 9e3e 9d56 d9bd
00000300: 1b15 5fbe ac89 bbbd 2ae7 463e c0ba 71bd
00000310: 4af4 113e 03c8 aabe de0b a73e 3429 b8bd
00000320: 3a91 5c3e 91c8 043e 9377 9fbd 8e09 8abe
00000330: 150c df3c 62ed 53bd 09ca 51be d49f 923e
00000340: 2044 db3d 85f5 acbe 2d02 863e aadc 95be
00000350: d0f5 163e 9d02 3e3e 37ae 033e 08b3 0bbe
00000360: c809 36be 1293 c7bd 6860 b03e 56fd d93c
00000370: c8dd d43d 2b15 3fba 0988 18be 2c82 ad3e
00000380: 9f07 8cbd a1dc 72be e87c f4bd a4ea 2c3e
00000390: 8a72 52be e0f4 8e3d 36ff 8bbe c411 e83d
000003a0: 0832 853e 2688 25be d90c ae3e 2d66 33be
000003b0: 12fe 6e3e c6cd 933e 0534 85be 5f33 59be
000003c0: 493c 813d e5c7 eebd b2cf 9f3d 6f38 ad3e
000003d0: 5cae 793e d61c 50be 4fc1 86be 9e49 adbd
000003e0: 4356 013e 847b 8ebe 4582 023e d6f4 21be
000003f0: 4ed3 a3bd 8125 a03e c367 86bd 9032 a33e
0.22625102 0.14981803 0.29166505 -0.26655576 -0.29482636 0.14498432 -0.019460835 0.3418025
-0.011299124 -0.1779011 -0.33489564 -0.10583259 -0.30003414 -0.0037336838 0.0414512 0.19491217
-0.092953295 0.017991336 0.055142824 -0.04585751 0.322196 0.31781122 0.2042945 0.23318312
-0.059788544 -0.11571666 0.14744346 -0.16919772 -0.15856223 -0.06051051 -0.16814888 0.083144374
-0.048471414 0.26875666 -0.06304787 -0.30711102 0.31581527 0.3292588 -0.0660601 -0.32031858
-0.09060193 0.16439793 -0.055206917 0.22914383 0.31979 -0.2261243 -0.19601113 -0.27982688
-0.00015878068 -0.006546998 0.26415253 -0.25026712 -0.11031035 0.16775684 0.1801939 -0.2321356
0.21248478 -0.080634825 0.24752556 -0.027695192 0.17866188 0.04221955 -0.33020082 0.30732366
0.19555172 -0.18202008 0.22333206 -0.33519816 -0.16038561 -0.09878785 -0.29283345 -0.03000648
0.17354536 0.26792455 -0.27459997 0.2425505 0.2968094 -0.21157564 0.1585129 0.13920103
-0.22258362 -0.2785006 0.12233637 -0.35896847 -0.17899798 0.13766487 -0.22661652 -0.07501156
0.0022325155 0.059553105 -0.03365562 -0.042256765 -0.2581327 -0.077313885 -0.26316956 0.24818039
-0.08662936 -0.14078788 -0.3102237 -0.30186102 -0.0036957732 0.3025664 0.021883924 0.07589021
0.18758519 0.13491113 0.16751356 -0.117935225 0.07840994 0.21154925 0.021186825 0.20311572
-0.0120036015 0.069351114 0.19741066 -0.18859653 -0.35793608 0.021006975 0.0981948 -0.21589953
0.30086365 0.07495218 0.33711648 0.16793773 0.24931598 -0.011339208 -0.006333365 -0.15994324
0.008254159 -0.17930752 -0.07504647 -0.0029892516 0.009586676 -0.32922357 0.21058702 -0.0065825437
-0.26381037 0.1835499 -0.07793005 -0.078827195 -0.06832574 -0.13579711 0.16072488 -0.13040777
-0.38422224 -0.22339013 -0.3104949 0.19975305 0.27860174 0.018228512 0.33118176 0.056857817
-0.22580881 -0.13043764 -0.3194168 0.310082 0.14864072 -0.20332174 -0.08532312 -0.04326424
-0.05712793 -0.29693252 0.35785863 0.2524473 0.052479677 -0.13012424 -0.11241482 0.30254707
-0.24568078 -0.35237142 -0.0043284562 -0.008348173 0.25781795 0.12994087 -0.18698294 -0.13761832
-0.33952558 0.3341718 -0.16588034 0.05896455 -0.2682994 0.14287533 -0.18451948 -0.07441485
-0.1268993 0.14119591 -0.2718575 -0.08260712 -0.37110636 0.01822551 0.31023234 -0.10612223
-0.21785395 -0.09157118 0.1942412 -0.05901599 0.14253345 -0.33355722 0.3262624 -0.08992234
0.21539775 0.12967135 -0.07786479 -0.26960415 0.02722744 -0.051740058 -0.20487227 0.28637564
0.10706353 -0.33781067 0.26173535 -0.29269916 0.14742208 0.18555684 0.12859426 -0.13642514
-0.17777169 -0.09744848 0.34448552 0.026610058 0.10393864 -0.0007289226 -0.14895643 0.33888376
-0.06837391 -0.23716976 -0.119378865 0.16886383 -0.20551506 0.069803 -0.27343148 0.113315135
0.26014733 -0.16165218 0.33994177 -0.17519446 0.23339108 0.2886793 -0.2601625 -0.21211003
0.063103266 -0.116592206 0.078032866 0.33832118 0.24382919 -0.203235 -0.26319358 -0.08461307
0.12630562 -0.2782861 0.12745006 -0.15816054 -0.079992875 0.31278613 -0.0656276 0.31874514

fc1.bias f4 [256]
00000000: efaa 323e 0ec6 37bc 8330 7bbe ca05 aabe
00000010: beb4 6ebc 4711 febd 712e 88be a37f 813e
00000020: f625 b23e 3290 9cbb c892 1e3d 1016 b1bd
00000030: f886 a83d 4911 8a3e e673 353d 6659 abbe
00000040: ef05 b13d 9a93 b8bb a246 de3c ca4d e33d
00000050: 3a6d 663e 3232 883e 5092 633e 7f4a 8fbe
00000060: e672 50be faac a13e cdc4 6b3d cbff 82bd
00000070: f36a 9e3e c946 743c 1c22 c2bd 111f 31bd
00000080: 8d02 04bd 56a6 893e 3335 363e 5804 9dbe
00000090: cd72 15be fb70 59bc 8c19 2ebe 6537 54be
000000a0: c514 8d3e 49da 823e e558 6a3d df30 b23c
000000b0: b362 8c3e a02b a33e 13a4 8d3e cea8 313d
000000c0: 4e39 593e 098c 253d 4e53 91bc 6513 143e
000000d0: 54aa 1fbe d5c9 1c3e 7624 a7be bbb4 b4be
000000e0: 8469 58be 456f be3e a6f5 f6bd c087 b4be
000000f0: e05d 513d 88c7 4b3d 52d8 a2be cd58 8e3e
00000100: efbc 19be 131b a93e dcf8 02bd a90b 6ebe
00000110: c1fd f73d a76e 993e 6315 0dbe 8b8b 6e3e
00000120: 5a93 513e f915 3b3e ddd3 53be 16dd 7c3e
00000130: 56a1 41be 965e 1f3e 390d b93e d86e f1bd
00000140: 0b9b 5bbe 1629 38be be83 5a3d 45eb 063e
00000150: 6d63 b8be 1985 c3bd 0370 67be 68d4 303e
00000160: 8171 b8be cf05 7abe f404 26bd 1ec7 91be
00000170: e672 87bd 3ec0 5bbe 4b44 ad3d 85fb b2bd
00000180: 3bd3 2ebe 5202 8abe 6dcb afbe 51f6 a6be
00000190: 4967 a4be da4e 6c3e 3d9f 07bd 05db b5be
000001a0: ab1e bbbe 7dd1 b1be a6be b7be c835 58bc
000001b0: 1f37 5d3d 2dcf 373e 5b1c be3d 29fe 58bd
000001c0: e224 7ebb 7b5e d23d d53c 663c f958 4e3d
000001d0: ed0d b0be 311b 913e b011 55be 2d42 293e
000001e0: 3010 21be 527f b2be 57ea 25be 3229 9f3d
000001f0: f986 e2bd ba8a 213d 5876 9a3e f21f 6dbe
00000200: 5708 38be de2c 7bbd f259 9a3d fd28 763d
00000210: e619 163e 27de 6dbe 264f af3e d130 c43e
00000220: c461 783e 6a84 bd3e 9930 cebd 18fb 76be
00000230: 8875 a0be 9c79 4e3e 7f8c 853e 5be5 40be
00000240: 3f88 183e 829a 03be 166f 32bb f3ad f63d
00000250: d9ff 44be 54ce b83e b753 4bbe df5c 88be
00000260: 0d01 c9bd c8ba 343e 21b4 b13e 0775 a23e
00000270: 94e1 01bd dba2 a43d 64fc 6fbd fc67 13be
00000280: df0b 4cbe bdfe 853e 4a2c 4ebe 048e 1c3e
00000290: 537a 853e f126 81be f002 acbe 856d fabd
000002a0: 3098 abbe 4044 e6bd c522 b13e 4570 c8bd
000002b0: 311f 653e d647 d8bd af8e aa3e 60e7 773e
000002c0: ea6a b63e f124 dc3d aef5 34be 2c25 9cbe
000002d0: cee8 0ebe ba5c 88be 7da5 a33e 988f 7ebd
000002e0: d7c0 45be b84e a43e 723a ee3d 779e 50be
000002f0: 9682 8b3e 3367 94be 8742 edbd 4c73 8abd
00000300: 3217 813e 8c19 babe cd06 b03e 57ce 26bd
00000310: d723 a4be 4d1d be3d 82e2 e33d 583e 7b3e
00000320: e8c6 2e3e 5d69 a1be 6dfd 40be 5b6c c83d
00000330: e5da a2bd ca9b b23e ac04 efbd 5038 9abe
00000340: 4fcd af3e 0aa8 14bd cf8f a8be 83a0 8dbd
00000350: 5695 a43e bcaf d9bb 70e7 093e 8dad a1be
00000360: 6b18 84be 0015 ad3e aecc 34be 6018 873d
00000370: 2363 03be 4092 b6bd 2703 56bc fd60 b5be
00000380: ac30 4b3e 975a 8dbe 6f09 b4bd 4d51 a53e
00000390: 39c6 1cbe 06cb 803e fe9a a13e 4136 3fbe
000003a0: 3b66 b13c c3a7 4cbe 06d0 f03d 7927 353b
000003b0: b863 9f3e da31 a1be 90d4 e7bd e149 173e
000003c0: 5394 073e d0d8 293d e12c 4d3e e164 393e
000003d0: 03d8 9abe 723e 823d 955d 9b3e ca56 b7be
000003e0: 590e df3d aeb0 69be 1546 b2be 38ca 003e
000003f0: 8c8d 633e 4780 413e 2fcf 973e ae24 a0be
0.17448018 -0.0112166535 -0.24530225 -0.33207542 -0.0145694595 -0.12405639 -0.26597932 0.25292692
0.34794587 -0.0047779316 0.0387142 -0.08646786 0.08228868 0.26966313 0.044299982 -0.33466643
0.0864371 -0.00563283 0.02713329 0.110988215 0.22502604 0.26600796 0.22223783 -0.27986524
-0.2035633 0.31577283 0.05756073 -0.06396445 0.3094097 0.014909455 -0.09479162 -0.043242518
-0.032228995 0.26884717 0.17793731 -0.30667377 -0.14594574 -0.013271566 -0.17001933 -0.20724256
0.27554908 0.25557163 0.057213683 0.02175182 0.27419052 0.3186922 0.2766424 0.043373875
0.21213266 0.04041675 -0.017739918 0.14460523 -0.15592319 0.15311368 -0.32645005 -0.35294136
-0.21134001 0.37194267 -0.120585725 -0.3525982 0.051114917 0.049750835 -0.31805664 0.27802125
-0.15013479 0.33028468 -0.031975612 -0.23246635 0.121089466 0.29967234 -0.1377769 0.23295419
0.20466366 0.182701 -0.20686288 0.24693713 -0.18909201 0.15563425 0.361429 -0.1178872
-0.21445863 -0.17984423 0.053348295 0.13175686 -0.36013356 -0.09546871 -0.22601323 0.17268527
-0.36024097 -0.24416278 -0.040532067 -0.28472227 -0.06613712 -0.21460053 0.084602915 -0.0873938
-0.17072766 -0.26954895 -0.3433489 -0.326098 -0.3211005 0.23076954 -0.033110846 -0.3551866
-0.36546835 -0.3473014 -0.3588764 -0.013196416 0.054007646 0.17950125 0.09282752 -0.05297676
-0.0038779308 0.10271927 0.014052589 0.05037782 -0.34385625 0.28341058 -0.20807528 0.1652915
-0.15728831 -0.34862763 -0.16202675 0.07771529 -0.110609 0.03943894 0.30168414 -0.23156717
-0.17971931 -0.061322086 0.07536687 0.060097683 0.14658317 -0.23229276 0.34240073 0.38318494
0.24256045 0.37015086 -0.10067863 -0.24119222 -0.3133967 0.20163578 0.26083753 -0.18837492
0.14895724 -0.12851909 -0.0027226857 0.12044897 -0.19238223 0.36094916 -0.19856153 -0.26633355
-0.098146535 0.17649376 0.3470774 0.3172991 -0.03170927 0.08038875 -0.058590308 -0.14395136
-0.19926403 0.26170912 -0.20134082 0.1528855 0.26069888 -0.25225022 -0.3359599 -0.122279204
-0.33514547 -0.112434864 0.3459684 -0.09787039 0.2237518 -0.105605766 0.33311984 0.24209356
0.35628444 0.107492335 -0.17671844 -0.3049711 -0.13955995 -0.26633245 0.31962195 -0.06214866
-0.19311844 0.32091308 0.11632241 -0.2037295 0.27248067 -0.28984985 -0.11584955 -0.067602724
0.2521301 -0.36347616 0.3438019 -0.040724125 -0.32058594 0.092829324 0.11127187 0.24535501
0.17068064 -0.31525698 -0.18846674 0.09786292 -0.07951907 0.34884483 -0.11670813 -0.30121088
0.34336326 -0.036293067 -0.32922217 -0.06915381 0.32145184 -0.0066432636 0.13467193 -0.3157772
-0.2579988 0.33805084 -0.17656204 0.06596446 -0.12830786 -0.08914614 -0.013062275 -0.3542556
0.19842786 -0.27608177 -0.08790862 0.3228859 -0.15309991 0.25154895 0.31563562 -0.1867304
0.021655193 -0.19985871 0.11758427 0.0027641936 0.31130767 -0.31483346 -0.1131984 0.14774276
0.13240175 0.041466534 0.20036651 0.18104888 -0.3024293 0.06359567 0.30344835 -0.35808402
0.108914085 -0.22821304 -0.34819093 0.1257714 0.22221965 0.1889659 0.29650256 -0.31277984

fc2.weight f4 [128, 256]
00000000: 11b9 4d3d 7645 0ebc ce1a c1bb bd85 e3bc
00000010: fc7c 16bd 7c4f 453d 983b 54bd a739 56bd
00000020: e154 0bbd c0f8 33bd 60da 523d 3f22 043d
00000030: a4a1 31bd bd5e be3a 4742 f9bc ce6a 143d
00000040: 351c b9bc b314 a3bc 5366 5f3d 30d6 2c3d
00000050: 637d 36bd 0cb9 b3bc f05a cd3c df76 d4bc
00000060: 39ff 6c3c c461 093d 972e 343d a897 b6bc
00000070: 9bae a63c 039b ac3c edb6 3c3d 7b8b 663d
00000080: b193 a5bb 225e 223d 9418 0b3d 8061 163d
00000090: 38de 8a3b 9fb0 20bc 4b0d f0bc bddc e9bb
000000a0: cd34 04bd 4021 02bd 991c 20ba db65 45bd
000000b0: 5aea 23bc 2d71 6a3b 6670 a73c 5500 d03c
000000c0: c8f8 213d 82e4 ecbc c966 1fbd 37ab 0cbc
000000d0: f701 50bc 2e11 81bc f5dd 283d 8f15 93bc
000000e0: a73a 1cbd a496 1c3d 2f2d b73c 161f c4bc
000000f0: 3ed3 1dbb dd1f 6dbc 0085 2f3d 5c15 f73c
00000100: c228 6fbc 2035 0ebb 7c10 3d3d ee20 e6bc
00000110: af45 09bd 3219 39bd c084 d2bc 167c c1bc
00000120: 828b 153d 4722 34bd b911 36bc ca4f 42bc
00000130: 10a4 283a f267 1abd df87 33bd 6cce 5cbc
00000140: 3fe6 9dbc ee84 4ebd e297 d3bb 5792 333c
00000150: 4341 85bb 9b49 783b e417 063d b04c 4cbd
00000160: ca72 4d3c ab2b 9e3c 74de 84bc 2529 a33c
00000170: 27b2 003d 5514 553d 8c95 75bc 17f4 d53c
00000180: 9aa8 f4ba a31f b3bc 1e5b 67bd 2af2 443d
00000190: 2012 3f3d c6df 083d 3f5b d23c 32ab 64bd
000001a0: 141f 4cbd 0ba9 a33c 3c1f 64bc ee22 f4bc
000001b0: fc59 553c 2328 09bd 056f 543d e01f 753c
000001c0: a6a9 d63c 30ba d7bc 194b a03c 91ea 17bc
000001d0: 4178 773c b0fa 76bc e9f4 0f3d 04f3 26bc
000001e0: 932f 3dbd 6cc2 4c3c 4365 eabc 20a5 4cbd
000001f0: cd0c 53bd 54f3 b23c d119 c0bc 89be 333d
00000200: 435a 123c 0d25 f23c 2aca 383c 128e 03bd
00000210: 6223 313d c16b 123d 3792 a8bc df60 b63c
00000220: f40b 07bd 7374 2e3d 71ff 5ebd cbc8 10bd
00000230: 96b6 42bd 14b9 1cba 6c2f 55bc 666d 433d
00000240: 8194 6a3c 8acb 14bd cc9d 8a3a 7318 9e3c
00000250: 072f 0abc a691 18bd a9eb 553d 5363 9c3c
00000260: 9d8f 9f3a 2ce0 4fbd 900f cdbc 1fee bd3c
00000270: 584f 56bd 147a 1bbd a726 33bd d223 b83b
00000280: 77ee 593c 5664 e3bb 5b82 193d 3175 5b3d
00000290: d72a 023d 0378 633d 9f52 6fbc 48dc 9ebb
000002a0: 859c d0bb 94f0 afbc 5578 55bd b61e 043c
000002b0: 915a 3cbd 3531 043d 5991 003d a1a3 89bc
000002c0: 9424 e3bc b371 5d3d 38b0 bbbc dd31 253d
000002d0: 10dd 15bd 824d ed3c d25d cfbc 6221 473c
000002e0: 7f8c d2bc c1e1 07bc 4e7d 06bd a4b7 dfbc
000002f0: 1d97 c8bc c749 3dbd f2b6 12bc d108 393d
00000300: 3caa 2d3d c811 483c b9a3 56bd 0a31 eb3c
00000310: be96 3dbd 142e 0d3d 050c 32bd 2ccc 08bc
00000320: 0eea cf3b ad00 eabc 2b5f 4ebd 3eef 58bd
00000330: 9453 9d3b 0711 58bd 29bf d23c 8405 003d
00000340: b9c9 3a3b 2e52 1b3d f1b6 27bd e120 8b3c
00000350: f00a cc3b de24 5f3c b743 c3bc fcd9 e3bc
00000360: 4f14 023d 9d50 07bb 4e9e 353d cc6e 16bd
00000370: a51a 273c 82e6 9c3c 27d0 193c 5a9b 093d
00000380: 3147 66b8 2cd4 2cbd cf97 8ebb 73bc cdbc
00000390: 1110 e43b c67c 87bb a193 1ebd fe24 303d
000003a0: 5129 4ebd 781f 543d 487a 193d 54b8 f3bc
000003b0: 17a3 80bc 291e d7bc 5cff 3c3d fc3d 32bb
000003c0: 1532 6fbc 8feb e9bb d4ea 0bbd b78c 003d
000003d0: 6891 283d 8346 27bd f6f0 b6bc 250c 3b3c
000003e0: c1a5 2c3d c63d 8d3c 34ca 1dbc 1efa 25bd
000003f0: 5da6 e73c 0343 14bd 1f97 0ebc ad56 0e3d
0.05022532 -0.008683553 -0.005893088 -0.027773732 -0.03674029 0.048171505 -0.051814646 -0.052301075
-0.034016494 -0.0439384 0.05147779 0.032259222 -0.043367043 0.0014524084 -0.030427111 0.03623467
-0.022596458 -0.019907331 0.054540943 0.042196453 -0.04455317 -0.021938823 0.025067776 -0.025935588
0.014465147 0.033540502 0.043989744 -0.022289112 0.02034693 0.02107001 0.04607289 0.056285363
-0.0050530066 0.039640553 0.033958986 0.036714077 0.0042379163 -0.009807735 -0.029303214 -0.0071369098
-0.032276917 -0.03176999 -0.0006107777 -0.04819284 -0.010004604 0.0035773024 0.020439338 0.025390783
0.039543897 -0.028917555 -0.038916383 -0.008585743 -0.012695781 -0.015755262 0.0412273 -0.017954616
-0.038141873 0.0382296 0.022360412 -0.023940604 -0.002408221 -0.014472929 0.042851448 0.030161552
-0.01459712 -0.0021699145 0.0461583 -0.028091874 -0.03351372 -0.045190044 -0.025698066 -0.02361874
0.03651 -0.043978002 -0.011112624 -0.0118598435 0.00064331386 -0.037696786 -0.04383075 -0.013476949
-0.019274829 -0.05041974 -0.006457315 0.010960183 -0.0040666177 0.003788567 0.032737628 -0.049877822
0.012539575 0.019307932 -0.016219355 0.01991708 0.0314199 0.052021343 -0.014989268 0.026117368
-0.001866597 -0.021865672 -0.05648338 0.04808251 0.046648145 0.033416532 0.025678275 -0.055827327
-0.049834326 0.019978067 -0.0139234625 -0.029801812 0.013021942 -0.033485543 0.05186369 0.014961213
0.026203942 -0.026333898 0.01956706 -0.009272234 0.015104354 -0.015074417 0.035145674 -0.010189775
-0.04618795 0.012497526 -0.028612738 -0.049962163 -0.05152588 0.021844544 -0.02344981 0.04388288
0.008932653 0.029558683 0.011278668 -0.03211791 0.043246634 0.035747293 -0.020577533 0.022262989
-0.032970384 0.042591523 -0.054442827 -0.03534774 -0.04753741 -0.00059785065 -0.013011795 0.047711752
0.014317633 -0.036326922 0.0010575592 0.019298768 -0.008434064 -0.037248276 0.052226696 0.01909033
0.0012173537 -0.050750896 -0.025031835 0.023184834 -0.05232176 -0.03795822 -0.043738034 0.0056195045
0.013301483 -0.006939451 0.037477832 0.05357856 0.031779137 0.055534374 -0.014607101 -0.004848037
-0.006366315 -0.021477021 -0.05211671 0.008063963 -0.04598481 0.03227349 0.031388614 -0.016801657
-0.027727403 0.05406351 -0.022911176 0.040330756 -0.036587775 0.028967623 -0.025313292 0.012153955
-0.02570176 -0.00829357 -0.032834344 -0.027309246 -0.024486119 -0.046212938 -0.00895475 0.045174424
0.042398676 0.012211271 -0.05240223 0.028709907 -0.046286337 0.03446777 -0.043468494 -0.00834946
0.00634504 -0.028564775 -0.050383728 -0.052962534 0.004801223 -0.052750614 0.025725918 0.03125526
0.0028501584 0.03792017 -0.04094595 0.016983451 0.00622689 0.01361963 -0.023836 -0.027813904
0.03175765 -0.0020647414 0.044340424 -0.036726758 0.010199224 0.019152883 0.009388006 0.03359542
-5.4902575e-05 -0.04219453 -0.004351593 -0.025114274 0.006959923 -0.004134747 -0.03871501 0.04300403
-0.05033237 0.051787823 0.037470132 -0.02975098 -0.015702767 -0.026259499 0.046141967 -0.002719759
-0.014599343 -0.0071386765 -0.034159496 0.031384196 0.041154295 -0.04083873 -0.022331696 0.01141647
0.042150263 0.01724137 -0.0096307285 -0.040521733 0.02827757 -0.03619672 -0.008703022 0.03475063

fc2.bias f4 [128]
00000000: a984 2ebd 1ac6 133d 4967 0b3b aee2 f83c
00000010: ce4e f53c 0bc8 4c3d 029d 1abd c18d 14bd
00000020: df0f 333d 3e00 64bc 233b 6abd ec75 65bd
00000030: b997 a9bc 75bb 6d3d 0a4b 573c 7fac bebc
00000040: 8eaa d5bc 3777 4ebc bed6 d1bc 9412 18bd
00000050: 00c4 61bd f064 143d 144a 6d3d 0799 c03c
00000060: 7144 16bd 53bc c9bc 96de 4f3b b727 333d
00000070: 2933 49bd a142 323d a5e3 793c 72f8 a9bc
00000080: 078c c9bc cb85 863c e417 91bc 635d 4a3d
00000090: 83d1 51bd ed46 febc 0a5e ec3c c2b8 debc
000000a0: 8934 f4bc e904 fcbc 3de7 abbb e87b 48bd
000000b0: e891 eb3b c9dd b03c d9ce f9bb 46d3 2a3d
000000c0: 3601 b23c 5177 73bd 197f b53c 8768 c23c
000000d0: efb6 bf3c 3ddc ecbc 0363 adbc 81c0 c03c
000000e0: 9929 82bb cf67 9a3b f525 333d 29c8 5b3d
000000f0: 0f39 393d 4eff b0bc 99e3 27bd ff63 383d
00000100: ef9a c7bc 87f0 53bd 8798 6ebd ea0b 83bc
00000110: b850 84bb 5492 cc3c 64f7 fe3c db2e 183d
00000120: 870e 8bbc 0767 783d 9c19 29bc 96b4 4e3d
00000130: 8661 77bd 60ae f83c 6117 d23c 749c cf3b
00000140: f6b0 243d e0e4 763a f337 363d 89ec afbc
00000150: eeab b83c 9493 79bc 4bdf b6bb 29a2 cd3c
00000160: 6e03 de3b 8c51 223c d8a0 5abd 4d3a 803c
00000170: 596d f23b 4544 083d 60f1 ac3c ba2d 623d
00000180: d7bc 2f3d 61ff 93bc 130e 2fbd e807 883d
00000190: 6b89 d23c 4c0a 2ebd 86ee b5bc d02b b5bb
000001a0: 00f2 5c3d 034d f5b9 c499 a1bb e8f7 60bd
000001b0: 3f2d a1bc 599a 973c 5271 363d 80c9 44bd
000001c0: b41a 623d 8828 493c 506b 8d3c 5c3a c43c
000001d0: 1612 77bd e998 3d3d 3ca3 41bd 72e3 8a3c
000001e0: 6462 31bd 1f30 58bd 6278 873c ea9d 2fbc
000001f0: 95d3 52bc c17c 723d 64ed 24bc b062 683d
-0.042606983 0.036077596 0.002127128 0.030381527 0.029944804 0.049995463 -0.03774739 -0.036268
0.043716308 -0.013916073 -0.057185303 -0.056020662 -0.02070223 0.0580401 0.013140449 -0.023275612
-0.026082303 -0.012601665 -0.025615092 -0.037127092 -0.05511856 0.036229074 0.057931975 0.02351047
-0.036686365 -0.024625933 0.0031718365 0.043739047 -0.049121056 0.043520574 0.015252029 -0.02074835
-0.024602903 0.01642122 -0.017711587 0.049405467 -0.051225197 -0.03103968 0.028853435 -0.027187709
-0.029810207 -0.03076406 -0.0052460716 -0.04894629 0.0071890242 0.02159013 -0.007623535 0.041705392
0.021729093 -0.05943996 0.022155331 0.023731483 0.02340266 -0.028913612 -0.021165377 0.023529293
-0.003972244 0.004712082 0.04373737 0.053657684 0.04522043 -0.021606114 -0.04098854 0.04501724
-0.02436587 -0.051743057 -0.05825093 -0.015996892 -0.0040379427 0.024972118 0.031123824 0.03715406
-0.0169747 0.06064513 -0.010321047 0.05046519 -0.06039574 0.030356586 0.025645914 0.0063357893
0.040207826 0.00094182603 0.04448695 -0.021475093 0.02254292 -0.015232939 -0.005580818 0.025101738
0.006775311 0.009907138 -0.05337605 0.0156528 0.007398289 0.033268232 0.02111119 0.05521939
0.0429047 -0.01806611 -0.04273803 0.06642133 0.025700292 -0.04249029 -0.022208463 -0.0055289045
0.053941727 -0.0004678742 -0.0049316604 -0.05492392 -0.019674895 0.018506216 0.044541664 -0.048043728
0.055201247 0.01227773 0.017263085 0.02395361 -0.060319982 0.046288405 -0.047274813 0.016954158
-0.043306723 -0.052780267 0.016536895 -0.010718802 -0.012867828 0.059201006 -0.010066364 0.05673474

fc3.weight f4 [128, 128]
00000000: 941a 183c 75c7 4dbd 124e 1fbc 9537 d63c
00000010: 56c2 82bc 46f5 d43c 6289 743d 17fa 64bc
00000020: dd93 8a3d 0ae6 12bd a80a 733d 1c3f 933c
00000030: e25f 953b 1be0 ccbc 26ed 14bc 1c0e f93b
00000040: 6b1d 5e3d 2155 83bb 0487 64bd a030 6b3d
00000050: 4c44 45bb cf26 ae3b b5f7 5d3d 6d81 3fbb
00000060: 2671 94bc da62 dd3c 78ce 9e3d 83bd f6b9
00000070: d22f 3a3d 8818 843d 391e 2abc 0a3d 033d
00000080: b9e6 94bc b4d3 0b3d fc4e 3bbb 4667 a73d
00000090: e74f 1f3d c206 863b 58ec 1bbd 93d1 f3bc
000000a0: efe6 e93c baf4 39bd 2fea 123c 03a9 483c
000000b0: 3387 81bd f70b 583d 6eac ec3b c3b5 043d
000000c0: e5ad 943d f202 323d 6917 dabb 1bf2 83bc
000000d0: 5a20 823d d176 f039 b064 e4bc a80d 893d
000000e0: e7e7 983d 6d49 de3c bcdd 16bd 9f7b 923d
000000f0: a490 2dbd cab4 863d e90f f23b 2a85 733d
00000100: f186 99bc 09d4 bc3c 379a 84bd 3980 8bbd
00000110: 0ca7 64bd 8922 9ebd 8818 5ebd 2b0d 37bd
00000120: 28dd 2abd 8de3 32bd b8af 8e3d 3545 d73c
00000130: 1e41 c7bb d9f7 723d d4e4 aa3d d805 85bb
00000140: 31a8 3fbd 8855 e73c 3ce9 823d 60b8 eebc
00000150: 849a fdbc baad c83c 1df6 afbc e10a 24bd
00000160: 1b2e 9a3d 44a5 123c 431b 963d 4bb5 b2bc
00000170: 9146 233d b601 59bd fe1c 7d3d be46 99bd
00000180: bf73 623d 1558 31bd 04b2 80bd 3c99 903d
00000190: abdf f13c d2a4 55bd 0276 91bd ec15 debc
000001a0: 2cf9 8e3d 29cf 4f3d 27a2 923c 6a51 7c3d
000001b0: 1cc0 5a3d 0565 593d 485a 93bd 0506 92bd
000001c0: 4e4d e2bc efe8 713d b6c7 1dbd 212c 8cbd
000001d0: 042d 49bb a522 deb9 a6f4 68bd bc8e 5eba
000001e0: c70a 3bbd ff43 143d b63e 85bd 1a5c 253d
000001f0: d382 b03c bc7c 8dbd 889d cf3c a090 943c
00000200: 3248 923d 64d0 e13c e09d 353d 3a2d 313d
00000210: 0bfa 89bd 75f2 2e3d 940b 6cbd 309e 7c3c
00000220: 3f6a 93bd 936a 81bd f084 3b3d 562d 423c
00000230: e920 6fbc d20e b03c c7de 883d 0f82 85bd
00000240: 5c2f 47bc 9b78 253d 28db 93bd 2491 82bd
00000250: 8310 9ebd 0750 e73b 86a4 023b 9663 083c
00000260: f0be 40bd ebf0 43bd 25ed 06bd 9b81 38bd
00000270: 4a5d 9e3c 9383 c83c 8ec6 e93c d7cd 53bd
00000280: 967e 36bd e9f5 63bd f3e0 bfbc 9a0d ba3c
00000290: a949 e1bc 47bd babc 0587 773d 4648 a1bd
000002a0: 6592 0bbc 4369 203d 54e2 86bc b166 803d
000002b0: 2742 1d3c 2543 c83b 33c0 68bd 0d33 153d
000002c0: 0c48 07bd 1f2a b7bc dc49 a13d 3512 853d
000002d0: 2f61 493d ce2d 65bd 9332 473d 8761 35bd
000002e0: a2b7 c6bc 0822 333d 23ff 1ebd 87e0 9c3d
000002f0: f3d1 5abd 6cc1 4bbc cf8e 86bd 066d 7cbd
00000300: da5b 58bd cc80 273d aeb4 1a3b f473 3cbd
00000310: 1f32 94bc 781e 083d 073f 933d 94cb b83d
00000320: ee47 6ebc c27c 5dbd 11b4 56bd 5d1c 48bd
00000330: 5283 253c 06bf 98bd 392d 413d 903d 90bd
00000340: 6c7b 213d 4061 83bd 3f54 2f3d ad12 9dbd
00000350: 748d b53c 08a2 1e3b a977 0dbd 8e4a 033c
00000360: a407 57ba eb11 c43c de6b d83c adb0 f73c
00000370: 4503 913d 919b f73c 5687 64bd c1a2 09bd
00000380: af45 113d 3c1b 0a3c ad14 353d 14bd 80bd
00000390: 361d f63c cd0d 47bd eb35 8a3d 1184 1e3d
000003a0: ec5f 723d 40d2 6fbb d82e 82bd 7e92 753d
000003b0: ace2 173d ab40 a1bd 9641 a3bc 3281 943d
000003c0: bc9e d63b 7c49 373d 9317 95bd 1d87 4f3d
000003d0: 4209 cebc bf96 22bc ad85 efbc fdda 57bd
000003e0: 5c86 13bc bbad 3b3b c42d 533d ce40 59bd
000003f0: 6410 df3c 1c05 353d dfbc 3e3d b669 3bbd
0.0092836805 -0.050239045 -0.009723203 0.02614955 -0.015961807 0.025995862 0.05970133 -0.013975642
0.06766484 -0.035863914 0.059336334 0.017974429 0.0045585493 -0.025009206 -0.009089744 0.007600559
0.054227274 -0.004007951 -0.055792823 0.05741942 -0.0030100523 0.005314685 0.05419131 -0.002922143
-0.01812036 0.027024675 0.077542245 -0.00047061974 0.04545576 0.064499915 -0.010383182 0.032040633
-0.018176423 0.034137443 -0.0028581014 0.08173995 0.03889456 0.004090161 -0.03806719 -0.029763019
0.0285525 -0.045399405 0.0089669665 0.012247327 -0.06324615 0.052745786 0.0072227037 0.032399904
0.0725973 0.04345984 -0.0066556227 -0.016106656 0.06353827 0.00045864892 -0.027880043 0.06692058
0.07466107 0.027134622 -0.036832556 0.07152485 -0.04237427 0.065774515 0.0073871505 0.059453167
-0.018741103 0.023050325 -0.06474727 -0.06811566 -0.05582337 -0.07721431 -0.054222614 -0.044690292
-0.041714817 -0.04367404 0.069671094 0.026278118 -0.0060807606 0.059318397 0.08344427 -0.0040595345
-0.04679126 0.028239027 0.06392142 -0.029140651 -0.030957468 0.024496902 -0.02147966 -0.040049437
0.07528325 0.008950535 0.073294185 -0.021814963 0.03986222 -0.052980147 0.061795227 -0.07484196
0.055286165 -0.043296892 -0.06283954 0.07060477 0.029525599 -0.052159138 -0.07102586 -0.027110063
0.069811195 0.050734673 0.017899586 0.06160108 0.053405866 0.053074855 -0.07194954 -0.071300544
-0.027624752 0.059060033 -0.038520537 -0.068443544 -0.0030696997 -0.00042368952 -0.05687394 -0.0008489897
-0.045664575 0.03619766 -0.06506102 0.040371038 0.021546757 -0.06908557 0.025343671 0.018135369
0.071426764 0.027565189 0.044340014 0.043256022 -0.06737145 0.042711694 -0.05762823 0.015418574
-0.07197999 -0.063191555 0.045781076 0.011851629 -0.014595249 0.021491442 0.066831164 -0.06518947
-0.012157287 0.04039822 -0.07219535 -0.063753396 -0.07717993 0.0070591005 0.001993449 0.008324524
-0.047057092 -0.04783718 -0.032941002 -0.045045476 0.019331593 0.024476802 0.028537061 -0.051709976
-0.044554316 -0.05565444 -0.023422694 0.022711564 -0.027500944 -0.022795333 0.0604315 -0.07875113
-0.00851879 0.039162885 -0.016465344 0.06269587 0.0095982915 0.00611152 -0.05682392 0.03642564
-0.033027694 -0.022358952 0.07875416 0.06497613 0.049164947 -0.055951886 0.048632216 -0.044282462
-0.024257485 0.043733627 -0.038817536 0.07660013 -0.05342288 -0.012436252 -0.06570207 -0.06162741
-0.05282197 0.040894315 0.0023606229 -0.04600902 -0.018090306 0.033232182 0.07189756 0.090232044
-0.014543517 -0.054074056 -0.05241782 -0.048855174 0.01010211 -0.0745831 0.04716227 -0.07042992
0.039424345 -0.06415033 0.042804953 -0.07669578 0.022162177 0.0024205465 -0.034537945 0.008013381
-0.00082027377 0.023934325 0.026418623 0.030235613 0.07080702 0.030225547 -0.05579313 -0.03360248
0.035466846 0.008429345 0.04420917 -0.06286064 0.030043226 -0.048597146 0.06748565 0.038700167
0.05917351 -0.0036593825 -0.06356591 0.05995416 0.037081406 -0.078736626 -0.019928735 0.072512046
0.0065496843 0.044747815 -0.07279887 0.050665963 -0.025150899 -0.009923636 -0.029238546 -0.052699078
-0.009004202 0.0028637487 0.051557317 -0.05304032 0.027229495 0.044194326 0.04656684 -0.04575511

fc3.bias f4 [128]
00000000: 807f 8c3d 76d2 99bd f28b 3fbd 1408 d83c
00000010: 5fea 75bd 0da1 6b3c 42c5 9dbb 73ef 443d
00000020: f11b 0bbd 7799 a8bc cef0 e0bc 8836 883c
00000030: 84c3 c73c 8cc8 52bd 8a13 8a3d cbde a7bb
00000040: b940 3b3d 7c3f aa3d f6d1 9d3b a321 253c
00000050: 2a92 9abd e139 cdbc e518 e13d c0e4 b43d
00000060: bb4b b23b 39b6 51bd 5078 7b3d 901a bf3d
00000070: c80c 86bc cb26 3b3d 9d94 a9bd e534 b23d
00000080: a2f4 ccbc 6ec7 90bd 7db6 a3bd 5e70 92bd
00000090: 49cb 203d ceb7 a93e 1fdc b6bd 1fad fe3b
000000a0: 9167 b8bd e483 c03e e480 46bd c09e fe3c
000000b0: 71e7 66bd b021 c63d 05e5 e13d ffa7 be3c
000000c0: 437c 233b a308 55bb 8fb1 b1bd aedb 71bc
000000d0: 4438 c7bc 473e a3bd 61db 4cbd db79 6f3d
000000e0: 1e02 b2bd da84 a03c 6bc0 d63c 4c98 0c3d
000000f0: a175 203d e726 5fbd 76cb 80bc c29f 263d
00000100: 9065 9c3d 5785 c03d 40f8 5f3c c2fc cc3d
00000110: 461c 01bc 0414 ea3d 1c2b d23c edc5 c53d
00000120: 0aab 1fbc bace e93d 77a3 aa3d bd9d 893d
00000130: 8e4c ad3d 0c9f b0bd 9b50 af3e df23 4dbd
00000140: 47e9 6d3e 3d12 0c3d 36ac ca3d fbec 4abd
00000150: d89e a13d 7c06 27bc 5490 73bd 5fd5 98bd
00000160: 203f 45bc 9921 10bd f66d 21bd 718b afbd
00000170: 0252 73bd 071f b4bb c468 b7bd 40f2 a1bd
00000180: 8dff b6bd 91be 05bb b166 b23c d255 e73c
00000190: bf55 57bd da26 48bd 87aa 84bd 67b2 1fbd
000001a0: f7ca a83d 21b1 8ebd e1f8 9d3d 3f82 17bd
000001b0: 8784 713d 177f 8e3e 6d24 a6bd e0b0 643c
000001c0: 8fef 423a f6c5 eebc 7e37 bf3d b090 da3d
000001d0: 6ad3 7bbd 7983 053e e4f5 f2bb e0b0 a2bd
000001e0: e4a5 913d 0c65 1c3d 0494 86bd 1ca2 4f3d
000001f0: 8dd5 773b f34a dd3b 4810 aebd a468 81bd
0.06860256 -0.07510845 -0.04676432 0.02637104 -0.060037967 0.014381659 -0.0048147747 0.04807992
-0.033962194 -0.02058099 -0.027458575 0.016627565 0.024385221 -0.051460788 0.06742008 -0.0051229945
0.04571602 0.0831289 0.004816289 0.01007882 -0.0754741 -0.025052013 0.109910764 0.08832693
0.0054411567 -0.05119917 0.061394036 0.09331238 -0.016363516 0.045691293 -0.08280299 0.08701495
-0.025018994 -0.07069288 -0.07993791 -0.071503386 0.039256368 0.33148044 -0.089287035 0.0077721025
-0.09004129 0.37600625 -0.048462763 0.031081557 -0.056373063 0.09674394 0.1103001 0.023273466
0.0024945892 -0.0032506369 -0.08676445 -0.014761848 -0.024318822 -0.07970863 -0.050013904 0.05846582
-0.0869181 0.019594599 0.026214799 0.03432493 0.03917468 -0.05448046 -0.015722018 0.0406797
0.07636559 0.094004326 0.013670027 0.10009147 -0.007880276 0.11429599 0.025655322 0.09656892
-0.009745369 0.11416383 0.0833196 0.06719539 0.08461867 -0.08624086 0.34241185 -0.050083037
0.2323352 0.03419708 0.09896128 -0.04954241 0.07891625 -0.010194417 -0.059463814 -0.07462572
-0.012038976 -0.03518829 -0.039411508 -0.08571518 -0.05940438 -0.005496863 -0.08955529 -0.07907534
-0.08935461 -0.0020407776 0.021777483 0.028239165 -0.05257201 -0.048865177 -0.06477838 -0.038988497
0.082418375 -0.069673784 0.077134855 -0.036989447 0.05896428 0.27831337 -0.081124164 0.013958186
0.00074362097 -0.02914713 0.09336756 0.10672128 -0.061480917 0.13038434 -0.0074145664 -0.079438925
0.07111719 0.038182303 -0.065712005 0.05069171 0.0037816495 0.0067533194 -0.08499199 -0.06318787

fc4.weight f4 [6, 128]
00000000: 3043 b93c cd45 31bd 12c8 983d d2c3 01bc
00000010: 2977 3f3c c5d3 913d 3ce9 013b 0c25 24bd
00000020: a08b be3c d332 8f3d d411 913d 397f 8abd
00000030: 6b0a 773d e6a6 783b 32e7 7c3d e8be a3b9
00000040: 69de af3c 4c6e e53c 0e0b 02b7 d241 db3b
00000050: 968a 6dbd a735 983d 9fe4 393d ba4c a13d
00000060: 2509 39bd 72eb a83d 4575 8a3d 2b27 833d
00000070: 8695 0ebd 7ceb 4c3b 8bcc 96bb f76d c0bc
00000080: 7b44 3f3d 69d2 8a3d 07ec f1bc 2ee2 82bc
00000090: 1469 29bd 2020 c13e 8f6a 583c 5beb 8ebc
000000a0: 28c8 62bd 08d8 e13e 50b1 88bb eb58 0d3d
000000b0: f6fa bbbb 17de 3a3d 4f1d 923d 45b4 6b3d
000000c0: 6578 96ba f0ae 91bd b894 1abd f1b9 61bd
000000d0: f2f3 6e3c 0854 92bc 95b3 bebb 4a48 dd3c
000000e0: bc73 b83a 1219 ae3d 19f6 5b3d 88ef 8f3d
000000f0: d850 963d 6275 7fbd b908 b23c 8df6 5bbd
00000100: 6c90 053d c367 893c 7e49 803b 43e8 6d3c
00000110: fc32 a63d 9e5b ce3c 3fcb 37bb 5a56 953c
00000120: 5851 13ba fdbe fe3c f43e b43c 4c43 c13d
00000130: 5cc7 4f3d fd6a 19bd 38a8 9a3e 5441 f93c
00000140: fbf4 3c3e 3fee 4d3d ca74 6a3c 1427 8dbd
00000150: 19be 783c 55d0 f1bc a782 58bd ea45 1a3c
00000160: 3e4a 3f3c 4045 50bd 7b63 18bd c907 ab3c
00000170: 147c a83c 33fe cf3c 2526 54bd 40b9 54bc
00000180: 0aae fb3c 5203 80bd 6e5d c2bc 8d62 1b3b
00000190: f8cf 2bbd 4e07 62bd 02d0 efbc e083 4ebd
000001a0: 5c3a 103d 64be d6bc dc62 b23b 6ad6 583c
000001b0: 2431 283d 7332 9e3e a187 263c 972d 54bd
000001c0: f51e e0bc 25d4 323d 1fc1 c73c b1f4 013e
000001d0: 2754 4abd 23f2 a9bb 0df1 bfbc ffd9 aabc
000001e0: 3001 963d 61ae 3f3d 9d2c 02bd 180a 80bd
000001f0: 7f14 86bc 7d74 65bd 004c b5bc fb62 58bd
00000200: 3dd4 f2bb ab42 413d add0 303d 3366 adbb
00000210: 746e 393c c2eb 84bd 4044 1e3d 4216 2c3d
00000220: 63ac 0fbd ad1f 063d c731 193d e039 00bc
00000230: b904 b8bc c4f6 9f3d 290e fbbc b144 763d
00000240: 829f fc3c 0c60 043d bacb 71bc 126b 76bc
00000250: ab0d b03c a5cd 063d d478 8fbc 3265 333d
00000260: 8379 3d3c 2a7f 1b3d 4726 0b3c fea8 4ebd
00000270: 7371 49bd 0979 07bd 5cc7 0bbd d84a 74bd
00000280: 376b 0c3d 484b 7dbc 3db4 31bc 6d09 6e3d
00000290: 962b 42bd 9ab8 b33d bf39 713d c621 3abd
000002a0: d595 f9bc 8df1 e43d 1e0c 2bbd 91e4 2ebb
000002b0: 292e 203d b94d 093d 35e8 f4bc 37be 3e3c
000002c0: 175e 02bc 07ad 30bd a81a 4b3b f7aa 843d
000002d0: cd8b a43d 92c4 ee3c 0d1b 82bd e382 b43c
000002e0: e570 983c ce8a c03c 8216 3f3d df92 a7bc
000002f0: 77b4 303d 6265 4b3d 3ec8 9a3d 3ead 02bd
00000300: ac7f 853c 68e7 113c e3de 4b3d a2b8 743d
00000310: 2358 6cbd 5c58 1abc 63fc 3e3d b886 17bd
00000320: 4120 1cbc 1eb8 0d3d 388a 0ebd 0354 a83d
00000330: b9bd 3a3b 5c5b 24bd 603e 63bc cffc c8bb
00000340: 41be 093d 2000 8a3d a7ca 9e3d 11ce 033d
00000350: 0e1e 933d aef9 f3bc 87cf 35bd bb6f 5c3c
00000360: dd60 3ebb 1a2c 833d 896b b43c 92b4 f13c
00000370: 5b53 ab3d 3339 693d 2c77 05bd fec4 093c
00000380: 5b62 e0bc 7f0f 1abd 9a3d 803d 597d dabc
00000390: 0526 47bd 0100 983d 9e40 17bc 3ee1 b9bc
000003a0: 8c64 b1bc ad98 803c c1e3 4e3c 88e3 6c3d
000003b0: e085 143c 8786 873d c002 873b dc10 873d
000003c0: e782 4a3d 0d77 01bd 7810 243d 8fd0 28bc
000003d0: 71bf 983d 9d05 18bd 91eb 77bd 5d6e a7bc
000003e0: f48a b23b 04f5 d6bb f77a 2e3c 48b0 c8bb
000003f0: ba35 e7bc f0e5 a23c 0df5 803d 3882 5abd
0.022615045 -0.043279458 0.074600354 -0.007920222 0.011686125 0.0712047 0.0019822856 -0.040074393
0.023259938 0.06992116 0.070834786 -0.06762547 0.06031267 0.0037941276 0.061743923 -0.0003123202
0.021468358 0.028006695 -7.751178e-06 0.006691196 -0.057993494 0.07432108 0.045384046 0.078759626
-0.045174737 0.08248033 0.06760649 0.06403955 -0.034810565 0.003126829 -0.00460202 -0.023489935
0.046696167 0.06778414 -0.029531492 -0.015976992 -0.041359976 0.37719822 0.013208999 -0.01744621
-0.055366665 0.4411013 -0.004171528 0.034508627 -0.005736704 0.045621958 0.071344964 0.057544965
-0.0011479972 -0.07113445 -0.037739486 -0.05510897 0.014584528 -0.017862335 -0.0058197477 0.02701201
0.0014072577 0.085008755 0.053701494 0.07028109 0.073396385 -0.062367804 0.021732675 -0.053701926
0.032608435 0.01677311 0.003915011 0.014520708 0.08115193 0.02519017 -0.0028044728 0.018229652
-0.0005619726 0.03109693 0.022002675 0.09436664 0.050727233 -0.037455548 0.30206466 0.030426659
0.18452828 0.050276037 0.014310071 -0.06892219 0.015182042 -0.029518286 -0.052858975 0.009416083
0.011675416 -0.050847292 -0.037204247 0.020877736 0.020566978 0.025389766 -0.05179419 -0.01298362
0.030722637 -0.06250633 -0.023726191 0.0023709864 -0.04194638 -0.055182748 -0.02927399 -0.050418735
0.035211906 -0.026213832 0.005443914 0.013234714 0.04106249 0.30897865 0.010164172 -0.05180129
-0.027358511 0.043659348 0.02438408 0.12690999 -0.04939666 -0.0051863356 -0.023430372 -0.020855902
0.07324445 0.04679716 -0.031780828 -0.06251925 -0.016367195 -0.056019295 -0.022130966 -0.05282877
-0.0074105547 0.04718272 0.04316776 -0.005291724 0.011317838 -0.0649028 0.038639307 0.042013414
-0.03507651 0.032745052 0.037400987 -0.0078262985 -0.02246319 0.07810739 -0.0306464 0.060124103
0.030837778 0.03231816 -0.014758045 -0.015040176 0.021490892 0.03291096 -0.01751367 0.04379768
0.011564615 0.03796307 0.008493013 -0.050454132 -0.04918046 -0.033074412 -0.03412567 -0.05964169
0.034281936 -0.015459843 -0.010846195 0.058114458 -0.047404848 0.08775444 0.05889296 -0.045442365
-0.030466953 0.11178885 -0.041759603 -0.002668653 0.03910652 0.033521388 -0.029895881 0.01164203
-0.007957003 -0.04313376 0.003099123 0.064779215 0.080344774 0.029146466 -0.06352816 0.022035068
0.01860852 0.023503687 0.046652324 -0.020455776 0.043140855 0.049657233 0.075577244 -0.031903498
0.01629623 0.008905269 0.04977311 0.059746392 -0.05770124 -0.009420481 0.046627413 -0.036993712
-0.009529174 0.034599416 -0.034799784 0.08219149 0.0028494431 -0.04012619 -0.013869852 -0.0061336528
0.033628706 0.06738305 0.077534966 0.032178942 0.07183467 -0.029782142 -0.044387367 0.013454373
-0.0029049434 0.06404896 0.022023933 0.029505048 0.08365508 0.056939315 -0.032584354 0.008408783
-0.02739065 -0.037612434 0.062617496 -0.026671099 -0.048620243 0.07421876 -0.0092317145 -0.022690412
-0.02165439 0.015697801 0.012627543 0.05783418 0.009065121 0.06617456 0.004120201 0.065950125
0.049441244 -0.031607676 0.04005477 -0.0103036305 0.074583896 -0.03711473 -0.060527388 -0.020438368
0.0054486934 -0.00655997 0.010649434 -0.00612453 -0.028223861 0.019885033 0.0629674 -0.053346843

fc4.bias f4 [6]
00000000: c30c 573d fe8b 39bd 1d35 b8bc b36f 953d
00000010: c7a4 603c 32a8 193c
0.052502405 -0.045299523 -0.022486264 0.072966956 0.013711161 0.00937848
