megasena_model.pth (torch, 709594 bytes, 10 tensors)

fc1.weight f4 [512, 6]
00000000: d01c d2bc 5600 cabc 14f0 cfbc 41f7 f9bc
00000010: f4e3 03bd c78f 13bd 257b c53e 06da 1abd
00000020: 9484 a5be c019 02bf ab29 b43e 84d5 b7be
00000030: eff7 64bd 0346 97bb 722c 1ebc 9d0c 43bb
00000040: 33da 8bbc 3962 8abd ffc5 26bd 3998 a53c
00000050: c47f a5bc c67a 4a3c 94a2 09bd bdd9 b9bc
00000060: 10f3 60bc ba15 82be 17fd f73d fc6c 5fbe
00000070: 9572 523e 2d1d 40be 2164 313d a41a a63e
00000080: f5ce fb3c 31e7 9b3d d9c7 30bf f751 b93d
00000090: d10b afbe f7e1 fabd f6a2 123e f7c6 16bf
000000a0: 94d8 63bc 9bb5 773e 359f 173e caf5 bcbe
000000b0: afee 4fbe 6ea8 4c3e 2f5a 18bd 74f6 8e3e
000000c0: 32f5 6f3d ebc8 a03e 94a6 93bd 045b 3ebd
000000d0: 3511 043e 2056 0fbe 8171 9abd b7c0 2abf
000000e0: 1e24 763e 31fa 05be 64f6 203d b00b 02bf
000000f0: 58cc b1bd 1b9d 34b9 7f48 d33c 1c66 c0bd
00000100: 739b a23e 6995 793e 5676 c83d 98ec 9f3e
00000110: ed80 07be 43b5 04bf 613f f1bc c358 793d
00000120: c253 fd3d ae2d 91bd 0eac 993e bd72 883e
00000130: 76df eebd b4f0 55be 1f86 803e bfd4 b0be
00000140: 465a be3e 118d 693e 4383 70bf 1d33 03bf
00000150: 2574 153d e272 983b fce3 2cbd 42b7 d4bc
00000160: 9a9d b6bc 6a9b 8dbc 9a9b 493e 6516 cd3d
00000170: 3930 363b d1c0 2c3e 2df2 c13c 3c2c 0cbe
00000180: d9fb 36bf bdf2 813e 4030 0bbf 66e9 1b3e
00000190: 0c22 883e 7233 25be ad1a 953c 99e0 0f3e
000001a0: 4d77 22be 9287 2e3e 9988 1c3e 9e0d 013d
000001b0: 29e7 e93b b65c c9be d341 393e a68d e0be
000001c0: 60f3 ae3d a2f6 703e b057 09be af4f cabd
000001d0: f769 03bd 89c2 6a3e bc38 44be c170 febd
000001e0: 202d e83d 4db7 a1be f1aa bebe 853d 1e3e
000001f0: a895 8c3e 2de6 24be c5ac a63e d70f 77bf
00000200: 9676 5f3e 88bc b4be 4a4e c6be b0b6 803e
00000210: 40c6 613b 55c2 9bbe 69ed adbe e745 a23e
00000220: 6a72 583a f47b 843d e5c8 47bc 0db3 b6bb
00000230: 4abc b63c 7281 5e3c ed84 29bd 3ccf 10bc
00000240: ea84 f4be e9cd 853e 6e71 0b3e 45b7 79be
00000250: edce 5dbe d2c4 5c3d 81de 8dbd e6f7 ccbd
00000260: a601 30be 6297 5bbd 65a7 21bf 4900 363d
00000270: ef12 5d3e b875 1ebe 9bfd 62bd 6003 3a3e
00000280: ce1f 36be ce4c cbbe 04cd 88be 76fa 643e
00000290: c12e c1be df86 c6be d5cd 8a3e eea5 463e
000002a0: f6bb 473e ec95 9c3d 44a2 1abf 8abc 31bf
000002b0: c4a4 4bbf 9ae0 c73d 066d 36bf 4c2a a13e
000002c0: 1447 a73d 3d7c c5bd 2c92 a93e c29f 503d
000002d0: 2f4c e2be ada5 08be 5074 133e f93e f6bc
000002e0: 017d aabe 1a24 7c3e efa3 a9be 9b26 6d3c
000002f0: 843c 24bd 66c4 35bd a61b 6b3e 1078 6cbd
00000300: 5feb 583e e9f1 b2bd ce0c 2abf 4f58 5d3e
00000310: 5ed0 b7be 5a0d 0abe 1edf ecbd baa3 093e
00000320: 289a 88be 1149 75be 7f3a 3abe 046d 7a3d
00000330: 3373 45be 6722 86bc 53ee dabd 69e5 4e3d
00000340: 6c96 bfbe 6065 f83c 4f40 c1be 2185 b03e
00000350: 43fd 19bd a07e c3be 500b 0dbe 80a4 32be
00000360: b2cd e53d 00d6 d2bd 1515 3abf b839 adbd
00000370: 5524 333e 3cc8 a43c d6c2 87be 4a8d 04be
00000380: 2c68 a4be deb5 51be f517 133e 0dc5 31bf
00000390: 413a c93e a76f e1be ebc4 aabe 10d9 e4bd
000003a0: dda8 fabe e35c 8a3e f5ce 813d de41 c2be
000003b0: c3e9 b03e a062 64bf 3879 3d3e aa7e b53d
000003c0: 2245 78be f199 3abc 1ec0 3fbf 688d b33e
000003d0: 606a cbbd d0e1 97bd b6fb 50be 0274 ebbe
000003e0: 5917 50bf 82ae 74be 4a32 a6be 82ea 6d3e
000003f0: a8e4 813d 0568 46bd 62ee 77be a062 22be
-0.025648504 -0.024658363 -0.025383033 -0.030513408 -0.032199815 -0.03602579 0.38570514 -0.03780558
-0.32327712 -0.5082054 0.3518804 -0.35905087 -0.05590051 -0.0046165003 -0.009654151 -0.0029762157
-0.017071819 -0.06757016 -0.040716168 0.020214187 -0.020202525 0.012358373 -0.033602312 -0.022686834
-0.013729826 -0.254072 0.1210882 -0.21818918 0.20551522 -0.1876113 0.04330838 0.324422
0.030738333 0.07612456 -0.69054943 0.09048837 -0.34188703 -0.122501306 0.14319977 -0.58897346
-0.013906617 0.2419037 0.14806826 -0.36906272 -0.20305894 0.19986126 -0.03719538 0.27922404
0.058583446 0.31403288 -0.07209507 -0.046473518 0.12897189 -0.13997698 -0.075411804 -0.6670031
0.24037215 -0.13083722 0.039297476 -0.50799084 -0.086815536 -0.00017224664 0.025791405 -0.09394476
0.31759223 0.24373402 0.09788196 0.31235194 -0.13232775 -0.51839083 -0.029449167 0.060875665
0.12369491 -0.07088791 0.3001408 0.26650038 -0.116637155 -0.20892602 0.25102326 -0.34537312
0.37178248 0.22807719 -0.9395029 -0.5124987 0.036487717 0.004652367 -0.04220961 -0.02596629
-0.022291947 -0.017286021 0.19688264 0.10014037 0.002779974 0.16870429 0.023675049 -0.13688749
-0.7147804 0.25380507 -0.543705 0.15225753 0.26588476 -0.16132906 0.018201197 0.14050521
-0.15865822 0.17043903 0.15286483 0.031507127 0.007138152 -0.39328545 0.18091516 -0.4385807
0.08542514 0.23531583 -0.13412356 -0.0987848 -0.032083478 0.22925772 -0.19162267 -0.1242385
0.11336732 -0.3158516 -0.37239793 0.15453155 0.2745793 -0.1610343 0.32553688 -0.96508545
0.2182258 -0.35300088 -0.38731605 0.2513938 0.0034450442 -0.304217 -0.33970192 0.31693956
0.0008256795 0.06468955 -0.012193893 -0.0055755437 0.02230658 0.013580667 -0.041386534 -0.008838471
-0.47757655 0.2613366 0.13617489 -0.24386318 -0.21660967 0.05389864 -0.06927205 -0.100082204
-0.17188129 -0.053611167 -0.6314605 0.044433866 0.21589254 -0.15474594 -0.05541764 0.1816535
-0.1778557 -0.39707035 -0.26718915 0.22361168 -0.37730983 -0.38774773 0.27110162 0.19399235
0.19505295 0.07645783 -0.6040385 -0.6942831 -0.7954829 0.09759636 -0.71260107 0.31477582
0.08167854 -0.09642837 0.33119333 0.050933607 -0.44198748 -0.1334445 0.14399838 -0.030059325
-0.33298495 0.24623147 -0.33132884 0.014474536 -0.040096775 -0.044376753 0.22959766 -0.057731688
0.21183537 -0.08737547 -0.6642579 0.21615718 -0.3590116 -0.13481656 -0.11565994 0.13441363
-0.26680112 -0.23953654 -0.18186377 0.06113912 -0.19282226 -0.016373826 -0.10689988 0.05051175
-0.3741945 0.030321777 -0.37744376 0.3447657 -0.037595045 -0.38182545 -0.13773847 -0.17445564
0.11220874 -0.102947235 -0.7268842 -0.084582746 0.17494328 0.02011501 -0.26515836 -0.12944523
-0.32110727 -0.20479533 0.14364608 -0.694413 0.39302257 -0.44030496 -0.3335336 -0.11174214
-0.48956957 0.27023992 0.06338302 -0.37940878 0.34553346 -0.8921299 0.18503273 0.0886205
-0.24245122 -0.011389242 -0.7490252 0.35068822 -0.09932399 -0.07416117 -0.2040852 -0.45986944
-0.81285626 -0.23894694 -0.32460243 0.23233989 0.06342441 -0.048439045 -0.2421203 -0.15857935

fc1.bias f4 [512]
00000000: 2752 0fbd c100 28be 2fc6 5e3c f1e0 2abd
00000010: e4bf 6e3d 4c18 29be ed8e e03d 1419 2dbe
00000020: a6aa 45be 2df4 3b3e 6009 aabe e5e0 aebd
00000030: ebe9 9ebe f489 48be 189e 1cbd c6a0 8cbe
00000040: ca91 e0bc 335e 89be 22fb cbbb b2db e93d
00000050: f9db 00bc 4ffd 2bbe 8aef 82bc 30f0 06bd
00000060: 5d64 4b3d 2dba 973e 2bda 9d3d b4f2 52bd
00000070: f16e 8d3e 29a1 a8be 4bc3 d03d 9e22 713c
00000080: 68f6 233e 8ae3 533e f043 503e 30de 463e
00000090: 395c aa3d 8560 c63e 5edb 5abd 7747 eebd
000000a0: fb33 223e 445c a03e 061b 47be 6a4c 5a3e
000000b0: 0180 2fbe 7637 afbd 43c3 b83d f62d 99be
000000c0: 7cb3 b83d 7add 1c3e 1a2a c0bc df47 95be
000000d0: bd08 85be 3331 b1bd 9121 693e c475 913d
000000e0: e880 35bd 14c7 923d 4bc9 dbbc 943c 8a3e
000000f0: d83f 07be 8941 49be fc06 963e 7a2f f5bd
00000100: ccc2 9bbc 76e5 c1bd 3c16 86be 8dd7 5d3e
00000110: a346 08be 6b21 e6bd 79a4 913d 26ca b2bd
00000120: d677 06bd 26fb 103e 42d0 353d 9134 533e
00000130: 0f34 38bd 07ce 2fbe 6cb3 aebd 1462 063e
00000140: 0879 473e b761 463e e677 3fbe b75e 74bd
00000150: 3bf4 d8bd 2389 d1bd 6c10 06bd 0307 763e
00000160: 8df4 de3c 5cb0 96be 3f9b 52be 7e5c 3b3e
00000170: 378b 3d3e 2a05 b1bc 62ec 90be ae9a 9ebe
00000180: a324 d9bc 0c07 34bd 0342 4fbb 91b9 a53c
00000190: cbeb ccbd bc71 143e 1bb0 84bc b505 86bc
000001a0: ebf1 82be 18b1 0ebd ef95 babc df00 0dbe
000001b0: cdc6 17bd ffa2 77be a075 8f3e d946 cbbe
000001c0: 8a03 a33e 0e64 80be ee7c 4b3e f51a db3d
000001d0: 4137 12be fbec dd3b 3fea 163e f42f 93bd
000001e0: 71da 89be f0b0 38bc a38b abbe 0cac 4d3d
000001f0: 0013 4d3e 8aeb 05be 115a 0e3e 656f 66be
00000200: 3489 903c 1e26 213d c94f c23d a648 a3bc
00000210: a812 8d3e 94c8 323a d12e 4abe fb5f 6bbe
00000220: c0ea 57be eff1 24be 0b81 23bd ce4f 1ebd
00000230: db19 69be b10c 953e 8061 293c a49b 9b3d
00000240: 5563 9fbc 2422 7f3d d6d4 6dbe f4fe 4b3b
00000250: 332a 983d 8e0c 44be 7dd1 8abb 7a38 33bd
00000260: ee92 79be d8cd 83bd 807f 33be 6320 a53c
00000270: 4bf5 8ebe ec9a b4bd 8768 17be 52d9 b0bc
00000280: d079 51be 8dc4 75bd 33fd 94bc baf6 a0ba
00000290: 86f2 483c 06c0 0f3e 0aee 403d 77e4 323c
000002a0: e39e a83e 17ea 16bd ae93 a0bc 0be8 793e
000002b0: 5978 863c 72b4 123c 914f 6e3e 6063 b1be
000002c0: 83b2 cc3d 2c67 d9bb 3e6e b63e 255a fe3b
000002d0: 209e ffbb bacf a7be d93e 4bbe 4063 80be
000002e0: 5d5d f2bd 619d 823e deb6 7abe d0cb 213c
000002f0: c00a 053e 431e a4bd b14e c1be 55b9 b93e
00000300: 68eb 17bd 56e5 1f3e 2ad8 0d3e dddb 9bbd
00000310: 78ac 91be a8b1 c13d 3b7f 81be 3578 2bbe
00000320: 5e20 61be e592 d93c 2d64 86be bfea 983c
00000330: 72d8 bc3d c47c 27bd 09b7 d5bc 0ac6 a03e
00000340: 5911 183e 9c3a dd3d 5d00 be3d a1fa aebc
00000350: 33bc b1be 4836 a6be 27cd 15be 58f8 e0bd
00000360: 9fbf 2ebd 69db d53d 885f 843e b087 50bc
00000370: d92d 34bd 58d6 843e fa02 77bd aa99 cbbd
00000380: 6066 893e 14da 45be 9ecc 9bbc d875 f43d
00000390: c53b d0bd 5748 50be 4a22 403d e25a 9ebe
000003a0: b58c 5f3e f94d 5dbd 5594 32be 35e2 2bbd
000003b0: e1db 34bd 788b 89bd 5284 f93d 1478 1f3b
000003c0: 8eab 1c3d 09da f2bd 6a61 d63d 13a4 2dbe
000003d0: 744f 41be 2512 b33c dfff e53a 4b08 c5bc
000003e0: 509a 91bb a475 1f3e d546 41be 42c0 1ebd
000003f0: 5cee c5bd a061 623c 446e afbe 4106 133d
-0.034990456 -0.16406538 0.013597055 -0.041718427 0.05828847 -0.16513175 0.10964761 -0.16904098
-0.19303378 0.18354864 -0.33210278 -0.08538989 -0.3103784 -0.19583875 -0.038236707 -0.2746641
-0.027413268 -0.2682968 -0.0062250057 0.11418857 -0.007864946 -0.16795848 -0.015983362 -0.032943904
0.04965626 0.29634228 0.07707628 -0.05150099 0.27623704 -0.32935455 0.10193499 0.014717726
0.16011965 0.20692268 0.20338416 0.19420695 0.08318371 0.38745514 -0.05343186 -0.116347246
0.15840141 0.31320393 -0.19443902 0.21318212 -0.17138673 -0.085555 0.09021618 -0.29917878
0.09018609 0.15318862 -0.023457576 -0.29156396 -0.2598323 -0.08651962 0.22766711 0.0710254
-0.044312388 0.071668774 -0.026829382 0.26999342 -0.13207948 -0.19653906 0.29302204 -0.11971946
-0.019013785 -0.09467594 -0.26188838 0.21664257 -0.13308196 -0.11236843 0.07111449 -0.08729963
-0.03282913 0.14158306 0.044388063 0.20625521 -0.044971522 -0.17168437 -0.08530316 0.13123351
0.19479764 0.19373213 -0.18698081 -0.05966064 -0.10593458 -0.10231235 -0.032730505 0.24026112
0.02721622 -0.29431427 -0.20567034 0.18297002 0.18510137 -0.021608908 -0.28305346 -0.30977386
-0.026506728 -0.043952033 -0.003162504 0.020230087 -0.100059114 0.14496511 -0.016197255 -0.016360143
-0.25575194 -0.03483686 -0.022776572 -0.13769864 -0.037054826 -0.24183272 0.28019428 -0.3970249
0.31838638 -0.25076336 0.19871876 0.10698501 -0.1427889 0.006772635 0.14737795 -0.07186881
-0.2692447 -0.011272654 -0.33504972 0.050212905 0.20026779 -0.13078132 0.13901545 -0.22503431
0.017643549 0.039342992 0.09487874 -0.019932102 0.27553296 0.00068200496 -0.19744422 -0.22985832
-0.21085644 -0.16107915 -0.039917987 -0.038650326 -0.2276377 0.29111245 0.010338187 0.075980455
-0.019456545 0.06228842 -0.23225722 0.0031127306 0.07429924 -0.19145414 -0.0042363987 -0.043755032
-0.24372455 -0.06435746 -0.17529106 0.020157045 -0.2792152 -0.088186115 -0.14785968 -0.021588001
-0.20456624 -0.0600019 -0.018187141 -0.0012280561 0.012264853 0.14038095 0.04710201 0.010918728
0.3293372 -0.03684434 -0.01960167 0.24404924 0.016414808 0.008954154 0.2327254 -0.3464613
0.09994986 -0.0066346135 0.35630983 0.007762211 -0.0078008324 -0.3277567 -0.19848193 -0.25075722
-0.11834214 0.25510696 -0.24483821 0.009875253 0.12992382 -0.080135845 -0.3775535 0.3627421
-0.037089735 0.15614828 0.13851991 -0.07610295 -0.28451896 0.09457713 -0.25292382 -0.16745074
-0.21985003 0.026559303 -0.26248303 0.018666623 0.09220971 -0.04089047 -0.026088255 0.31401092
0.14850368 0.108021945 0.09277413 -0.021359744 -0.34713897 -0.32463288 -0.1462904 -0.10984868
-0.042663213 0.1044224 0.25854135 -0.012727663 -0.043989036 0.2594478 -0.060305573 -0.099414185
0.26835918 -0.19321471 -0.019018468 0.119365394 -0.1016765 -0.20340095 0.0469077 -0.30928713
0.21831019 -0.05402944 -0.17439397 -0.041963775 -0.044155005 -0.06716055 0.12183441 0.0024333047
0.038249545 -0.11857993 0.10467799 -0.1695712 -0.18877965 0.021859238 0.0017547569 -0.024051806
-0.0044434443 0.1557222 -0.18874677 -0.03875757 -0.09664604 0.013817221 -0.34263813 0.035894636

fc2.weight f4 [256, 512]
00000000: 02ec 663b 2600 cf3d dcf4 3c3c 65ea 1e3b
00000010: e271 01be ca35 533e a217 6abe 1f41 ba3e
00000020: df39 8a3d c82a 853b ca95 70bd b56d 2dbe
00000030: 45eb 50bd 3863 103f e038 cfb9 39b7 ad3c
00000040: 952d 3bbf a1c7 babd 49e0 cfbe e346 d3bd
00000050: 7433 173d ee14 0c3e e1ed d03e 882e 71ba
00000060: aa32 283e 7386 9abc 4127 e7bc 1f3f 813e
00000070: 1d3b 01bf a031 88be c8db e23e 2744 8f3d
00000080: 0336 f33d eabe 5dbe 5ac0 803e 7cbc 98be
00000090: 3d89 c23c 2c9f 06be b76e a7be f833 93be
000000a0: 5ef1 43bf 8d39 c4be f79a ef3d 46b3 ffbd
000000b0: f1f6 c73d 7a46 17be 570e e63d fb4c 4e3e
000000c0: e61e c23d 788b a93d b38d b4bc f898 28be
000000d0: 6846 75be 1c0f ad3d 6ac6 f6bc b9d7 98be
000000e0: 9e15 93bb 0702 813d e16f 71ba 018e 09be
000000f0: 21d5 983d 86d6 3bbb ed6a 323e 145b 75bf
00000100: 10f5 a6b8 e007 363c 489a e1bc f616 acbd
00000110: 472a 84bd ab83 cabd a576 2bbd 6da8 6ebe
00000120: 66e2 6c3a fb68 d3bc 3992 a43e 59ee 653f
00000130: fa9e 9c39 184b ecbd 7619 0b3e 0ed8 d6bf
00000140: da53 b6bd 9df2 cdbe ee89 e6bd 92bd 31be
00000150: 6229 c03e f1df 11be a6d0 283d a435 ef3d
00000160: bba0 28bb 9982 803e b6a3 663c 862c 8fbd
00000170: f4af 32be fb9c b6ba b859 293f 3acc 95be
00000180: 6c0c e339 d293 2cbb 3f28 293c ac38 0b3e
00000190: 9f1d 72bf dda6 0cbf 76c6 9fbb 9d79 1bbf
000001a0: 8a46 8a3e 55d0 9bbb 3443 e93a ed8d 08bf
000001b0: c45a b5bc 2da7 013d 6730 babd 4b81 afbd
000001c0: 9ce6 82be c85f 663e 8684 a3bd fd52 2ebe
000001d0: 6ba9 aabe 0c1b 923e 8a7c c83d f591 233e
000001e0: 719b 9fbd 2518 b63a 4bf3 f73e b599 21bf
000001f0: d93c 5fbe 58f1 4a3d c7f0 2a3f 4a05 d0be
00000200: 5efd 34bd c97d 763d 2ee1 a8bb 9c36 40bb
00000210: 4e80 89bf 8c3c 0f3d 3077 83be 9cba 89bd
00000220: 2d9b 79bf ba12 513e 89bc 97bb 3b82 c4bd
00000230: 1179 2a3e 9bac 1abe 861b b9bd d55e b63d
00000240: db47 2d3c 4ab3 6ebf b13b 19be 1228 be3c
00000250: f2e5 293e 0ea2 b83c b1a1 383a 9a11 11bb
00000260: 5194 b83d 1677 7e3e 1d0c c7bd 1d88 aebd
00000270: ded8 883e 92f6 193d 259a 013c ff55 94bb
00000280: e0d1 e6be 6228 ba3e 9a95 c8bc 326d 7e3a
00000290: d958 20bf f076 aebd 7a0a 573d 4a6b fb3e
000002a0: 1e87 4ebd 963f 91bb ef5b 9fba 1931 37bf
000002b0: ad52 ecbe 2fb6 f73d e065 efbd 4a79 823e
000002c0: 900d 0a3e f589 263b 7ac9 193e 8b4f 0fbd
000002d0: 695d ab3e 9dd4 1c3d 3c7e 973e b409 2dbf
000002e0: b970 40bf 79cd 0f3e 90a4 b0bd 9fd6 39bd
000002f0: 05a4 173e 4271 973e 9f80 893e 95ba 793d
00000300: 9f4e 8b3c 4070 d2bc 064f 273e a0cd 993e
00000310: 6210 17bd 03aa f3bd d14a dc3d 5ffb cebd
00000320: e949 2cbe 8d63 a53d 917e cb3e f13f 6f3e
00000330: 609a 2f3e 8812 973b 5dfb cc39 0e82 2b3e
00000340: 73e8 573e caef a23d b3e9 9c3d 2778 a739
00000350: 4d54 7b3d 02e9 8abf d814 483d b8bc 7cbe
00000360: a6fa 8db8 19b2 693e 3955 363e 2261 7b39
00000370: c714 733b 4805 b0be 2586 b33c c26d 6f3e
00000380: 382a e13d 38bc 143e 7d07 1dbe 972d a6be
00000390: e47b fdbb ab09 8a3d d594 85be 5845 263e
000003a0: f83d 71be a2ec e63d 25f1 15bd fc5e eabd
000003b0: 8a5c 14be e96b 093d 909c 6dbf ff90 b2bd
000003c0: bcc9 1a3d 03b6 73be 2c3c 603e 0f82 55be
000003d0: f6b5 5bbe 89fc 10bc 5320 03bc 1cd9 283b
000003e0: 2b75 0f3b b3eb 2dbf b30e 9e3e 6e3e 86bb
000003f0: 2180 0ebd f083 b8bc a0dc 3cbe 94da babc
0.0035235886 0.1010745 0.011532988 0.0024248597 -0.12641099 0.20625988 -0.22860578 0.36377808
0.06749319 0.004063938 -0.0587366 -0.16936381 -0.05100562 0.56401396 -0.00039524492 0.021205531
-0.7311643 -0.091201074 -0.40600803 -0.10316255 0.036914304 0.13679859 0.40806487 -0.0009200354
0.16425577 -0.018862939 -0.02821696 0.2524347 -0.50480825 -0.2660036 0.44308305 0.06995421
0.11875536 -0.21654859 0.25146753 -0.29831302 0.023747081 -0.13146657 -0.32701656 -0.28750587
-0.7654017 -0.38325158 0.11699479 -0.124853656 0.09763897 -0.14772978 0.11233204 0.20146553
0.0947855 0.08278555 -0.022040224 -0.16464603 -0.23952639 0.084501475 -0.030123908 -0.29852083
-0.004488661 0.06299215 -0.00092100917 -0.13433076 0.07462526 -0.0028661801 0.17423601 -0.958421
-7.961143e-05 0.011110276 -0.027539387 -0.08402817 -0.06453376 -0.09888395 -0.041861195 -0.23306437
0.00090364215 -0.025806895 0.3214281 0.89816815 0.00029873085 -0.115377605 0.13583931 -1.6784685
-0.08902712 -0.40224162 -0.11256777 -0.17357472 0.37531573 -0.14245583 0.041214608 0.11680153
-0.0025730568 0.25099638 0.014077118 -0.06990914 -0.17449933 -0.0013932282 0.66152525 -0.29257375
0.0004330607 -0.0026333225 0.010324537 0.13595837 -0.9457645 -0.54942113 -0.0048759533 -0.6073244
0.27006942 -0.0047550597 0.0017796517 -0.5334156 -0.022138007 0.031653572 -0.09091263 -0.085695826
-0.25566566 0.22497475 -0.07984261 -0.17023845 -0.3333238 0.2853626 0.09789379 0.15973647
-0.0779332 0.0013892694 0.48427805 -0.63125163 -0.21800555 0.04954657 0.6677365 -0.40629035
-0.044186942 0.06017855 -0.0051537966 -0.0029329425 -1.074228 0.03496985 -0.2567687 -0.06725046
-0.97502404 0.204173 -0.0046306294 -0.09595152 0.16647746 -0.15104906 -0.09038453 0.089048065
0.010576214 -0.93242323 -0.14964177 0.023212466 0.16591623 0.022538211 0.0007043137 -0.0022135735
0.09012664 0.24850115 -0.09719107 -0.08522055 0.26727957 0.037588663 0.007910286 -0.004526853
-0.45081997 0.36358935 -0.024485398 0.00097056024 -0.6263557 -0.08518779 0.052500226 0.49105293
-0.050421827 -0.004432629 -0.0012158136 -0.7155929 -0.46156827 0.12095296 -0.11689353 0.2548316
0.13481736 0.0025411819 0.15018263 -0.034987967 0.33469704 0.0382887 0.29588497 -0.6759293
-0.75172 0.14043225 -0.08625138 -0.045370694 0.14808662 0.29578596 0.26855943 0.060968954
0.017005263 -0.02568829 0.16338739 0.30039692 -0.03688086 -0.118976615 0.107564576 -0.10106539
-0.1682507 0.080756284 0.39745 0.23364235 0.17148733 0.0046103634 0.00039097192 0.1674883
0.21084766 0.079558924 0.07661762 0.00031942243 0.061359692 -1.0852358 0.048848003 -0.24681365
-6.770091e-05 0.22821845 0.17805947 0.0002397341 0.0037091242 -0.3437903 0.021914551 0.23381713
0.10994381 0.14524925 -0.15334888 -0.32456657 -0.007735716 0.06740125 -0.26090112 0.1623739
-0.23558795 0.11275603 -0.036606926 -0.11443898 -0.14488426 0.033550177 -0.9281702 -0.08719062
0.037790045 -0.237999 0.21897954 -0.20850395 -0.21456131 -0.008849272 -0.008003312 0.0025764173
0.0021889906 -0.67937773 0.3087059 -0.0040967977 -0.034790162 -0.02252385 -0.18443537 -0.022809304

fc2.bias f4 [256]
00000000: fbff 3bbc 3c02 99bc e0db 3ebc a575 3fbb
00000010: bf5a d8bc 03c8 08bc 4fdd fb3a 495e 98bd
00000020: 98c9 9fbb 634e 98bd f297 47bd 009c 9fbc
00000030: da41 3fbb bd22 f6bc f226 96bd a82f 47bb
00000040: 7e3b 9ebb 3d5a 1cbc 73be b3bb b8fd 37bd
00000050: 9f85 a4bb b896 e3ba 93ef a3bb c9d9 0cbc
00000060: b5fe 293c ec5c 75bc 83a3 923a 8dc2 9cbb
00000070: ac9d b03a c0a6 7cbd d452 34bd 7e2e 7cbd
00000080: a863 c1bc e28a cfbb 585f 9fbd 30db 71bd
00000090: 46f9 22bd 1fc1 0cbc 15ba c3bd 81e7 e9bc
000000a0: ca75 dabb 023b c2bc a408 8bbb 8dde a5ba
000000b0: 367a b3bc 1624 d6bb 51eb f6bb ea5d e8bc
000000c0: 5ed6 a3bc 9b83 d5bb fccb 1abc dc05 d0bd
000000d0: 79f2 9abb 2be1 00bb 35bf 1dbd 90b0 11bc
000000e0: 742e 7ebc 81ff 03bd 706d 6fbb fc8f 0ebd
000000f0: bc32 88bb aeeb 3b3c 4413 9ebb 0707 69bb
00000100: 415d 50bb 63a6 b0bd b4af a5bc 3543 bd3a
00000110: ef47 f5bb 710f 3ebb 9a5f bbbb efa6 4bbd
00000120: d2e3 113a 7a0e 69bc 0cae fdbb efee 89bb
00000130: f57d 3ebd 778e 98ba 0e33 67bc 26bd a1bd
00000140: 2506 1ebe 9175 cabc 7000 ffba ae57 1fbd
00000150: 10e8 87bc 4279 aebb 7a1c 5bbb 6060 3a3b
00000160: c50a b5bb 6d68 e8bc d71f 873a a790 1abb
00000170: 926d 9fba 8bfb d6bb c267 06bb 84b7 1abd
00000180: 81a7 283c 11ef d3ba abfe 103d fc10 bcbb
00000190: 6bd8 c6ba 6634 dbbb b1d1 b9bc 7e7d 06bb
000001a0: 1936 d5bd 03a6 7bbc 0d83 05bc fdb0 a5bc
000001b0: 1aee 64bb 33eb b8bc f694 cebc 1267 11bc
000001c0: efd5 16bd 5a7e 35bd b37e 05bb 5854 a43a
000001d0: 1733 aaba 9c29 97bb 88fa 04bc 250b 80bd
000001e0: c25a fbba 35ea 4abd cca5 e8bb 3c7b a7bb
000001f0: 676f a2bd b331 d4bd ad68 89bb 7c15 3cbc
00000200: 15b0 98bb b131 cebb 5f69 34be 17d2 a8bb
00000210: 22bf 30bc fe2c 9fbb fa99 55bc 8ba6 afbb
00000220: 331e eebc 7a6f 89bb fb85 4ebb 62e6 74bb
00000230: 1e92 d6bb df16 44bb 1d94 9fbb 6e13 f6b9
00000240: 0662 b1bc 3bdf a8bb 87d8 90bc 5e0c 56bb
00000250: 104d 02bb f479 aabc 976c 8d3a 5f71 edbb
00000260: fb09 14bc 2ea6 6bbc 10ec fdbb e493 b5bb
00000270: 0ae2 e4bb 3d51 aa3a 05f5 1ebd c958 1ebd
00000280: 524d 92bd dbbb 94ba 4a6b a53c eeff a3bb
00000290: 22d6 08bc 5dde 96bc cc27 88bd 6ba8 04bd
000002a0: 66b7 553b 93e3 cbbc ecf7 3dbc e0e2 27bd
000002b0: 1d8e 9639 7f14 5cbb be34 98bb 0ea2 ec3b
000002c0: 0864 4e3c e004 09bb d101 12bc 16a3 60b9
000002d0: 74f3 56bc 2a5e a5bc 7e73 3ebc b8ad 3abd
000002e0: 6e3d 2abb 0ff9 07bc a348 dfbb 38f1 f1bb
000002f0: 0227 20bb cb4b 54bc 3291 83bb b3ea e3bc
00000300: ce73 e6bb df8b 37bb b9a5 2d3c b167 9dbb
00000310: 412f 083c 34f4 82b9 2c7b 96bb d406 dbbc
00000320: 5e6e 0ebb 5e20 f7bb c96b cfbd 5c80 52bd
00000330: 97e5 17bb 3631 d53a 5099 a5bb f957 9cbd
00000340: c50d 23be e2a9 97bc 6166 b4bb c8a2 7ab9
00000350: 4f7a b33a 74a4 17bc 6a46 d4bb 7a33 f7bb
00000360: 9b50 e2ba f788 b3bb c6d3 a8bc 8a24 a1bb
00000370: c610 7bbb 47ca 18bd 363a 2a3c db21 83bb
00000380: c662 60bc c56f 71bb 51a6 853a 87de 80bb
00000390: d222 ffbb 0340 98bb 5496 38bb d584 b3bb
000003a0: 79f1 46ba dca4 1bbc fdf0 bbba 689f 7dba
000003b0: 9b25 cbbd 5f80 9aba d0ba f13b 0cd0 8fbe
000003c0: 96ec b0bb 6efa 2fbc 4296 3ebc 53dd e03b
000003d0: ca8f cdba 2894 35bb 1f6a 13bd 1ae3 953b
000003e0: 4d92 20bc 12df 35bd 8180 c6bd 4431 bfbb
000003f0: 28f3 373c 7708 82bc 8828 3abb 1bd0 80bc
-0.011474605 -0.018677823 -0.011649102 -0.0029214409 -0.026410459 -0.008348468 0.0019215735 -0.074398585
-0.004876327 -0.07436826 -0.04872889 -0.019483566 -0.0029183538 -0.030045861 -0.07331647 -0.0030393396
-0.0048288694 -0.009542999 -0.00548535 -0.0449197 -0.0050208117 -0.0017363643 -0.0050029247 -0.008596846
0.010375668 -0.014975768 0.0011187646 -0.0047839344 0.0013474724 -0.061682463 -0.044024304 -0.061567776
-0.02360709 -0.006333695 -0.07781857 -0.059046924 -0.039788507 -0.0085909655 -0.09556977 -0.028552772
-0.0066668736 -0.023709778 -0.0042429734 -0.0012654826 -0.02190886 -0.0065350635 -0.007535376 -0.028365094
-0.01999968 -0.0065159327 -0.009448048 -0.101573676 -0.004728612 -0.001966546 -0.038512427 -0.008892193
-0.015514005 -0.03222609 -0.0036533736 -0.034805283 -0.0041564386 0.011469765 -0.004824074 -0.0035557167
-0.0031793865 -0.08625486 -0.020225383 0.0014439585 -0.007485382 -0.0029000903 -0.0057181837 -0.049719747
0.0005565259 -0.014224643 -0.0077416953 -0.0042093913 -0.04650684 -0.0011639138 -0.0141112935 -0.07897405
-0.15432031 -0.024714263 -0.0019455086 -0.038901977 -0.016590148 -0.0053245137 -0.0033433721 0.0028438792
-0.0055249655 -0.028370107 0.0010309172 -0.0023584755 -0.0012163392 -0.006560748 -0.0020508622 -0.03777267
0.010293842 -0.001616927 0.03539912 -0.0057393294 -0.0015170699 -0.006689596 -0.022682996 -0.0020521577
-0.10410709 -0.0153594045 -0.008148921 -0.020225996 -0.0034931959 -0.02257309 -0.025217514 -0.0088746715
-0.036825117 -0.04430995 -0.0020369708 0.0012537343 -0.0012985197 -0.0046131145 -0.008116372 -0.06252126
-0.0019176828 -0.049539763 -0.0070998427 -0.005111126 -0.079314046 -0.10361042 -0.0041933865 -0.011479732
-0.0046596625 -0.006292545 -0.17618321 -0.005151998 -0.010787757 -0.0048576584 -0.013037199 -0.0053604296
-0.029067134 -0.0041941972 -0.0031512964 -0.0037368764 -0.0065481802 -0.0029920859 -0.0048699514 -0.00046935253
-0.021653187 -0.0051535643 -0.017681373 -0.003266118 -0.0019882359 -0.020810105 0.0010789809 -0.007246181
-0.009035583 -0.014382882 -0.007749088 -0.0055413116 -0.006984954 0.0012994182 -0.038807888 -0.03865889
-0.07143654 -0.0011347489 0.020192761 -0.0050048744 -0.0083518345 -0.018416578 -0.06648216 -0.03238718
0.0032610535 -0.02488879 -0.011594754 -0.04098785 0.00028716112 -0.0033581553 -0.0046449592 0.007221467
0.0125970915 -0.0020907447 -0.008911566 -0.00021423059 -0.013119567 -0.020186502 -0.011624215 -0.045575827
-0.0025976556 -0.008299126 -0.006814079 -0.007383492 -0.0024437313 -0.012957524 -0.0040151114 -0.027821874
-0.007032848 -0.0028006954 0.010598593 -0.0048036207 0.008312047 -0.00024977478 -0.00459232 -0.026736654
-0.0021733264 -0.0075417003 -0.1012798 -0.051391944 -0.0023177618 0.0016265276 -0.0050536767 -0.07633967
-0.15923221 -0.018513624 -0.0055053686 -0.00023902499 0.0013693067 -0.009255517 -0.0064781206 -0.0075439783
-0.0017266454 -0.005478974 -0.020608794 -0.004917686 -0.0038309558 -0.03730228 0.010389855 -0.0040018386
-0.013695424 -0.0036840301 0.0010196661 -0.0039327773 -0.0077861333 -0.0046463027 -0.0028165774 -0.0054784813
-0.0007589083 -0.009499755 -0.0014338788 -0.00096749375 -0.09919282 -0.0011787525 0.007377006 -0.28088415
-0.005399297 -0.010740859 -0.011632504 0.0068623214 -0.0015683111 -0.0027706716 -0.035989877 0.0045741918
-0.009800506 -0.04440219 -0.09692479 -0.0058347303 0.011227407 -0.015873177 -0.0028405506 -0.015724232

fc3.weight f4 [128, 256]
00000000: cb75 8abe e3e3 27bf c107 54bb adb8 55bb
00000010: 2048 423d f2be 593b 9b49 513d 25a0 90be
00000020: 6a6b e7bb dd91 6fbf 565a 25bd 78e0 5d3e
00000030: 1056 f0bd 158e e3bb 05c4 fabe e41d ccb8
00000040: f707 443b 07fb c03b 74b7 ab3a 71bf 5dbf
00000050: 1f51 9abb 3683 7c3b 2dbe 60bb 3d38 82bb
00000060: 791c 1f3e 810c 3abe dafd f73d 45dc 883b
00000070: 1f64 b9bd 0d6b b5be fbfc 1abe fe1e c43c
00000080: 630f 61bd 3261 bebb 525a 883e 8328 eebe
00000090: 3fcf 09be 3428 2a3b 5816 2dbf 1668 543b
000000a0: e22c a9bb 4fcd 7d3e 4c06 89bb d64c 8b3b
000000b0: d200 093e 6644 d8ba 841a 8b3b 8eb1 82ba
000000c0: 8dca 9c3e a598 12bb dfb4 b03b 5161 a1be
000000d0: 3a8d 973b 60eb e939 2067 643d 064e 41bb
000000e0: 9bc0 073b 4b24 f5bd cd0c 8f3b 5017 56bf
000000f0: 4e60 8aba a051 7b3e fc47 28bb 188e e3ba
00000100: feaa bd3b 223e 0bbe c559 b23e 2f36 1dbe
00000110: b04c b53b c996 e2be 61b4 efbb 7c55 90be
00000120: 4ff6 913e 0800 0e3b 6fa9 3bbb 5f23 0f3b
00000130: 535e f53c 370a 50ba ec57 cbba fe44 38bd
00000140: f29b 113f 5912 a33e f86d 3bbb 46b2 54bf
00000150: da66 c03c 1b70 5dbb 11cf 033b 1cc4 c2bf
00000160: abed c0bb 55df dcbb e770 013f e386 843b
00000170: d3c9 3ebb 38ca 4abb cf16 0ebd 5f9b 6cbf
00000180: b935 e5bb 2c20 2f3b 0871 bf3e 8203 5b3b
00000190: bc7d e3bb ddf4 6dbb fee7 593c 70fe fbbb
000001a0: 3322 b2bd 2aa7 45be c38a 88be c112 fc3e
000001b0: efa1 143b 8a51 97bb 804c 78bc 7175 c7bb
000001c0: ba55 2f3e 067f b73e 5159 a2bb 07b0 af3d
000001d0: 047a a43e 2ba0 0d3b d48c 74bb da97 d43b
000001e0: 1445 b8bf 2965 b23d 3d3a a13e 94d6 923b
000001f0: f8c9 0bbb c3f4 823e 9fed cebb b196 14be
00000200: 0a31 3e3b aec5 96bb 6f87 1f3e ed9c bf3a
00000210: 064e 373c 3326 99bb 6784 f2be ecec 903b
00000220: 36c7 61be 628f 4a3b 83c3 f3bb 9de0 edbb
00000230: a16e 35be c6c8 9ebb 3fa3 073a a2db d2be
00000240: f373 a83d 04f3 a6bb 961d 17bf c6c6 f4bb
00000250: 35f9 54bb ab9f a4bd 0ef7 a0bc ba91 ffba
00000260: c6e9 65bb da85 73bd 3fcc 0cbb 2938 bfbb
00000270: 4cdd 883b bc60 4dbf 1b22 3fbe 4fc9 2abf
00000280: 851d 38be 8f94 b33d 47b5 b5bf b676 2bbf
00000290: 9b78 573b 7ec4 ee3e 65da 7bbf b480 373c
000002a0: b7a4 543e e0c7 00bc f1d0 91bf 8f9a ae3e
000002b0: 8a79 80bc 180e 1f3b 9b09 d23a 864a 303e
000002c0: 5459 0abf 10a4 d13b 5201 bb3a 83d5 493b
000002d0: 03db 023c 557e 26bf 6259 febb 5042 603b
000002e0: 0d3f a439 1738 8d3b c930 9e3b cae7 afbb
000002f0: 1091 833a fafd a43d 6471 eb3a d6a0 9abe
00000300: d762 083c 36d4 d93b 5e57 e1bd 4502 6d39
00000310: 7c28 c1bd 0c7e 00bf 43d5 b1bb 80a6 f0bc
00000320: 0c17 4cbb 456a 2bbb 0002 e13e 18b1 22bf
00000330: 4b1e 24ba f12e e73c 1a17 8539 0c3b 73bf
00000340: 9ec4 97be 9647 febe 3fb0 053b eeba 9a3e
00000350: 22ed 10be cb56 74bd 5254 0a3c 0459 1dbf
00000360: abd7 ab3a 019f 103c 3497 db3b 0991 9bbb
00000370: 00f6 c63b 7f82 f6be 01ee 483e 550b b73b
00000380: 06a9 febb 0fb2 623b 5841 043e 0f67 10bb
00000390: bb52 8dbb 5a48 193b 7dfd f4bb 7d48 833b
000003a0: d91c 52b9 1c45 5bbb 373d e2bb 12ac cd3d
000003b0: d9f4 edbd 01fd 1c3e 212b f8be 0a0a d93e
000003c0: 24b6 ca3b c0e2 983b 1aef c3bb 025f 09be
000003d0: 0e57 133e a2ad c43b df2c 633c 07a3 143f
000003e0: 1cff ccbe 4b61 acba 1300 b73e 6d5b 283b
000003f0: c6fd bdbe 49c0 29bf 9825 5dbb 7cc1 d33b
-0.27042994 -0.655821 -0.0032353255 -0.0032611296 0.047432065 0.0033225385 0.051095586 -0.2824718
-0.0070623653 -0.93581945 -0.040369354 0.2166766 -0.11735165 -0.0069444277 -0.48977676 -9.7330456e-05
0.0029911974 0.0058893 0.0013100938 -0.8662024 -0.0047093774 0.0038530356 -0.003429304 -0.0039739893
0.15538205 -0.18168832 0.12108965 0.004176649 -0.090523 -0.35433236 -0.15135567 0.02394056
-0.054946315 -0.0058099264 0.2663141 -0.46515283 -0.13457964 0.0025963904 -0.6761222 0.0032410673
-0.005162821 0.2478535 -0.004181659 0.004251103 0.13379219 -0.0016499877 0.0042451043 -0.0009971128
0.30623284 -0.0022368815 0.0053926553 -0.3151956 0.00462499 0.0004461659 0.05576241 -0.0029495968
0.0020714167 -0.11969813 0.0043655396 -0.8362932 -0.0010557265 0.24542856 -0.0025677672 -0.0017361073
0.005788206 -0.1359792 0.34834114 -0.153527 0.0055328235 -0.44255665 -0.007315204 -0.2819022
0.2850823 0.00216675 -0.0028634926 0.0021841151 0.029952204 -0.00079360924 -0.0015513874 -0.04498767
0.5687858 0.31849936 -0.0028599482 -0.83084524 0.023486543 -0.0033788744 0.0020112435 -1.5216098
-0.005887707 -0.0067404904 0.505629 0.0040444 -0.0029111996 -0.0030943286 -0.03468972 -0.9242458
-0.0069949296 0.0026722057 0.37390924 0.003341884 -0.006942479 -0.003630928 0.01329994 -0.0076902434
-0.08697929 -0.1930205 -0.26668367 0.49233058 0.0022679528 -0.0046178745 -0.015154958 -0.006086998
0.17122546 0.358391 -0.004954495 0.085784964 0.3212434 0.002161036 -0.0037315385 0.0064878287
-1.4396081 0.08710701 0.31489745 0.004481146 -0.00213301 0.25577363 -0.0063149477 -0.14510609
0.0029020929 -0.004601202 0.15579008 0.0014618911 0.011188036 -0.004673743 -0.4736664 0.0044227745
-0.22048649 0.0030908217 -0.0074390783 -0.007259442 -0.17717983 -0.0048457114 0.0005174167 -0.41183192
0.082252406 -0.0050948877 -0.5902952 -0.0074699847 -0.0032497172 -0.08038267 -0.019649055 -0.0019498386
-0.0035081967 -0.059453823 -0.0021484045 -0.0058355522 0.0041767713 -0.8022573 -0.18665354 -0.6671342
-0.17980011 0.0876857 -1.4195946 -0.66978014 0.0032878283 0.46634287 -0.9838012 0.011200119
0.20765959 -0.007860154 -1.1391889 0.34102294 -0.015682954 0.0024269875 0.0016024591 0.17215928
-0.54042554 0.0063977316 0.0014267361 0.003079743 0.007986787 -0.6503652 -0.00776212 0.0034219213
0.00031327494 0.004309665 0.004827593 -0.0053682076 0.0010037739 0.08056255 0.001796287 -0.30200833
0.0083243465 0.006647612 -0.11002992 0.00022602927 -0.0943155 -0.5019233 -0.005427034 -0.029376268
-0.0031141667 -0.002615587 0.43946838 -0.63551474 -0.00062606175 0.028220626 0.0002538495 -0.95011973
-0.29642195 -0.4966399 0.002039924 0.3022074 -0.14152959 -0.059653085 0.008442955 -0.6146395
0.0013110539 0.008826972 0.0067013744 -0.004747514 0.006071806 -0.48146436 0.19622041 0.0055860677
-0.007771614 0.0034590994 0.12915552 -0.0022034084 -0.0043128408 0.0023389072 -0.007476507 0.004006444
-0.00020037907 -0.003345794 -0.00690427 0.100425854 -0.116189666 0.15330888 -0.48470405 0.42390472
0.0061862636 0.0046657026 -0.005979431 -0.13415149 0.14388677 0.006002144 0.013865679 0.5806126
-0.40038383 -0.0013151554 0.35742244 0.002568926 -0.37107676 -0.6630903 -0.0033744331 0.006462274

fc3.bias f4 [128]
00000000: a4ae b4bd 4fcb 173d 0960 923d 6599 b93d
00000010: 27a0 6f3d 8fb7 173d 1494 c4bc 600c 193d
00000020: 0614 853d 837c 313d 032c 523d 708c 973d
00000030: b9f3 4cbd ae06 d5bc 1303 7a3d 0dd1 81bd
00000040: 8599 bb3b 477b 99bd 7cc3 c6bc 34bf 903d
00000050: 6faa 5f3d 6b3c 91bb 5881 6d3d ad8a 553d
00000060: 34ab e23d 08ac 4e3d eb0e 4c3c 36af efbd
00000070: cd5b 863d 0178 d6bd b810 193b 4bfb e43c
00000080: 54fb 983d ebfb 33be b6fd 443d 4f0d 393d
00000090: 6085 b9bd bf98 e43b 7b15 7d3a 1cc2 473c
000000a0: a573 ba3d ef9c a53d 0b1c 5fbc 4478 3e3d
000000b0: 97b3 9a3d f98d c63d b8a9 c13c 81dd aa3d
000000c0: f214 a83d 3aec 8c3d bb4b d9bd 1804 153d
000000d0: eefc 973b 0a3c 8b3d 36e7 6f3d 9e9b 8f3c
000000e0: 0173 323c 7b15 913d f9e8 243d d040 8c3c
000000f0: a978 453d 2317 93bc 8469 f5bb 669b debc
00000100: 1803 953d 514b 453c 8ac2 eb3c 3218 ccbc
00000110: d121 6a3d 248d a53d be20 ac3d 917e 843d
00000120: f787 153d fc63 aa3d f097 813d 7f03 cd3c
00000130: ea33 633d 95de 343d cc99 bdbd d1ff 6ebd
00000140: 3223 423d e205 29bc 4788 69bd 7299 303d
00000150: cea0 bc3c a855 bf3d 356b 9a3d 6445 c5bc
00000160: aab7 823d 06b9 013e 3582 83bd 2e78 453d
00000170: e164 d23c 5d95 2e3d 0599 8a3d 2f23 fcbb
00000180: 34d0 45bc fbb0 343d f4a7 843c 7d7b 223d
00000190: a6c6 74bb 494a 293d b475 3fbc 38dd 9c3d
000001a0: aa12 24bc d9e2 65bd b0d1 653d 1a71 4cbc
000001b0: 2cc7 f33c cb67 613d b9aa 4bbc 4ce8 c4bd
000001c0: f39c cb3d b048 1abc 34ff 4f3d d66e 56bc
000001d0: 8069 f93c 82c5 07bd d355 ae3d 7df4 183d
000001e0: ebf2 9cbb 4cc2 4fbd 618b 983d 3d45 23bb
000001f0: 3415 453d 95df 9d3d a0a5 933d e606 823d
-0.088223726 0.037059125 0.071472235 0.09062461 0.058502343 0.03704029 -0.02399639 0.037365317
0.0649796 0.043331634 0.051311504 0.07399833 -0.05003712 -0.026004162 0.061038088 -0.063387014
0.005725088 -0.074942164 -0.024263136 0.07067719 0.054605898 -0.004432251 0.05798468 0.052134205
0.11067811 0.05045703 0.012454729 -0.11703341 0.06560478 -0.10472108 0.0023355912 0.027951857
0.07469812 -0.17576568 0.04809352 0.045178708 -0.090586424 0.0069762166 0.0009654385 0.012192275
0.09104089 0.08086573 -0.013617526 0.046501413 0.07553785 0.09695048 0.023640499 0.0834303
0.0820712 0.06880994 -0.106101476 0.036380857 0.004638306 0.06798561 0.05857011 0.017530259
0.010891677 0.07084175 0.040261243 0.017120749 0.048210774 -0.017955368 -0.007489385 -0.02717371
0.07275981 0.012041883 0.028779287 -0.024913881 0.057161156 0.08083561 0.084046826 0.06469453
0.03650662 0.08319852 0.06327808 0.025026081 0.05546943 0.044157583 -0.0925785 -0.058349434
0.047396846 -0.010316344 -0.05701473 0.043115087 0.023025896 0.093425095 0.07539979 -0.02408094
0.063826874 0.12668237 -0.064213194 0.048210315 0.025682868 0.042622913 0.067674674 -0.007694624
-0.012073565 0.044114094 0.016193368 0.03966855 -0.003734985 0.04133061 -0.011685777 0.07659382
-0.0100142155 -0.056124542 0.056108177 -0.012478137 0.029758058 0.055030625 -0.01243084 -0.096146196
0.09942045 -0.009416744 0.05078049 -0.013087949 0.030445814 -0.033147343 0.085124634 0.037342537
-0.0047897003 -0.050722405 0.074484594 -0.0024913095 0.048115924 0.077086605 0.07209325 0.06348972

fc4.weight f4 [64, 128]
00000000: 3b9a 853e acc4 b0be 5ccd f1bd 057e 923e
00000010: a01e 1fbe c448 67be 8d23 d6be 8cff b13d
00000020: 3981 04bf a207 993d 68ff 383e a8d2 9d3e
00000030: bb60 13be 5ae3 2cbe 9719 3d3e 41d3 0a3e
00000040: bbd3 f1bd db01 c1be f88b 9e3e ba57 bfbd
00000050: 9c89 293e ef63 d03d 4a26 ddbc bf46 abbd
00000060: 0a95 8dbe 2b4e b4bd 47a5 e9be 73e0 04bf
00000070: c034 983e 1d43 03bd faa5 653d 1b0a 3fbe
00000080: c3d4 f1be 58f3 7dbe 78be 84bc 6d58 e1be
00000090: 8ea7 ca3e 2c36 80be 7af5 5bbe f717 1cbd
000000a0: a8bc fa3d 1006 9a3c 106b 17bc 679f 72be
000000b0: 801c ddbe 8eb8 933e 4e97 88bf 9afa 51be
000000c0: 8fe1 043f b3b7 cd3d 3c3c 40be fba5 863e
000000d0: dce8 8dbe f7f4 8c3c 9882 c53e 253b b03e
000000e0: 5968 d9be 16d7 8abe ab58 8c3e 536e a5be
000000f0: 332a 77bd 297f 77be 7efc 1c3b 492b 0abd
00000100: 30ff fcbe b172 dabd 787e 913b 9a95 7ebd
00000110: 51dd 30be 434f bebe cfb5 0abe d2e9 40be
00000120: cd5d dd3d b428 e33e 01e7 4d3e 9e7a 193d
00000130: 5b8e c7bd 5000 aabe 0a26 723d e40d 4bbd
00000140: 7fe2 a63e c1c3 143b d816 ac3e 4a2b 08bc
00000150: 8865 dabe 9bb5 a63d 0e4c bb3e d696 fabd
00000160: 7d71 a0bd 5d0a 8f3e 3b8c b1be 9a33 43be
00000170: 8bd1 9c3e 42a6 893d d7d0 303e 43f7 59bb
00000180: 7e70 d93b b778 a2be d3b5 51be 16d0 91bd
00000190: 0cbb 733e 1a0e 34be 1172 55bb 198b 0b3e
000001a0: d4b9 243b d920 70bd 5382 12bf ad72 cdbb
000001b0: 9940 6f3e 128d 5d3e 994f 8b3d 0443 0b3f
000001c0: 9fda 4bbe eb46 8c3a 6f2c 0cbf 014d a1bb
000001d0: e2ba dfbc a8ea 523e 00fb 8cbd bba5 8abe
000001e0: 05c1 e83b 7b5d 7dbd 70bf 053c a81a 47bd
000001f0: 68c6 dbbc 1048 43be 7fbd 9a3e e0c7 c7bc
00000200: e009 ea3a 6f63 39bb 1add 4e3b 4d8d 51ba
00000210: cc83 13bc abde 17bb 8aa0 bcb9 554a 31bb
00000220: 4d2a 9f3a 2978 0abc 04cd efbb e905 79bb
00000230: cd94 0cbc e8e5 fbbb 9841 bfbb 5057 a2bb
00000240: adbf 1fbb 1c84 1abb fdbb efbb 60c8 d83b
00000250: aa44 2abc 730c d4bb 6596 01b9 e727 5fba
00000260: 3d4e f83b c142 2dbb bc32 ed3a 9849 ddbb
00000270: 0660 e93b f35a e1bb bd3a b8bb 0c9d b3bb
00000280: c9eb e23a 2f5d df3a a365 4b3b eda4 9ebb
00000290: 0937 1d3b 72b8 35bb ecdb 05bc aa96 7c3b
000002a0: 96b2 f6bb e0db bd3a e87a c43b f8cd 763a
000002b0: 9ea4 c83b d462 273b bb77 9c3b 2aeb 943b
000002c0: 6fe2 0dbc 96cf 2abb 8189 96bb ac6e 93b9
000002d0: 1d2f e0bb e618 bcbb d09e e5ba 65fe 17bc
000002e0: aa48 7c3a 412f 94bb 3847 dabb 8e13 0d3b
000002f0: 924c 1dbc 95b2 39bc 6253 86bb a9e3 643b
00000300: 6c3a 27bb 1965 6fbc d786 13bc d564 0339
00000310: 2e43 c83b b7ba 36bb 9dd0 02bc 7b51 dc39
00000320: d969 c6bb ad5b 14bc 1b28 28bc e530 5bbc
00000330: f27c b7bb bb7a 87bb 4dc1 2fbc 110e 31bc
00000340: 0f1f f439 505f 053c 9061 f739 5d35 1cbc
00000350: d2f6 55bb 575b cdbb 0690 a33b 59e4 623b
00000360: 5fc5 66b9 9805 08bc 9896 763b 09f4 843b
00000370: 272c b73a 1b22 80bb 0f02 dd3a 91f0 d5bb
00000380: e865 d43b 14d9 11bc b2e4 c83b 93e2 ab3a
00000390: 1def c4bb f088 ad3b e9f8 b4bb 50d1 a2bb
000003a0: 77d8 a93b 3ae5 4ebb 7887 2e3b f973 f03b
000003b0: 2ce1 9a3a c7c5 17bc 0b64 5bbc ac6e 6dbc
000003c0: bc31 e2bb 407f d73a 4bf1 9e3b 8ed3 5fbb
000003d0: c27b 8fba 4faf 00bb 435f c13b 93c5 14bc
000003e0: 30d5 883b f516 463b 712c 143c 1633 c3b9
000003f0: 699c 2bbc 0d37 0dbc 669f 1c3b c717 b4bb
0.2609423 -0.3452505 -0.11806747 0.2861177 -0.15539026 -0.22586352 -0.41823998 0.0869132
-0.5175968 0.07472159 0.1806618 0.3082478 -0.14392368 -0.16883603 0.18466793 0.1355715
-0.118079625 -0.37696728 0.30966163 -0.093429044 0.165564 0.10175311 -0.026995797 -0.08363103
-0.2765277 -0.08803972 -0.4563391 -0.5190498 0.29727745 -0.032046426 0.05606649 -0.18656199
-0.47232637 -0.2479986 -0.016204104 -0.44012776 0.3958096 -0.2504133 -0.2148036 -0.038108792
0.122430146 0.018801719 -0.009241834 -0.2369362 -0.43185806 0.28851742 -1.0671175 -0.20505753
0.51906675 0.100448035 -0.18772978 0.26298508 -0.2771672 0.017206652 0.38576198 0.34420124
-0.42462423 -0.27117223 0.27411398 -0.32310733 -0.06034298 -0.24169602 0.0023954208 -0.033732686
-0.49413443 -0.10666407 0.004440125 -0.06215439 -0.17271926 -0.37169847 -0.13545917 -0.18839195
0.10808907 0.44366992 0.20107652 0.037470452 -0.09743949 -0.33203363 0.059118308 -0.049573794
0.32594678 0.0022699686 0.33611178 -0.008311102 -0.42655587 0.08140107 0.36581463 -0.12235801
-0.07834146 0.27937594 -0.346773 -0.19062653 0.3062862 0.06721164 0.17267166 -0.0033258952
0.0066357246 -0.31732723 -0.20479517 -0.07119767 0.23801821 -0.17583504 -0.003256921 0.1362728
0.0025135176 -0.058625076 -0.5723011 -0.006269774 0.23364486 0.21635845 0.068022914 0.5439913
-0.19907616 0.0010702288 -0.547553 -0.0049225097 -0.027310792 0.20597327 -0.06883812 -0.27079567
0.007103088 -0.061856728 0.008163318 -0.048609406 -0.026828006 -0.19070458 0.302227 -0.0243873
0.0017855726 -0.0028288027 0.0031564892 -0.0007993773 -0.009003591 -0.0023173492 -0.00035977765 -0.0027052362
0.0012143344 -0.0084515 -0.007318141 -0.0037997907 -0.008580399 -0.007687319 -0.005836677 -0.004954256
-0.0024375722 -0.0023577278 -0.007316111 0.0066156834 -0.010392347 -0.0064712106 -0.00012358425 -0.0008512721
0.007577686 -0.0026437494 0.0018096785 -0.006753158 0.0071220426 -0.006877297 -0.0056222365 -0.005481368
0.0017312701 0.0017041321 0.0031035922 -0.004841438 0.0023989102 -0.0027728346 -0.008170109 0.0038541951
-0.0075286133 0.0014485084 0.005996097 0.0009414847 0.0061231395 0.0025541084 0.004775015 0.0045446353
-0.008659943 -0.0026063672 -0.0045940285 -0.00028120482 -0.006841554 -0.005740273 -0.0017518643 -0.009276961
0.0009623865 -0.0045222347 -0.006661322 0.0021526548 -0.009600775 -0.011334081 -0.0040992955 0.0034925735
-0.0025517 -0.014611506 -0.009004316 0.00012530696 0.006111524 -0.0027882287 -0.007984308 0.00042022378
-0.0060550985 -0.00905506 -0.010263468 -0.013378357 -0.0055996114 -0.0041345037 -0.010727239 -0.010806576
0.00046562447 0.0081404 0.000471842 -0.009534207 -0.0032648337 -0.006266992 0.004991534 0.003462097
-0.00022008036 -0.008302115 0.0037626382 0.0040574116 0.001397495 -0.0039103157 0.0016861575 -0.006528922
0.0064818747 -0.008901853 0.006130778 0.0013113789 -0.00600995 0.0052958652 -0.0055228365 -0.0049687997
0.0051832753 -0.0031569735 0.0026631039 0.007338044 0.0011816374 -0.009263462 -0.013390551 -0.014491718
-0.0069029015 0.0016441122 0.0048505417 -0.0034153196 -0.0010946917 -0.0019635742 0.0059012487 -0.0090803085
0.0041758046 0.0030226086 0.009043799 -0.0003723136 -0.010474303 -0.008619082 0.002389872 -0.0054959985

fc4.bias f4 [64]
00000000: b280 f23d 4209 2ebc 1077 4dbc 7135 1e3e
00000010: 58b3 6c3d 66f8 4ebc 6243 413e 80aa 103e
00000020: d8c3 42bc 0ca7 f63d a800 1b3e 21a2 493c
00000030: 6cc0 1fbb 2e9d 7bbd 4386 1cbe aeca 3bbd
00000040: df2a 2cbe 965d 6ebd c117 89bc 74e1 10be
00000050: 7ffb d7ba 32d2 2f3e 622f 74be eda2 c13d
00000060: ab91 06be 50ae 12bb 93eb 263e b325 8bbd
00000070: 8cb7 ca3d 82ec 313d 62f4 f63d 080b d13d
00000080: af81 aebd 2701 223d aea5 0abc 55d4 543e
00000090: e2df a33d 94df 86bc f782 1c3e 7490 8dbc
000000a0: 8b09 cc3d 776d 90bc c93d 433d 9e11 ddbc
000000b0: 00fe dfbd 036b a23d 16e1 793d e424 d9bc
000000c0: 63a9 a43d 2471 57bb a1ce 0ebd 3b8a 0cbe
000000d0: 323c 07be d065 fdbc a97f 7c3e 4229 503e
000000e0: 55c7 85bc b5dd 04be 8cd0 77bd a233 68bc
000000f0: 08d4 acbc 9c87 613e b672 f83d 4065 0a3e
0.11840953 -0.010622324 -0.012540594 0.15450074 0.057788223 -0.012632465 0.18873361 0.1412754
-0.011887513 0.120435804 0.15136969 0.012306721 -0.0024376167 -0.061429195 -0.15285592 -0.045847587
-0.16813229 -0.05819472 -0.01673496 -0.14148504 -0.001647815 0.17170027 -0.238462 0.09454904
-0.13141505 -0.002238173 0.16300802 -0.067943 0.0989829 0.043438442 0.12058331 0.10207182
-0.08520829 0.03955188 -0.008462353 0.20784123 0.08001687 -0.016464032 0.15284334 -0.017280795
0.09962758 -0.017630322 0.047666345 -0.02698594 -0.109371185 0.07930567 0.061005674 -0.026506849
0.080401205 -0.0032873834 -0.034865025 -0.13724606 -0.13206556 -0.030932337 0.24658073 0.20328239
-0.0163304 -0.129752 -0.06050162 -0.0141724665 -0.021097198 0.22024387 0.121312544 0.13515186

fc5.weight f4 [6, 64]
00000000: f301 523d f189 aa3a c073 babb 3cf5 bebc
00000010: 04e9 c6be a827 753b 2b8d 8a3f 01aa 1f3e
00000020: 1637 cd3b e3b2 023f ad30 ea3d 90fb 823a
00000030: 95b9 ea3b 356c 02be 3dc6 d1be 9fdc 61bd
00000040: 7516 a73d 53c0 93be 2df3 533c 914a 3b3e
00000050: 8749 2dbb 59c9 2f3b 64e2 bb3c 6c2a 76be
00000060: 409e 7c3f f22d 48bb 75f5 c1bc c985 12bf
00000070: 9655 bbbe de6e 28bd 25b5 243f 9580 ae3c
00000080: 6fbc b4bf 319b ecbe d69b e8bb 3fb5 5dbe
00000090: 8620 563e 068c a2bc 2db8 5fbd d90b 413c
000000a0: 8bbb cdbd 56c2 7a3c f4a3 f73d cbbc 95bb
000000b0: fdc8 683c 1306 7ebe 3c30 5a3f bd53 39bc
000000c0: c65d dc3d a26e 643e 34cc d9bd 9ae3 d0be
000000d0: 474a e33d 4464 f3be e671 803c f712 fb3e
000000e0: cc87 883d 6a86 a53c 8cc1 293f 7b3e 5f3c
000000f0: 5a4c 17bc f298 8ebc 4617 76bd 6c4e b63e
00000100: 3b4e ce3b b77d dcbb c703 843a 0d05 50bf
00000110: d51a 723e eb91 16bc 7eed fe3d c16e ab3d
00000120: c710 1dbc 92d2 e1bd 610f 81bd 1142 e0be
00000130: c4e2 f7bb f915 63bd b745 133e d8ce 18bd
00000140: b917 96bf a007 14be 79e2 a13a e44c 8ebe
00000150: 8e79 bbba e752 37bd 6791 a9bc 31ac b1bb
00000160: 4363 9abd 6ba5 40bc 32bf 663d 9650 173e
00000170: 7418 803e 1445 36bf c92d 15be afe9 a03f
00000180: 68bb 01be b031 a03e 43cb 6b3b 7e39 9b3d
00000190: a04c ae3e 5af9 423b 8c4b cfbd c023 803a
000001a0: 6939 9a3e 9edf a23b 9281 cf3e c0c9 e13b
000001b0: efdd 44bf 1dd6 e4be a967 d0bd 5349 a6bb
000001c0: 768d 573e 7cda c43e fa5e 4dbc 5f4d 4f3e
000001d0: d4a9 cc3d 3eba 9bbe 70ee ae37 9304 90bd
000001e0: d55d 6f3e ad8e 20bf 9150 be3e b32c 92bb
000001f0: 2110 88bc 3c9f 293e a5e6 7fbd 5328 b03e
00000200: 07e8 adbe 186e 123c c41d 40bc 0cee 99bd
00000210: debc bcbe f5eb d33b 4e52 153e 8706 5fbe
00000220: 9c7e 4e3c a3e5 e0be fd16 b63e d2b2 f03d
00000230: 8dc6 ab3b f9cb 8fbf 8eff a8be fadd e3bd
00000240: 9604 843c 6f09 7d3d 7d86 123b 8860 74bd
00000250: 28e0 4bbc 231a ad3f 9691 95bd 50df 283f
00000260: a052 9e3e b93c e53b 9367 323d 28ba cdbe
00000270: c3bd 80be ebc7 32bf ae71 74bd 483d e63d
00000280: c1f2 15be 2212 243e c972 4ebb 5fe6 663e
00000290: 9c13 a2bd de45 68bb b0d1 893e 768a 113c
000002a0: 4eb1 89bd 146e 833b 9b1e adbe 9ab9 1c3b
000002b0: a85f 143c 66da cb3e caa9 f73d a604 8bbb
000002c0: dab7 c63e ec54 f4bc 9a9c a83d 01f5 ae3d
000002d0: 85c2 4cbf ddc5 07be ecbe a63d 4c7e 193e
000002e0: 975f 8dbe 062c 8cbe 0d61 093e aea6 b23b
000002f0: cb8e 7bbc 344a ce3e f484 913e febe a8be
00000300: 770f 3b3e b154 baba c2a1 a5bb 9515 8b3e
00000310: dabc 8ebd 96a4 c3b9 8fd4 8d3e 9cb9 6a3f
00000320: 20e5 b73b 87f4 c03d 0b68 fb3d 8db4 093f
00000330: 8a42 aabb 5a32 0ebe b1ec b33c 8da0 98bf
00000340: a7fe 21be db2f 0bbf 3b3b 5bbc 52a8 d7bd
00000350: 22b8 673b c7ac ea3d 867c ff3e 4751 d1be
00000360: 009f 8d3d df61 05bb 60f8 763d b2e4 c23e
00000370: ce05 253f 7f98 24be 53f3 76be 3e19 f33b
00000380: 45ea 5bbd 8548 f8bd ac73 3bbc 6335 4b3f
00000390: 436e 993e f3ba 65bb ef8d 0d3f aa26 403b
000003a0: c216 c5bd 4739 c8ba f297 2abf 222f 023c
000003b0: e554 583e 5007 97be 71f7 3dbe 46bb 543c
000003c0: aab2 d6bc d40a 9a3e c6ed cfba 5827 593f
000003d0: 43f2 20be ff8b a93e 5636 c53e cf2a 71be
000003e0: 2f02 a2be c2ac bcba 1dd2 a8bd 4aa7 793c
000003f0: 983f 53bc 5cf0 273c b0bd 20be 4401 b0b8
0.05127139 0.001301108 -0.005690068 -0.023310296 -0.38849652 0.003740767 1.0824331 0.15592195
0.0062626703 0.5105421 0.114350654 0.0009993184 0.0071632364 -0.1273659 -0.40971556 -0.05514204
0.0815858 -0.2885767 0.012936396 0.18290164 -0.002644153 0.0026822893 0.0229351 -0.2403962
0.9867897 -0.0030544964 -0.023676613 -0.5723539 -0.36588734 -0.041121356 0.64338905 0.021301547
-1.4120005 -0.46212152 -0.007098655 -0.21651171 0.20910844 -0.019842159 -0.054619003 0.01178261
-0.100455366 0.015305122 0.120918185 -0.004569625 0.014208076 -0.24807005 0.8522985 -0.011311469
0.10760073 0.22307828 -0.10634652 -0.40798646 0.11098152 -0.47537434 0.015679311 0.49037907
0.06666526 0.020205695 0.66310954 0.013625736 -0.009234512 -0.017406914 -0.06008079 0.35606706
0.006295947 -0.0067288536 0.0010071927 -0.81257707 0.23643048 -0.009190063 0.12447642 0.08370734
-0.00958652 -0.11026491 -0.063017614 -0.43800405 -0.0075648744 -0.055440877 0.14382063 -0.037306637
-1.172599 -0.14456034 0.0012350819 -0.27793038 -0.0014303194 -0.044756796 -0.020699216 -0.005422138
-0.07538464 -0.011758189 0.05633468 0.14776835 0.25018656 -0.71199155 -0.14568247 1.2571315
-0.12669146 0.3128791 0.0035979308 0.07579325 0.34042835 0.0029750676 -0.10121831 0.0009776279
0.30121925 0.004970505 0.40528542 0.0068905056 -0.76901144 -0.44694605 -0.101760216 -0.005074659
0.21050057 0.3844794 -0.012534851 0.20244358 0.0999333 -0.3041553 2.0853447e-05 -0.070321225
0.23375638 -0.62717706 0.37170842 -0.004460895 -0.016609253 0.1656465 -0.06247582 0.34405765
-0.33966085 0.008937381 -0.011725847 -0.07516107 -0.36862844 0.0064673373 0.14582178 -0.21779834
0.012603428 -0.439252 0.35564414 0.11752857 0.005242175 -1.1234123 -0.33007473 -0.11126323
0.016115468 0.061776575 0.0022357993 -0.059662372 -0.01244358 1.3523601 -0.07303159 0.6596575
0.30922413 0.006995764 0.043555807 -0.40181088 -0.25144777 -0.698363 -0.059678726 0.11242157
-0.14643385 0.16022542 -0.0031501523 0.22548817 -0.079138964 -0.0035442035 0.2691779 0.008883109
-0.06723271 0.004010925 -0.33812413 0.0023914338 0.009056009 0.39815062 0.120929316 -0.0042424975
0.38812143 -0.02982565 0.082329944 0.085428245 -0.79984313 -0.13259073 0.08141884 0.14989585
-0.27611992 -0.27377337 0.13415928 0.0054519987 -0.015353869 0.40290987 0.28421748 -0.32958215
0.18267618 -0.0014215914 -0.0050546834 0.27164903 -0.06969614 -0.00037315924 0.27701232 0.9168947
0.0056120306 0.0942164 0.12275704 0.53791124 -0.0051959204 -0.13886395 0.02196345 -1.1923996
-0.15819798 -0.54369897 -0.013380821 -0.105301514 0.0035357554 0.11458736 0.4989969 -0.40882322
0.069150925 -0.0020352525 0.060295463 0.38065106 0.6446198 -0.16073798 -0.24116258 0.0074187806
-0.053690214 -0.12123207 -0.011441153 0.79378337 0.29966936 -0.0035054057 0.552947 0.002931992
-0.09623481 -0.0015275859 -0.666381 0.007945808 0.21126135 -0.29497766 -0.18551423 0.012984103
-0.02620824 0.30086386 -0.0015863709 0.8482566 -0.15717416 0.3311462 0.38518018 -0.23551486
-0.3164229 -0.0014394748 -0.08243201 0.015237639 -0.01289358 0.010250177 -0.1569736 -8.39257e-05

fc5.bias f4 [6]
00000000: 079b 563e 0114 933e 7849 253e 7bd7 323e
00000010: 8d9d cd3e 5a38 673e
0.20957576 0.287262 0.16141307 0.17465012 0.40159264 0.2258009
