megasena_model_2.pth (torch, 211116 bytes, 8 tensors)

fc1.weight f4 [256, 6]
0	0x3e02cdab	0.12773769
1	0xbcab5588	-0.020914808
2	0x3cf77ee6	0.030211877
3	0x3e114ad3	0.141887
4	0x3de6185a	0.112351134
5	0x3ddb8465	0.10718612
6	0xbe1fae73	-0.15593891
7	0x3cab67fc	0.020923607
8	0x3e133332	0.14374998
9	0x3e8a3fcb	0.27001795
10	0xbcc73d02	-0.024321083
11	0xbd941112	-0.072298184
12	0x3e455b35	0.19273074
13	0xbea0fc4c	-0.31442487
14	0x3eafb47e	0.34317392
15	0xbcfe4546	-0.031038892
16	0x3eac9b31	0.33712152
17	0x3deecaee	0.116597995
18	0xbe0d8622	-0.13820699
19	0xbe8c2737	-0.2737367
20	0x3e25c4d8	0.16188371
21	0xbeb84af0	-0.35994673
22	0xbde9a9ca	-0.11409338
23	0xbdd67ef6	-0.104734346
24	0xbd9ac0d5	-0.07556311
25	0x3e91ba00	0.2846222
26	0x3ea22f17	0.31676552
27	0xbe25aecc	-0.16179961
28	0x3eb2e971	0.34943727
29	0x3eb9de5c	0.3630246
30	0x3d02c5f2	0.031927057
31	0x3db29477	0.08719724
32	0x3e8135e9	0.25236443
33	0x3d7eaf88	0.06217912
34	0xbe2712b4	-0.16315728
35	0xbe3dd925	-0.18539865
36	0x3d19d57e	0.037557118
37	0xbc69f386	-0.014279252
38	0xbe74dffc	-0.23913568
39	0x3e9c5337	0.30532238
40	0x3e09c45b	0.1345381
41	0x3e8b96ee	0.27263588
42	0xbe9ef4dd	-0.3104619
43	0xbbe02014	-0.0068397615
44	0xbd144293	-0.036196303
45	0x3e74f7df	0.2392268
46	0xbe995c21	-0.299531
47	0xbd1cda2e	-0.03829401
48	0xbca8a368	-0.02058573
49	0xbd985817	-0.07438677
50	0xbeb0853e	-0.34476656
51	0x3e57638f	0.21034072
52	0x3e4c0407	0.19923411
53	0x3de62653	0.112377785
54	0x3e4553d8	0.19270265
55	0x3eafa669	0.34306648
56	0x3b9dd21d	0.004816307
57	0x3eab478b	0.3345302
58	0xbdb8e3bd	-0.09027813
59	0xbe880693	-0.26567516
60	0xbd901470	-0.07035148
61	0xbebaac79	-0.3645971
62	0xbdcbea0f	-0.099567525
63	0x3db82188	0.089907706
64	0xbe220a62	-0.15824273
65	0xbe5120f3	-0.20422725
66	0xbe80a416	-0.25125188
67	0x3df12dd2	0.11776318
68	0xbda13654	-0.078716904
69	0xbda4626b	-0.08026584
70	0xbe76abb7	-0.24088942
71	0x3ea63b7e	0.32467264
72	0x3e4c8816	0.19973788
73	0xbdcbaf08	-0.09945494
74	0xbd962b0c	-0.07332429
75	0x3d3f8358	0.04675612
76	0x3ea6812f	0.32520434
77	0x3e548231	0.20752789
78	0xbeae8ca1	-0.34091666
79	0xbe89534c	-0.26821363
80	0xbe303124	-0.17206246
81	0x3e0b8128	0.13623488
82	0xbeb0652a	-0.34452182
83	0x3e8b8378	0.2724874
84	0xbeb62ecc	-0.35582578
85	0xbe47f5e7	-0.19527398
86	0xbe1e29bf	-0.15445612
87	0xbe72260f	-0.2364733
88	0xbe5fbe9f	-0.2185006
89	0xbd70d98b	-0.058801215
90	0x3e9a7c44	0.30172932
91	0x3d577fe1	0.05261219
92	0xbe1a5a9a	-0.15073624
93	0xbc756112	-0.014976757
94	0xbe14c22a	-0.14527193
95	0xbea17cbc	-0.31540477
96	0xbe4563fe	-0.19276425
97	0xbe946e9c	-0.28990638
98	0x3e38ecfe	0.18059155
99	0xbdbecee8	-0.09316808
100	0xbe79471d	-0.24343534
101	0xbded5029	-0.11587555
102	0xbe3a3c3a	-0.18187037
103	0xbe1f0169	-0.15527882
104	0x3e290b0e	0.16508123
105	0xbe302f9c	-0.17205662
106	0x3e9aa563	0.30204305
107	0xbe33eab9	-0.17570008
108	0x3e775498	0.24153364
109	0xbea9b440	-0.33145332
110	0xbde55c41	-0.11199237
111	0xbe6eb929	-0.2331282
112	0x3e6027c8	0.21890175
113	0x3ea125b0	0.31474066
114	0xbec5bd87	-0.3862116
115	0xbe0ebd78	-0.13939464
116	0xbd2d7de0	-0.042356372
117	0xbec3ef31	-0.38268426
118	0x3cd3f25f	0.025872407
119	0x3e776e32	0.2416313
120	0x3e6f5dcc	0.23375624
121	0x3d07ff99	0.03320274
122	0xbeb6bf8b	-0.3569301
123	0x3e13c470	0.14430404
124	0xbd0f8979	-0.035043214
125	0xbe6354d8	-0.22200334
126	0xbe40feb3	-0.1884716
127	0xbeb0850f	-0.34476516
128	0x3e8ae97b	0.27131256
129	0xbe8bfcf9	-0.2734144
130	0xbeabcb68	-0.33553624
131	0x3e9b63a9	0.30349472
132	0xbdbeddab	-0.093196236
133	0xbe3c5ef0	-0.18395591
134	0x3ea92a80	0.33040237
135	0x3e791ce0	0.24327421
136	0xbe433dc9	-0.19066538
137	0x3e88aa26	0.26692313
138	0x3e869985	0.26289
139	0xbbd9c86c	-0.0066462066
140	0xbe9c61fe	-0.30543512
141	0xbcbbbb91	-0.022916587
142	0xbeaa3325	-0.33242145
143	0xbe986e18	-0.29771495
144	0xbdf3efa4	-0.11910942
145	0xbd08c769	-0.033393297
146	0xbe94ed2f	-0.29087207
147	0x3ea23c51	0.31686643
148	0xbe8ae148	-0.27125
149	0xbe473c9e	-0.19456717
150	0xbe0c46f4	-0.13698941
151	0xbe8195ef	-0.25309703
152	0x3e80029a	0.25001985
153	0x3e914825	0.28375354
154	0xbe9f239a	-0.3108185
155	0x3e8534cd	0.26016846
156	0xbdb8cb05	-0.09023098
157	0xbdd37cb8	-0.103265226
158	0x3cfdedff	0.030997274
159	0x3e7e327a	0.24823943
160	0x3d828e47	0.063747935
161	0xbaa297ef	-0.0012404899
162	0xbe8d62af	-0.27614352
163	0x3e94aabe	0.29036516
164	0x3c1932c8	0.009350486
165	0x3ea02093	0.31274852
166	0xbe9fbf23	-0.31200513
167	0x3ea1ea7f	0.3162422
168	0xbcb80609	-0.022463815
169	0x3e19e075	0.1502703
170	0x3e052010	0.13000512
171	0x3eaf1a5c	0.34199798
172	0xbce2a515	-0.027666608
173	0x3ce24d0c	0.02762463
174	0xbe102942	-0.14078239
175	0xbe84519c	-0.25843513
176	0xbebc16f3	-0.3673626
177	0xbcb42aca	-0.02199306
178	0x3e1d3dfb	0.15355675
179	0xbdb97359	-0.09055204
180	0x3e4cfbf8	0.20017993
181	0xbebad252	-0.36488587
182	0x3e135f5e	0.14391848
183	0xbe099b03	-0.13438039
184	0x3ea749ba	0.32673436
185	0xbe4fc306	-0.2028924
186	0x3dcfc2fd	0.10144613
187	0xbdf8a4e6	-0.12140827
188	0xbe848e85	-0.25889984
189	0x3e3e430e	0.18580267
190	0x3cd27dfe	0.025694843
191	0x3e23e08c	0.16003627
192	0xbeb00ee0	-0.3438635
193	0x3e0e489a	0.13894883
194	0xbc6b7521	-0.014371187
195	0x3e4162b0	0.18885303
196	0xbe655d05	-0.22398765
197	0x3e4f6ff0	0.20257545
198	0xbe40aae7	-0.18815194
199	0x3d4f7132	0.05064506
200	0x3e9b5d49	0.30344608
201	0xbe5bd46f	-0.21467756
202	0x3e45135d	0.19245668
203	0xbe272f69	-0.1632668
204	0xbd8c8887	-0.06861978
205	0x3e8ac4a5	0.27103153
206	0x3eabc818	0.33551097
207	0x3ca5456f	0.02017471
208	0xbe954634	-0.29155123
209	0x3e858281	0.2607613
210	0xbe9c765c	-0.3055905
211	0x3e9d57be	0.30731004
212	0x3e28778d	0.16451855
213	0x3da5b023	0.08090236
214	0xbd5bc92f	-0.05365866
215	0xbd791463	-0.060810458
216	0x3c55ebae	0.013056679
217	0x3e36cb5d	0.17851014
218	0x3ea47f73	0.32128486
219	0xbe0b4054	-0.13598758
220	0xbe3d01cc	-0.18457717
221	0xbdeb572c	-0.11491236
222	0xbeb2e31d	-0.349389
223	0xbe7763ab	-0.24159114
224	0x3e8430cf	0.25818488
225	0xbe04faf0	-0.1298635
226	0xbc1b362a	-0.009473363
227	0xbe5dd0a6	-0.21661624
228	0x3da5432a	0.08069451
229	0x3e2d4ad9	0.16923083
230	0xbe2124b4	-0.15736657
231	0x3e9dc841	0.30816844
232	0x3e04c120	0.12964296
233	0x3e983b65	0.29732814
234	0x3ea0e1d3	0.3142229
235	0xbe8f2833	-0.27960357
236	0xbea101ce	-0.3144669
237	0x3ea54bd2	0.3228441
238	0x3e4d0b33	0.20023803
239	0x3c8d6920	0.017262042
240	0x3cb76abd	0.022389764
241	0x3d08664c	0.033300683
242	0x3e88bf57	0.2670848
243	0x3ea702e9	0.32619408
244	0x3d78e5d5	0.06076606
245	0xbe15cd7e	-0.1462917
246	0x3e6142a1	0.21998073
247	0x3e7ba75f	0.24575566
248	0xbe3bc5b1	-0.18337132
249	0x3da0d872	0.07853784
250	0x3e052591	0.13002612
251	0x3deb36ea	0.114850834
252	0x3e8923f5	0.26785246
253	0x3e48536e	0.19563076
254	0x3d13c27f	0.036074158
255	0x3d1f13dd	0.038837302

fc1.bias f4 [256]
0	0x3d7d82ff	0.061892506
1	0xbe453994	-0.19260246
2	0x3e81703e	0.25280946
3	0xbe8f4994	-0.27985823
4	0xbe723fc2	-0.23657134
5	0xbe447e03	-0.19188695
6	0xbe80a229	-0.25123718
7	0x3e35dbcf	0.17759632
8	0xbe04345b	-0.12910597
9	0x3db1d78f	0.08683693
10	0xbe904eda	-0.2818516
11	0xbe55ea93	-0.20890264
12	0xbea5ab23	-0.3235713
13	0xbeabfbb0	-0.3359046
14	0xbe298c9c	-0.16557544
15	0xbdfbf329	-0.123022385
16	0x3eaaac50	0.3333459
17	0x3e8578ca	0.26068717
18	0x3e9ecdeb	0.31016478
19	0xbe1e0355	-0.15430959
20	0x3dd0f71e	0.10203384
21	0x3e60389d	0.21896596
22	0x3e560842	0.20901588
23	0x3eb742ad	0.35793057
24	0xbea74276	-0.32667893
25	0x3eb768f5	0.35822263
26	0xbeb9b0e7	-0.36267778
27	0x3d8d34ed	0.068948604
28	0xbd971be9	-0.0737837
29	0xbeb55817	-0.3541877
30	0xbdec185f	-0.11528086
31	0x3bf2202b	0.0073890886
32	0x3de56a4b	0.112019144
33	0x3e90da82	0.28291708
34	0xbda790a4	-0.08181885
35	0xbe32d4f6	-0.1746405
36	0xbe413b07	-0.18870173
37	0x3ebbd4df	0.36685845
38	0xbe80a609	-0.25126675
39	0xbc9eb2a2	-0.019372288
40	0xbd30529a	-0.043047525
41	0x3d1e5ba1	0.038661603
42	0x3d4e81c9	0.05041674
43	0xbdbcf39f	-0.092261545
44	0x3e70f065	0.23529203
45	0xbbb00ed9	-0.0053728637
46	0xbe54cf73	-0.2078226
47	0x3e19f401	0.15034486
48	0x3e33c20d	0.17554493
49	0xbe25e090	-0.16198945
50	0xbdcaf86d	-0.09910665
51	0xbe00c284	-0.12574202
52	0xbe4449ee	-0.19168827
53	0xbe940244	-0.2890798
54	0x3d8b8406	0.06812291
55	0x3d109c36	0.035305224
56	0xbc48b497	-0.012250087
57	0x3cd25d3e	0.025679227
58	0xbe565818	-0.20932043
59	0xbe7d9824	-0.24765068
60	0x3dc7b5a8	0.09751445
61	0x3dfc149a	0.12308617
62	0xbe4778f2	-0.1947973
63	0xbe01e86b	-0.12686317
64	0x3e8f3fd5	0.27978387
65	0x3e03fa5c	0.12888473
66	0x3ebcc75c	0.3687085
67	0x3e9617ef	0.29315135
68	0xbe87356c	-0.26407945
69	0xbe07bab8	-0.13254821
70	0x3e6f984a	0.23397937
71	0x3eb32f5b	0.34997067
72	0xbe41075b	-0.18850462
73	0x3eadcc34	0.33944857
74	0x3e439827	0.1910101
75	0xbe2953c4	-0.1653586
76	0xbe39056a	-0.18068472
77	0x3eaf1b5c	0.3420056
78	0xbe0ee937	-0.13956152
79	0x3ca767ce	0.02043524
80	0x3eb51941	0.3537083
81	0x3dbafd2d	0.09130321
82	0xbea4fd2b	-0.32224402
83	0xbe1bbdb5	-0.15209086
84	0xbe06a577	-0.13149057
85	0xbcfbf0fc	-0.030754559
86	0xbe5331fd	-0.20624538
87	0xbd9849c3	-0.07435944
88	0x3d8c0e59	0.06838674
89	0x3e2bb731	0.167691
90	0x3d8f24bd	0.06989429
91	0x3dd388b7	0.10328811
92	0xbd89a391	-0.06720651
93	0xbeaa651b	-0.33280262
94	0x3ea5904e	0.32336658
95	0xbdf35f5d	-0.118834235
96	0xbea25530	-0.31705618
97	0x3eac5fc5	0.33666816
98	0x3e9b441a	0.30325395
99	0x3ea4aa63	0.32161245
100	0x3e8c0fe5	0.27355877
101	0x3ea1499c	0.31501472
102	0x3d9d580d	0.0768281
103	0xbd09e96f	-0.033669885
104	0xbe933a2e	-0.28755325
105	0x3e03dd91	0.1287749
106	0xbe3620ed	-0.17785998
107	0x3eadcb3a	0.33944112
108	0xbea99f85	-0.33129516
109	0xbde0dec7	-0.109799914
110	0x3e9457ed	0.28973332
111	0x3cb674a2	0.022272412
112	0x3dd9b83b	0.10630842
113	0xbe89af5d	-0.26891604
114	0x3eace2a2	0.33766657
115	0xbda65617	-0.08121889
116	0xbda34e1a	-0.07973881
117	0x3e3f2ca1	0.18669368
118	0xbe91ade6	-0.28452986
119	0xbe655678	-0.22396266
120	0x3ec0c409	0.37649563
121	0x3e320620	0.17385149
122	0x3ead558d	0.33854333
123	0xbd87bef0	-0.06628215
124	0x3e9ea1ac	0.3098272
125	0x3e638abf	0.22220896
126	0xbe756b73	-0.2396677
127	0xbd811d19	-0.06304378
128	0x3e58bc4a	0.21165577
129	0x3eaa0b34	0.33211672
130	0x3e797156	0.2435964
131	0xbd75fea5	-0.0600573
132	0x3eba35bf	0.3636913
133	0x3ebbb13c	0.36658657
134	0x3eb252b6	0.34828728
135	0xbe97e31d	-0.2966546
136	0xbd141723	-0.036154877
137	0xbe293ca0	-0.16527033
138	0xbe8f6b61	-0.2801161
139	0xbc84f773	-0.016231274
140	0xbeb06b99	-0.3445709
141	0xbe6c9ec9	-0.23107447
142	0x3d990af7	0.074727945
143	0x3eb65998	0.3561523
144	0xbe5267c1	-0.20547391
145	0x3e86d337	0.2633302
146	0x3d8b5fd5	0.06805388
147	0x3e8eb593	0.27872905
148	0x3eb19109	0.34680966
149	0x3c8efc36	0.017454248
150	0x3e852ae2	0.2600928
151	0x3eee5df1	0.46556047
152	0xbc84d8ab	-0.016216597
153	0xbeb686c7	-0.35649702
154	0x3dcf971d	0.101362444
155	0x3eb035cc	0.34416044
156	0x3eb0f7da	0.34564096
157	0x3e101543	0.1407061
158	0xbe94d0fd	-0.29065695
159	0xbd6425b4	-0.05570002
160	0x3d1e9a3a	0.0387213
161	0x3e207bee	0.15672275
162	0x3e6a67cb	0.22891156
163	0xbe767e76	-0.24071679
164	0xbe9b0abd	-0.3028163
165	0xbe3cb856	-0.18429694
166	0xbe772512	-0.24135235
167	0xbc9aad04	-0.018881328
168	0xbcf1461b	-0.029452374
169	0x3e19698f	0.14981674
170	0xbe8f502a	-0.27990848
171	0x3e545edc	0.20739311
172	0x3e714867	0.23562776
173	0xbea81e02	-0.32835394
174	0xbe0bb776	-0.13644204
175	0x3e3bc9b0	0.18338656
176	0xbd85338a	-0.06503971
177	0x3b97ed21	0.0046364223
178	0x3e4b4dea	0.1985394
179	0x3e96ddd9	0.2946613
180	0x3eb64d69	0.35605934
181	0x3dd8ae0a	0.1058007
182	0x3e0a2001	0.13488771
183	0xbdaa1634	-0.08305016
184	0xbe839853	-0.25702152
185	0x3e7559e4	0.23960072
186	0xbe898cfc	-0.26865375
187	0xbcd981b1	-0.0265511
188	0x3e579383	0.21052365
189	0x3e800374	0.25002635
190	0x3e9d539a	0.30727845
191	0xbcbfe4ef	-0.023424594
192	0xbe641819	-0.22274818
193	0xbe75bc8a	-0.23997703
194	0x3e64a96a	0.22330251
195	0x3df17a5c	0.11790916
196	0xbe99c6aa	-0.3003438
197	0xbbccedf9	-0.0062539545
198	0xbead3de1	-0.33836272
199	0xbdd60d43	-0.10451748
200	0xbce053cb	-0.027383706
201	0xbeb32ed4	-0.34996665
202	0xbe0c8b46	-0.13725004
203	0xbe81063b	-0.25200066
204	0xbe5894f7	-0.21150576
205	0x3e56f0e9	0.20990337
206	0xbe3f34cb	-0.18672483
207	0x3e545805	0.20736702
208	0x3e37f04a	0.17962757
209	0x3e10bfd7	0.14135681
210	0xbe47168e	-0.19442198
211	0x3e47f5dd	0.19527383
212	0x3cbee08b	0.02330043
213	0xbd882f99	-0.066497035
214	0xbea072a6	-0.3133747
215	0xbe93f30c	-0.28896368
216	0x3e8ca690	0.27470827
217	0xbe483c40	-0.19554234
218	0x3e7661ba	0.24060717
219	0x3ebd3037	0.36950848
220	0x3eb1f690	0.34758425
221	0x3e8636f1	0.26213792
222	0xbe25f86d	-0.16208048
223	0x3e8e0be3	0.27743444
224	0xbe863088	-0.262089
225	0x3e5f3552	0.21797684
226	0x3e67a425	0.2262121
227	0x3eba888d	0.36432305
228	0x3e1ad980	0.15122032
229	0xbe0dab98	-0.13834989
230	0xbe7a6689	-0.24453177
231	0xbe7edae6	-0.2488819
232	0xbe9ed365	-0.31020656
233	0xbeb058de	-0.344428
234	0xbd91e4f4	-0.071237475
235	0xbe474d9f	-0.19463204
236	0x3cc95825	0.024578163
237	0x3d83fbc9	0.064445086
238	0x3e653b8b	0.22385995
239	0x3e8ac2c6	0.27101725
240	0x3ebd9218	0.37025523
241	0x3dbd814c	0.09253177
242	0xbe5ee96a	-0.21768728
243	0xbe517a52	-0.20456818
244	0x3ea89cfc	0.3293227
245	0xbe42c9f9	-0.19022359
246	0x3e95a434	0.2922684
247	0xbe8c4d5b	-0.27402768
248	0x3d0dcb58	0.03461775
249	0xbda8b2a9	-0.08237202
250	0x3e51daad	0.20493574
251	0x3e7c25e5	0.2462383
252	0x3dcb2316	0.099188015
253	0xbdf09b36	-0.11748354
254	0x3d5b73a2	0.053577073
255	0xbeaaa89b	-0.3333176

fc2.weight f4 [128, 256]
0	0x3ca6bc2d	0.020353401
1	0xbc7ffd20	-0.015624315
2	0x3b29372c	0.0025820239
3	0xbc849487	-0.016184105
4	0xbcc5edfe	-0.024161335
5	0x3b97bd17	0.0046306956
6	0x3d4f2f48	0.0505822
7	0x3c1de75f	0.009637683
8	0xbc898d47	-0.016791
9	0x3cd553a7	0.026040865
10	0x3c0b5047	0.008503026
11	0x3cfcdd16	0.03086714
12	0xbc31308f	-0.0108148
13	0xbb807d1c	-0.003921164
14	0xbd0b3739	-0.03398821
15	0xbd0a3bb9	-0.033748362
16	0xbc5066d9	-0.012719833
17	0x3d077ea8	0.033079773
18	0x3d037103	0.0320902
19	0x3caef4ec	0.021357022
20	0x3c6a843a	0.014313752
21	0xbc2336e0	-0.009961814
22	0xbcbdf095	-0.023186008
23	0x3d460df1	0.04835314
24	0xbd35090c	-0.04419808
25	0xbd038ff4	-0.032119706
26	0xbb8237b3	-0.003973925
27	0xbd2e76d1	-0.04259378
28	0x3c8fedc2	0.017569426
29	0xbbe0dc39	-0.00686219
30	0xbd3b899c	-0.04578553
31	0xbcd279e2	-0.025692884
32	0xbbb6847f	-0.005569994
33	0x3d37760f	0.044790324
34	0x3cba3963	0.022732442
35	0x3d274dd7	0.04084572
36	0x3d08635b	0.033297878
37	0xbbb3ccda	-0.0054870667
38	0x3cba7081	0.022758724
39	0x3c50f5f4	0.012753952
40	0x3cfad224	0.030617781
41	0x3c7e1c31	0.015509651
42	0xbc85f901	-0.016354086
43	0x3c1e0365	0.009644364
44	0x3d1b73a3	0.037952077
45	0x3d1ab158	0.037766784
46	0x3d351e8e	0.044218592
47	0x3c9df454	0.019281544
48	0x3ca6c583	0.020357853
49	0x3cf76178	0.030197844
50	0x3c58e649	0.013238498
51	0xbcfb05d4	-0.030642428
52	0x3d5a0ac8	0.053232938
53	0x3cd2d1da	0.02573483
54	0xbcfcb159	-0.030846285
55	0xbd0834e0	-0.03325355
56	0xbbc8652b	-0.006115576
57	0x3d5fd453	0.054645848
58	0xbc8912f4	-0.01673267
59	0xbcd25227	-0.025673939
60	0x3d4bcbdb	0.04975496
61	0xbc2c492d	-0.010515493
62	0x3ae47f49	0.0017432953
63	0x3d3ad426	0.045612477
64	0x3c9fbb32	0.019498441
65	0xbc8f0c82	-0.017462019
66	0x3c3efb54	0.011656601
67	0x3d03a7c5	0.03214242
68	0xbce61223	-0.02808482
69	0xbcd3d38f	-0.025857715
70	0xbd511afd	-0.05105113
71	0x3cfe991e	0.031078871
72	0x3c9fb1ad	0.019493902
73	0xbbe10d6b	-0.0068680546
74	0x3c6ab5f2	0.014325606
75	0x3d320df0	0.043470323
76	0x3c9dd534	0.019266702
77	0xbd48a215	-0.0489827
78	0xbbd23295	-0.0064147213
79	0x3caf4bc6	0.021398436
80	0x3b054722	0.0020336588
81	0x3d03d297	0.032183256
82	0x3d628f17	0.055312242
83	0x3d5e5595	0.054280836
84	0xbd1582ce	-0.0365017
85	0x3d1f7d3d	0.038937796
86	0xbd60dce4	-0.054898158
87	0x3d097385	0.033557434
88	0xbcece410	-0.028917342
89	0xbd67dde3	-0.056608092
90	0x3c47a242	0.012184681
91	0xbd3cc098	-0.04608211
92	0x3d098842	0.03357721
93	0x3be70e59	0.007051271
94	0xbb29d58b	-0.0025914635
95	0x3c908a07	0.017643942
96	0xbd524892	-0.05133874
97	0x3c8d8443	0.017274981
98	0x3cf6cb36	0.030126195
99	0x3ca61da3	0.020277804
100	0x3d1701de	0.036867015
101	0xbbd819db	-0.006594879
102	0xbd2374de	-0.039906375
103	0xbd2131ab	-0.039354008
104	0x3c2a55d5	0.0103964405
105	0xbcaf97f3	-0.02143476
106	0x3d23603d	0.0398867
107	0xbd34001d	-0.04394542
108	0xbc66be9d	-0.014083532
109	0x3d25432b	0.04034726
110	0x3d37fc7b	0.04491852
111	0xbc318f9b	-0.010837461
112	0xbd35511e	-0.044266813
113	0x3b826982	0.0039798627
114	0x3c4bb923	0.012434277
115	0x3cc6cb6f	0.024266927
116	0x3bed5321	0.0072425758
117	0x3c01576b	0.007894377
118	0x3d277df2	0.040891595
119	0x3ca7b802	0.020473484
120	0x3c1159ff	0.008871554
121	0xbd39ad25	-0.04533114
122	0xbccb459b	-0.024813464
123	0x3cc279b9	0.023739683
124	0x3ccd1f82	0.025039438
125	0x3d1393b6	0.03602954
126	0xbc8d55ec	-0.017252885
127	0xbd564d4a	-0.052319802
128	0xbc4f1aef	-0.012640699
129	0x3d197255	0.03746255
130	0xbd171393	-0.0368839
131	0xbd45eb80	-0.048320293
132	0x3bc62b1e	0.0060476204
133	0xbc2e4495	-0.010636468
134	0x3cd8aa76	0.02644847
135	0xbc94e2ea	-0.018174607
136	0xbd224fad	-0.039626766
137	0x3cf73cd3	0.03018037
138	0x3a6fc18b	0.00091459666
139	0xbd2df269	-0.04246751
140	0xbc4bf0c4	-0.01244754
141	0x3b8c7fe7	0.004287708
142	0x3c17052a	0.00921754
143	0xbcc82b17	-0.02443461
144	0xbc89d0b4	-0.01682315
145	0x3d0144fd	0.031559933
146	0xbcf26776	-0.02959035
147	0x3b0a32dd	0.0021087446
148	0x3d36e2a9	0.044649754
149	0x3d4670c3	0.04844738
150	0xbbbcb766	-0.0057591675
151	0xbd2e17fd	-0.042503346
152	0x3cb54e28	0.022131994
153	0x3ce96eac	0.028495155
154	0xbcb33466	-0.021875571
155	0x3d27a52d	0.04092901
156	0x3c557996	0.013029477
157	0xbbd1cb05	-0.0064023756
158	0x3d351761	0.04421175
159	0x3d4c54e4	0.049885646
160	0xbd18fbb0	-0.037349403
161	0xbd2669ee	-0.040628366
162	0x3d5a09e5	0.053232092
163	0x3cd60b33	0.026128387
164	0x3cf3114f	0.02967134
165	0x3c87bf63	0.016570752
166	0xbc8c7f13	-0.017150437
167	0xbc4a9d95	-0.012366672
168	0x3c83fcac	0.016111694
169	0xbc53a374	-0.012917388
170	0xbcba263b	-0.022723308
171	0xbd1998bb	-0.03749917
172	0xbd217ffa	-0.03942869
173	0x3c56cd13	0.013110417
174	0x3d3a6dcf	0.045514878
175	0x3a58fcd8	0.0008277423
176	0xbc34e9f8	-0.011042111
177	0xbc793826	-0.015211141
178	0x3d159db5	0.036527354
179	0xbd31b24c	-0.043382928
180	0x3d390187	0.045167472
181	0x3d4eabd1	0.050456826
182	0x3b24709f	0.0025091541
183	0xbc4b30e8	-0.012401797
184	0xbcfc24f2	-0.030779336
185	0x3d2d385a	0.04229007
186	0x3ca0f3b4	0.019647457
187	0x3d184e57	0.037184086
188	0x3c681586	0.014165288
189	0xbd3c05d9	-0.045904014
190	0xbb25ad3e	-0.0025280262
191	0xbc8f99aa	-0.017529327
192	0x3c5a6030	0.013328597
193	0xbd0de0a6	-0.03463807
194	0x3c0c4d90	0.008563414
195	0x3a1b0dff	0.00059148663
196	0xbd44f720	-0.04808724
197	0xbd2e167d	-0.042501915
198	0xbcda614f	-0.026657728
199	0xbc959f8f	-0.01826456
200	0xbce86e97	-0.028373046
201	0x3c3f0a79	0.011660212
202	0x3bdd2ba2	0.006749586
203	0xbd3d73b5	-0.046252925
204	0xbd28e14c	-0.041230485
205	0xbd42c3cd	-0.04755001
206	0xbc1a7c02	-0.00942898
207	0x3d0b699b	0.03403626
208	0x3cb368ea	0.021900613
209	0x3d2ddd01	0.042447094
210	0xbd5be093	-0.053680968
211	0x3c418667	0.011811829
212	0x3d24bc4c	0.040218636
213	0xbd574dd8	-0.052564472
214	0x3d5e6381	0.054294113
215	0xbcb343d7	-0.021882934
216	0xbd0091ec	-0.031389162
217	0x3c529831	0.012853668
218	0x3c82058d	0.015871787
219	0xbd44b6b4	-0.0480258
220	0x3ce1a38d	0.027543807
221	0x3d4a3652	0.04936821
222	0x3b5e433c	0.0033914587
223	0xbd182577	-0.037145104
224	0x3cb45c9c	0.022016816
225	0xbc7a20f0	-0.015266642
226	0xbcbe2708	-0.02321197
227	0x3cdaa69b	0.026690772
228	0x3a5cb1fe	0.0008418857
229	0x3d081111	0.0332194
230	0x3ca3f3d9	0.020013737
231	0xbd08e52e	-0.033421688
232	0xbbd11d30	-0.0063816532
233	0x3d34c043	0.044128668
234	0xbd7b8f77	-0.061416116
235	0x3d53f510	0.05174738
236	0x3d4090d8	0.047013134
237	0xbd552342	-0.052035578
238	0x3d36f08b	0.044662993
239	0x3d324357	0.04352125
240	0x3cd83089	0.02639033
241	0x3a66e4e4	0.0008807911
242	0xbc6e5a8a	-0.014547953
243	0xbca91f06	-0.020644676
244	0xbd89bc36	-0.067253515
245	0x3ce77a92	0.028256688
246	0xbcdf3e7b	-0.027251473
247	0xbbb470bc	-0.005506603
248	0xbd848a53	-0.06471696
249	0x3ce636da	0.028102327
250	0xbd55ce44	-0.052198663
251	0x3c2e2420	0.01062873
252	0xbd07cfe7	-0.033157256
253	0x3b23fb75	0.0025021706
254	0x3d5afc42	0.053463228
255	0xba0a3f8d	-0.0005273752

fc2.bias f4 [128]
0	0xbce58959	-0.028019594
1	0x3cbf12d4	0.023324408
2	0x3b90b99a	0.0044166567
3	0x3c3437af	0.010999604
4	0xbc1bb06a	-0.00950251
5	0x3cc5eeab	0.024161657
6	0xbd39b64f	-0.04533988
7	0x3d6e011b	0.058106523
8	0x3d4da10f	0.050202426
9	0x3d7e27f1	0.06204981
10	0xbd5d850c	-0.05408196
11	0x3d6f09c2	0.058358915
12	0x3c94ff99	0.018188285
13	0x3bbf5200	0.0058386326
14	0xbd41d13d	-0.047318686
15	0x3d2ca5ce	0.04215031
16	0xb88566c8	-6.361079e-05
17	0xbd28cb06	-0.041209243
18	0xbd294811	-0.041328494
19	0xbd1c037c	-0.03808926
20	0x3bed2a50	0.00723771
21	0x3b0896d5	0.0020841856
22	0x3c1344fe	0.008988617
23	0xbadeddc2	-0.0017003345
24	0xbc808ceb	-0.015692195
25	0x3d254d32	0.040356822
26	0xbb7f5f3e	-0.003896668
27	0x3be230a5	0.0069027715
28	0xbc59d339	-0.013294988
29	0xbc9e6f2f	-0.019340126
30	0x3d27cde0	0.040967822
31	0xbd1f4bc2	-0.038890608
32	0xbcbf6950	-0.023365647
33	0xbd2b49eb	-0.04181854
34	0x3c8b6125	0.017014096
35	0xbd3a0b78	-0.045421094
36	0x3d243e4d	0.040098477
37	0xbba83150	-0.0051328316
38	0xbd174f89	-0.036941085
39	0x3ca90aec	0.02063509
40	0x3d7c89ab	0.061654728
41	0xbd069896	-0.03286036
42	0x3d65f94d	0.056145955
43	0xbd64c392	-0.055850573
44	0xb881c594	-6.188001e-05
45	0x3cedcdc7	0.029028786
46	0xbcee9a02	-0.029126171
47	0x3c886c2a	0.01665314
48	0x3b2629cb	0.00253545
49	0x3d7f61ea	0.062349238
50	0xbcde32cd	-0.027123833
51	0xbd656f6a	-0.056014456
52	0xbc936dbd	-0.017996663
53	0x3c0e5af6	0.008688679
54	0x3cdee06d	0.027206624
55	0x3b27b82b	0.002559195
56	0xbcac4e8c	-0.021033548
57	0xbd7058fa	-0.058678605
58	0x3d4fc847	0.05072811
59	0xbd416924	-0.04721941
60	0x3c9b988b	0.018993637
61	0xbc279486	-0.010228282
62	0xbc7ca2c8	-0.015419669
63	0x3c7cefac	0.015438002
64	0xbae0d3d8	-0.0017152978
65	0xbd0204f2	-0.031742997
66	0x3afc915e	0.0019269397
67	0x3cf22de7	0.029562904
68	0xbcabd051	-0.020973356
69	0x3d1ba7a7	0.038001683
70	0x3cb4caa4	0.022069283
71	0xbd47ecc6	-0.04880979
72	0xbd0d8342	-0.034549005
73	0xbd217ede	-0.03942763
74	0xbcae2ac6	-0.02126063
75	0x3d84235d	0.064520575
76	0x3b8ba486	0.004261556
77	0xbba7b8aa	-0.005118449
78	0x3c407980	0.011747718
79	0xbb30a02b	-0.0026950936
80	0x3bb7f200	0.0056135654
81	0x3d138e7b	0.03602455
82	0x3b8ba92a	0.0042621093
83	0xbc508f6a	-0.012729505
84	0x3c1a958d	0.00943507
85	0xbc6fd13c	-0.014637288
86	0xbb45af76	-0.0030164397
87	0x3cdd8512	0.027040992
88	0xbd046b09	-0.03232864
89	0xbd32c486	-0.04364445
90	0xbc09784c	-0.008390497
91	0x3ca878a7	0.020565344
92	0x3c297bd4	0.010344464
93	0xbbb288c8	-0.0054484345
94	0xbcf968a3	-0.030445402
95	0x3ceb4aea	0.028722245
96	0x3cf53c4b	0.029935976
97	0x3d2ac588	0.041692287
98	0xbd2fc9ff	-0.042917248
99	0x3cd8b372	0.026452754
100	0x3d1cc89c	0.038277254
101	0xbadb4e87	-0.0016731777
102	0x3ca64db2	0.02030072
103	0x3c9dce44	0.019263394
104	0x3d1ace84	0.037794605
105	0x3cfc4c62	0.03079814
106	0x3d22b519	0.03972349
107	0x3bacb742	0.0052708695
108	0xbcade77b	-0.021228543
109	0xbce4d911	-0.027935537
110	0xbd38a23d	-0.045076597
111	0xba4262f9	-0.0007415261
112	0xbd58f3b3	-0.052966785
113	0x3d11f4ab	0.035633724
114	0xbcfd9dbe	-0.030959006
115	0x3cac6412	0.021043811
116	0xbaa3ee28	-0.0012506889
117	0x3d126fb4	0.03575106
118	0xbcbd5f0f	-0.023116617
119	0xbd2f09e6	-0.04273405
120	0x3c32baa6	0.010908758
121	0x3caae583	0.020861393
122	0x3b1f3509	0.0024293086
123	0xbcf3b973	-0.029751515
124	0x3d0100d8	0.031494945
125	0xbc689d0e	-0.014197601
126	0x3d72cfc1	0.05928016
127	0xbd4e69b9	-0.050393794

fc3.weight f4 [128, 128]
0	0x3c26a506	0.010171181
1	0xbcc7737a	-0.024347056
2	0xbd0fe71b	-0.03513251
3	0xbd39d7a5	-0.04537167
4	0x3ca8ded4	0.020614065
5	0x3d8e4114	0.069460064
6	0xbd8cf226	-0.06882124
7	0x3a27b139	0.00063969527
8	0x3c581f6e	0.013191087
9	0x3d869440	0.06571245
10	0xbc3b8908	-0.011446245
11	0x3d064f81	0.032790665
12	0x3abbebea	0.0014337276
13	0x3da76c9a	0.08175011
14	0x3ce2226a	0.0276043
15	0xbc801479	-0.015634762
16	0xbd83d213	-0.06436553
17	0xbd95b280	-0.07309437
18	0xbcaae35a	-0.020860363
19	0x3d5d214c	0.053986832
20	0xbc3cf2fa	-0.0115325395
21	0x3c9cd4f5	0.019144515
22	0x3a9769b0	0.0011551883
23	0xbcb215a4	-0.021738835
24	0xbd4d8053	-0.050171208
25	0x3d0bda9b	0.034144025
26	0xbcf9f9b9	-0.030514585
27	0x3d6ed0f9	0.05830476
28	0x3d8cdfcb	0.068786226
29	0x3d5885f2	0.052862115
30	0xbd6ddc71	-0.058071557
31	0x3da21e34	0.07915917
32	0x3c42cb4c	0.01188929
33	0x3d8bcf8a	0.06826694
34	0x3cdbf760	0.026851356
35	0xbd0d87ab	-0.03455321
36	0xbc0101cd	-0.0078739645
37	0xbd27842d	-0.040897537
38	0xbd43f529	-0.047841225
39	0x3daa96f3	0.083295725
40	0x3d23446e	0.03986018
41	0x3dae48f7	0.08510011
42	0x3cae7020	0.0212937
43	0xbd311d4c	-0.04324083
44	0xbd048798	-0.032355875
45	0x3d9d6580	0.07685375
46	0x3d733efb	0.059386235
47	0xbd53f1e4	-0.051744357
48	0x3a87982c	0.0010345033
49	0x3cbe9b3e	0.023267385
50	0x3720086b	9.538703e-06
51	0xbd650c0f	-0.055919703
52	0xbb4e5d38	-0.0031488668
53	0x3d4b7922	0.049676068
54	0xbce1a5bd	-0.02754485
55	0xbd62fb91	-0.055415694
56	0xbd8325b0	-0.06403673
57	0x3c5d63ec	0.013512593
58	0xbd3c4134	-0.04596062
59	0x3cf13676	0.029444914
60	0x3d66544d	0.05623274
61	0xbd6407a7	-0.05567136
62	0xbd5aaada	-0.053385593
63	0xbd846038	-0.06463665
64	0xbca7716e	-0.02043983
65	0x3d5d8d52	0.05408985
66	0x3d6e18a5	0.05812897
67	0x3d67b1e7	0.056566145
68	0xbd9f0c9e	-0.077660784
69	0xbd90ea8e	-0.07075988
70	0xbc796ad3	-0.015223223
71	0xbd8fea57	-0.07027119
72	0x3cdb2a17	0.026753468
73	0x3d5749cd	0.052560616
74	0xbd6c47ce	-0.057685666
75	0x3d81fcea	0.06347068
76	0x3d1f0f0f	0.03883272
77	0x3ca47969	0.020077424
78	0x3d793ff8	0.06085202
79	0xbd2854b8	-0.04109642
80	0xbcface1d	-0.03061586
81	0x3d4ebcf2	0.05047316
82	0x3da29819	0.079391666
83	0xbd58ef83	-0.05296279
84	0xbd017746	-0.03160789
85	0xbcc93fca	-0.02456655
86	0xbd853a62	-0.06505276
87	0x3c7bafea	0.015361765
88	0xbcc96a2b	-0.024586758
89	0x3cf2abca	0.029622931
90	0x3d960d28	0.07326728
91	0xbd1d791b	-0.038445573
92	0xbb5a0d19	-0.0033271967
93	0x3d4a35bc	0.04936765
94	0x3b29b2da	0.0025893957
95	0x3c0a4672	0.008439647
96	0xbaa96e1f	-0.0012926495
97	0x3cf3d0e1	0.029762687
98	0xbd4c32c2	-0.049853094
99	0xbce0f80a	-0.027462024
100	0x3c4af4e3	0.012387487
101	0x3da18f9a	0.07888718
102	0x3c9e48c2	0.019321803
103	0xbd5136d1	-0.051077668
104	0x3d5ee114	0.05441387
105	0x3d632a66	0.055460356
106	0x3dad5aa7	0.08464556
107	0x3c1f9243	0.009739461
108	0x3c2b5ffa	0.010459894
109	0x3dba0347	0.09082656
110	0xbcba1da5	-0.022719214
111	0xbd73513f	-0.059403654
112	0xbd3e88f1	-0.046517316
113	0xbcfcf0a1	-0.03087646
114	0xbd748241	-0.059694532
115	0x3c8c5ac8	0.017133132
116	0x3b989fb1	0.0046577086
117	0xbd565900	-0.05233097
118	0xbc27bb3c	-0.010237511
119	0xbb825b3e	-0.003978162
120	0xbcf44b8e	-0.029821184
121	0xbcf69bb8	-0.03010355
122	0x3cc46642	0.023974542
123	0x3d99bd9c	0.07506868
124	0xbcde6d39	-0.02715169
125	0x3d74741c	0.059681043
126	0x3d232017	0.039825525
127	0x3dac58f9	0.08415408
128	0x3d91189d	0.07084773
129	0xbd135e5a	-0.035978653
130	0xbd888a68	-0.06667024
131	0xbd0936af	-0.033499416
132	0xbd8bf776	-0.06834309
133	0xbc658929	-0.014009752
134	0xbd8fdf8b	-0.07025059
135	0x3d86d909	0.06584365
136	0xbc580368	-0.013184406
137	0x3d8faf84	0.07015899
138	0xbd12d91c	-0.035851583
139	0x3d80da04	0.06291583
140	0xbcad9f56	-0.021194141
141	0x3d682ed4	0.056685284
142	0xbc3eeace	-0.0116526615
143	0xbd994245	-0.07483343
144	0x3d7002c7	0.0585964
145	0x3d7c1a10	0.061548293
146	0xbd4c3c58	-0.049862236
147	0x3ce7029c	0.028199486
148	0xbd91ac2a	-0.07112916
149	0x3cc0792f	0.023495285
150	0x3d9d8f9d	0.07693408
151	0xbd3e1f51	-0.046416584
152	0xbcf5c8fd	-0.030003065
153	0xbd1cc7ff	-0.03827667
154	0xbc1af863	-0.009458634
155	0xbd18a823	-0.037269723
156	0x3b2998e6	0.0025878488
157	0xbd6c8c0e	-0.057750754
158	0xbce42b50	-0.027852684
159	0xbd2197cc	-0.039451405
160	0x3cec0959	0.028813051
161	0xbd2ff75d	-0.042960513
162	0x3d65f461	0.05614126
163	0x395c3fb4	0.00021004566
164	0x3bd9e577	0.006649669
165	0x3d2992f3	0.041399907
166	0xbd271d9f	-0.040799733
167	0x3d8ad654	0.06779161
168	0xbb947f75	-0.0045317956
169	0x3c4380b1	0.011932538
170	0x3d82316b	0.06357082
171	0xbbd43574	-0.0064760987
172	0x3d4736f2	0.048636384
173	0xbd21a0b8	-0.039459914
174	0x3d14a643	0.036291372
175	0x3d21531d	0.039385904
176	0xbd4e5172	-0.05037064
177	0x3d61aa2d	0.055093933
178	0xbd1ab4b4	-0.03776999
179	0x3c40c69f	0.011766105
180	0xbd62dc87	-0.055386093
181	0xbd3ec62b	-0.046575706
182	0xbcaaecf1	-0.020864936
183	0x3be25840	0.006907493
184	0xbd59b6df	-0.053152915
185	0x3d8cc8cd	0.06874237
186	0xbc084b3c	-0.0083187185
187	0x3d2f89f8	0.042856187
188	0xbccd9de5	-0.025099704
189	0x3d0c9c9e	0.03432905
190	0xbd2eea95	-0.042704184
191	0x3d64fefa	0.055907227
192	0x3d68d3a0	0.056842446
193	0x3d829095	0.06375233
194	0x3c65b68b	0.014020572
195	0xbbb1d9de	-0.005427583
196	0x3b2388c7	0.0024953352
197	0x3c93b7b5	0.018031934
198	0x3c8d2ed9	0.017234253
199	0xbd72e58d	-0.059300948
200	0x3bb3ab02	0.005483032
201	0x3d48bc9c	0.049007997
202	0xbc970c2f	-0.018438427
203	0xbd621923	-0.055199753
204	0x3b99a2dc	0.004688604
205	0xbd6fdec5	-0.05856206
206	0x3bff8698	0.0077980272
207	0xbd274fb1	-0.040847484
208	0xbd114f0a	-0.03547577
209	0xbcfad233	-0.030617809
210	0xbca43d8d	-0.020048881
211	0x3d87b4a0	0.06626248
212	0x3cd7f12d	0.026360119
213	0xbd39f6e1	-0.045401458
214	0x3cd7c02c	0.026336752
215	0xbd10067e	-0.03516244
216	0xbbfc8518	-0.0077062957
217	0xbc272e87	-0.010203964
218	0x3cb1ed0c	0.021719478
219	0xbd25a8f7	-0.04044434
220	0xbd97559a	-0.07389374
221	0xbd811e31	-0.06304587
222	0x3d7617c7	0.06008127
223	0x3c95cce5	0.018286178
224	0x3cd542e8	0.02603288
225	0xbc854ec0	-0.016272902
226	0x3daef338	0.08542484
227	0x3c30d94d	0.010793996
228	0x3d814749	0.06312425
229	0x3ca6d141	0.020363452
230	0xbd09d3dd	-0.033649314
231	0x3cf8607a	0.030319441
232	0x3d38ec04	0.045146957
233	0x3d70bf5a	0.058776237
234	0x3d431d0b	0.04763512
235	0x3d8357cb	0.064132296
236	0x3d3bb393	0.045825552
237	0x3d89309f	0.06698727
238	0x3c0b5bf0	0.008505806
239	0x3ce09f8f	0.027419833
240	0xbd9e9400	-0.077430725
241	0xbd03e69d	-0.03220235
242	0xbc4e756b	-0.012601237
243	0x3d24da73	0.040247392
244	0x3d6e830b	0.05823044
245	0xbd2afed6	-0.041746937
246	0xbd097873	-0.033562135
247	0x3bd62a5d	0.006535812
248	0x3c35378b	0.011060606
249	0x3d823dba	0.0635943
250	0xbce511a8	-0.02796252
251	0x3d3ecb57	0.04658064
252	0x3b8541e5	0.004066693
253	0x3d24a19f	0.040193196
254	0xbcb36d59	-0.021902727
255	0xbd7cde16	-0.061735235

fc3.bias f4 [128]
0	0x3d1dca66	0.0385231
1	0x3d2642a1	0.040590886
2	0x3db528ee	0.08845697
3	0x3d24a22b	0.040193718
4	0xbbed05fb	-0.007233379
5	0xbcdf3bb9	-0.027250158
6	0xbd67c63f	-0.056585547
7	0xbc73c616	-0.01487877
8	0x3c32423d	0.01088005
9	0x3d3d3fcc	0.04620342
10	0x3d1bf533	0.038075637
11	0x3c7fe98f	0.01561965
12	0xbd849923	-0.06474521
13	0xbae942f2	-0.001779644
14	0x3d8803b1	0.06641329
15	0xbc3c1a6a	-0.011480907
16	0x3cd50d06	0.026007187
17	0x3c63bf5c	0.013900604
18	0x3d117357	0.035510387
19	0xbd93816e	-0.07202421
20	0xbd89a946	-0.067217395
21	0x3d9a1c96	0.075249836
22	0xbcb80f1b	-0.02246814
23	0x3d103738	0.03520891
24	0xbdaeace3	-0.08529069
25	0x3ec50fbc	0.38488567
26	0xbd4ff5d9	-0.050771568
27	0xbd6177b9	-0.055045817
28	0x3d006a77	0.031351533
29	0xbbe0e0ac	-0.0068627205
30	0xbccfd730	-0.025371164
31	0xbd6ae5eb	-0.057348173
32	0x3d3cfc8c	0.046139285
33	0x3ded5f38	0.11590427
34	0xbc0575bc	-0.008145746
35	0x3d7698bb	0.06020425
36	0x393f2751	0.00018229826
37	0xbd5b65b8	-0.053563803
38	0x3e9d819e	0.30762953
39	0xbdb66838	-0.08906597
40	0x3dc7032b	0.09717401
41	0x3dd0c7cc	0.10194358
42	0x3da2a840	0.079422474
43	0x3c9a19e4	0.018811174
44	0xbce1dde1	-0.02757162
45	0x3b946525	0.004528659
46	0x3d688ae4	0.05677308
47	0xbdb26cc6	-0.08712153
48	0x3dab87db	0.08375522
49	0x3cfb3b93	0.030668056
50	0xbd116618	-0.035497755
51	0x3d89431b	0.067022525
52	0x3bbd2e18	0.005773317
53	0xbd86e043	-0.06585743
54	0x3a95526e	0.0011392364
55	0xbd4876bd	-0.048941363
56	0xbdbe0e7b	-0.09280106
57	0xbc934f26	-0.017982077
58	0xbcbaf533	-0.022821998
59	0x3d794d81	0.06086493
60	0x3d3b4cff	0.045727726
61	0x3d135cce	0.035977177
62	0xbd8727f3	-0.065994166
63	0x3d2c296a	0.042031683
64	0x3d319f78	0.043364972
65	0x3d0c34ec	0.034230158
66	0x3e017d32	0.12645414
67	0x3bbfdf18	0.0058554523
68	0xbbde29f6	-0.0067799045
69	0x3da404fc	0.08008763
70	0x3d033698	0.032034487
71	0xbd02cf55	-0.03193601
72	0x3bd144a7	0.006386358
73	0x3cccdcfa	0.025007714
74	0x3d32ea1e	0.043680303
75	0x3d269df2	0.040677972
76	0xbc3355d5	-0.010945757
77	0x3ed0d82e	0.40789932
78	0xbd688cb8	-0.056774825
79	0xbd9e0b8b	-0.077170454
80	0xbd25252f	-0.040318664
81	0xbb947e9e	-0.0045316955
82	0xbd97afa7	-0.0740655
83	0x3bbf1622	0.005831496
84	0x3c193ef0	0.009353384
85	0x3d0135c1	0.031545404
86	0x3db92ff0	0.090423465
87	0x3eb428b6	0.3518731
88	0xbd8692c4	-0.06570962
89	0x3dae6e6d	0.08517156
90	0x3d98f9b6	0.074695036
91	0x3d57f8d7	0.052727547
92	0x3a9080cc	0.0011024713
93	0xbd4af319	-0.049548242
94	0x3dd42798	0.103591144
95	0x3d769b1d	0.06020652
96	0xbd5675a1	-0.052358273
97	0xbbfa2eec	-0.007634988
98	0xbd47eb02	-0.048808105
99	0x3ce812ec	0.028329335
100	0x3d3deacc	0.046366498
101	0xbd68ed99	-0.056867216
102	0xba53c4be	-0.0008078328
103	0xbc6810d6	-0.01416417
104	0x3eb77352	0.3583017
105	0xbd1acd2d	-0.037793327
106	0x3c41465f	0.011796563
107	0xbcb6f634	-0.022334196
108	0xbd44f48e	-0.048084788
109	0x3c50c818	0.012743019
110	0xbd4ef1a9	-0.050523434
111	0x3da98a36	0.08278315
112	0x3ec19e84	0.3781625
113	0x3d52caef	0.051463064
114	0xbd5f858f	-0.05457073
115	0xbce0f054	-0.027458347
116	0x3c364009	0.011123666
117	0xbd7043ad	-0.05865829
118	0xbcbfc139	-0.023407565
119	0x3bcf5e0e	0.006328351
120	0xbd8e15f6	-0.069377825
121	0x3d9db90e	0.07701312
122	0x3bc8e49b	0.0061307675
123	0xbcab2954	-0.02089373
124	0xbda4fac7	-0.080556445
125	0x3ce7e42e	0.028307047
126	0x3c80710d	0.015678907
127	0xbceae224	-0.028672285

fc4.weight f4 [6, 128]
0	0x3d46aef9	0.04850671
1	0x3d9e9462	0.077431455
2	0x3da1816c	0.078860134
3	0xbc14c658	-0.009080492
4	0xbbac4405	-0.005257132
5	0xbc82878b	-0.015933773
6	0x3db83de4	0.0899618
7	0x3ccfb282	0.025353674
8	0x3c115c0b	0.008872042
9	0x3d3d1381	0.04616118
10	0x3cbd8f33	0.023139572
11	0xbc199163	-0.009373042
12	0xbd748d7d	-0.059705246
13	0x3d93c9ef	0.0721625
14	0xbd0b7d85	-0.03405525
15	0x3c730424	0.01483253
16	0xbc310676	-0.010804763
17	0xbd7abb77	-0.061213937
18	0xbcb9582f	-0.022625057
19	0x3b82989a	0.0039854767
20	0xbd395826	-0.04525008
21	0x3d44a31d	0.04800712
22	0x3d97b4ac	0.07407507
23	0xbc88da00	-0.016705513
24	0xbbcbe49d	-0.006222321
25	0x3eafdc3a	0.34347707
26	0xbd84c72e	-0.06483303
27	0x3d8fe94f	0.07026922
28	0xbbe69343	-0.007036598
29	0x3da1eaac	0.07906088
30	0xbcbd8893	-0.023136413
31	0x3dac0b44	0.08400586
32	0x3d5a0ce6	0.053234957
33	0xbd3a2ad9	-0.04545102
34	0x3d141959	0.036156986
35	0x3d5ce126	0.053925656
36	0xbd01f90d	-0.031731654
37	0xbd2952e8	-0.04133883
38	0x3e994843	0.29937944
39	0xbb3f7380	-0.002921313
40	0xbcedac10	-0.02901271
41	0x3db30ed4	0.087430626
42	0x3d8f2c58	0.0699088
43	0x3cb3c9fa	0.021946896
44	0xbcf5c53a	-0.030001272
45	0x3d71ac3c	0.059002146
46	0x3d7038b5	0.05864783
47	0xbd4dfdad	-0.050290752
48	0x3d31e011	0.043426577
49	0x3d885229	0.06656296
50	0xbc6974d8	-0.014249049
51	0x3d806288	0.06268793
52	0xbd3edbf2	-0.046596475
53	0xbd09edfd	-0.03367423
54	0x3db9dc7a	0.09075256
55	0xbc710592	-0.014710801
56	0xbbb41aca	-0.0054963576
57	0xbd79cdc2	-0.06098724
58	0x3cfcc0bb	0.03085362
59	0x3c76adec	0.015056115
60	0x3cff06d6	0.03113119
61	0x3d8fac8d	0.07015333
62	0x3cd012ba	0.025399555
63	0x3d713e1b	0.05889712
64	0x3db0abeb	0.08626541
65	0x3cc3db71	0.023908349
66	0x3e1078c9	0.14108576
67	0x3d31b60c	0.043386504
68	0x3d4f32c2	0.050585516
69	0x3ccf0b99	0.025274085
70	0xbd8ef9bc	-0.06981227
71	0x3d8fe28a	0.07025631
72	0x3c42df62	0.011894079
73	0x3da4e8d5	0.08052222
74	0x3b734cda	0.0037124665
75	0xbd0ace4d	-0.03388815
76	0xbc323c47	-0.010878629
77	0x3ea6e7ef	0.32598826
78	0xbc0530a1	-0.00812927
79	0x3d485c54	0.048916176
80	0x3ce32fff	0.027732847
81	0x3c7968fc	0.015222784
82	0xbd066678	-0.032812566
83	0x3d0bec0f	0.03416067
84	0xbd12697c	-0.03574513
85	0x3d45e10c	0.048310325
86	0x3d3762f2	0.044772096
87	0x3dfe21ca	0.124087885
88	0xbd5fbfee	-0.054626398
89	0x3d70d86a	0.05880014
90	0x3cfa5820	0.0305596
91	0x3d8c6c00	0.06856537
92	0xbd765692	-0.060141154
93	0x3d4bc50a	0.049748458
94	0x3c558cf8	0.013034098
95	0x3d7563a6	0.059909485
96	0x3d18ca23	0.037302148
97	0xbccc7f98	-0.024963185
98	0x3bc86989	0.0061160964
99	0xbc2c83bb	-0.010529454
100	0xbd802cc2	-0.06258537
101	0x3ce19646	0.027537476
102	0x3d970960	0.07374835
103	0xbd3a4363	-0.04547442
104	0x3e15fa96	0.14646372
105	0x3d026d69	0.031842623
106	0xbb97594f	-0.0046188007
107	0xbafd7397	-0.0019336817
108	0x3c5d674e	0.013513399
109	0xbcca5dc5	-0.024702916
110	0xbd785e81	-0.060637
111	0x3d9862ab	0.074406944
112	0x3ebbc291	0.3667188
113	0xbc75c900	-0.015001535
114	0xbc247777	-0.010038248
115	0x3d258084	0.040405765
116	0xbca6a570	-0.020342559
117	0xb9c84176	-0.00038195745
118	0xbd403334	-0.04692383
119	0x3d8dbbc7	0.06920581
120	0x3d195a96	0.037439905
121	0x3d24e74d	0.040259648
122	0xbcc3f329	-0.023919659
123	0x3da0be7d	0.07848833
124	0x3b4a1fb6	0.0030841655
125	0x3ba25d71	0.0049549867
126	0xbcaa9346	-0.020822179
127	0xbd7b87e5	-0.061408896
128	0x3d0d4c36	0.03449651
129	0xbced3667	-0.028956605
130	0x3d59d38c	0.053180262
131	0x3d236229	0.039888535
132	0xbbadbece	-0.0053022867
133	0x3db370fe	0.08761786
134	0xbd827ef9	-0.06371874
135	0xbbfdb5f2	-0.007742637
136	0xbcef586c	-0.029216968
137	0x3d4e8f9d	0.05042993
138	0x3ca71c41	0.020399215
139	0xbd43dfe0	-0.047820926
140	0xbd056b50	-0.032573044
141	0x3c88ca52	0.016698036
142	0xbaee1aaf	-0.0018165911
143	0xbd3497eb	-0.044090193
144	0x3d6f77c3	0.058463823
145	0x3d09c9d7	0.033639755
146	0xbc894709	-0.016757505
147	0xbcba6fa7	-0.022758318
148	0x3da1b400	0.078956604
149	0x3ca59107	0.020210756
150	0x3c8b4a04	0.017003067
151	0x3c1b76a8	0.009488739
152	0x3c9a560b	0.018839857
153	0xbcd2e6ce	-0.025744822
154	0xbb3bfa3c	-0.0028683087
155	0x3cb86d97	0.022513194
156	0xbcafe861	-0.021473112
157	0x3d8e01c4	0.069339305
158	0xbc47c12e	-0.012192054
159	0xbb30b1f6	-0.0026961542
160	0x3bc765f1	0.0060851504
161	0xbd16de26	-0.03683295
162	0x3d87c4a2	0.066293016
163	0xbcfe551e	-0.031046446
164	0x3b882c10	0.0041556433
165	0x3d2f562a	0.04280678
166	0x3c51d004	0.012805942
167	0xbd179e0a	-0.037015952
168	0xbd1e88cf	-0.03870469
169	0xbcbee0b9	-0.023300515
170	0x3d826846	0.06367545
171	0x3cbd2ad1	0.023091706
172	0x3c62cf78	0.01384341
173	0xba91003b	-0.0011062691
174	0x3d868156	0.065676376
175	0xbd719c51	-0.058986966
176	0x3cd9ba55	0.026578108
177	0xbcd649d5	-0.026158253
178	0x3d5f3f61	0.054503802
179	0xbd2addf1	-0.041715566
180	0xbcaf5c19	-0.02140622
181	0xbc3c3807	-0.011487967
182	0x3d7e0413	0.062015604
183	0xbd0a7033	-0.033798408
184	0xbbc40299	-0.005981755
185	0x3d79cb8b	0.06098513
186	0x3cccac3f	0.024984477
187	0x3c862064	0.016372867
188	0x3d2e66c1	0.042578463
189	0x3a7a29b0	0.0009542955
190	0x3ca4f6bb	0.020137182
191	0x3c3d8565	0.011567448
192	0x3d864bb7	0.0655741
193	0xbd62da1a	-0.05538378
194	0x3d095f1e	0.033537976
195	0xbcd3dfb5	-0.025863508
196	0x3c5264b6	0.012841394
197	0xbac8d7b5	-0.0015323075
198	0x3cef1f9c	0.029189877
199	0x3bcf58f6	0.0063277436
200	0xbd6ee2ff	-0.05832195
201	0xbcf466a6	-0.029834103
202	0xbd8a7024	-0.067596704
203	0x3ca6c584	0.020357855
204	0x3d8be480	0.06830692
205	0x3d3f4ef6	0.046706162
206	0x3d52fe47	0.05151203
207	0xbd4ae65b	-0.04953609
208	0x3d4cee24	0.050031796
209	0xbd2410eb	-0.040055197
210	0x3cb4e2e3	0.022080844
211	0xbd16a92c	-0.03678243
212	0x3d9f596b	0.07780727
213	0xbbf9417e	-0.007606684
214	0xbd352f64	-0.04423465
215	0xbd012e4c	-0.031538293
216	0x3d92ec51	0.0717398
217	0xbd126648	-0.035742074
218	0x3d6c7d8c	0.05773692
219	0x3d1d98f2	0.03847594
220	0x3c8a1f75	0.016860703
221	0x3d4c85be	0.049932234
222	0xbd1ebbd7	-0.038753357
223	0x3d231499	0.039814565
224	0x3d1c51ce	0.038163953
225	0xbd1cc7e2	-0.03827656
226	0xbd41b1ab	-0.047288578
227	0xbc1c36a9	-0.009534516
228	0xbce77e30	-0.028258413
229	0x3daccbc6	0.08437304
230	0x3d2d841d	0.04236232
231	0x3d0410ea	0.032242693
232	0xbd61e612	-0.055151053
233	0x3d0a3989	0.033746276
234	0xbd66d7e7	-0.056358244
235	0x3d2c4421	0.04205716
236	0x3c19efc6	0.009395545
237	0x3b3e7991	0.0029064158
238	0x3d7d9420	0.06190884
239	0x3d174ae4	0.036936656
240	0x3d929070	0.071564555
241	0xbcb3251b	-0.02186828
242	0x3d732b2b	0.05936734
243	0x3d2c8888	0.042122394
244	0x3b0228a4	0.001986065
245	0xbb8e506b	-0.0043430827
246	0x3d320f61	0.043471698
247	0xbccfc28d	-0.025361324
248	0x3ce2bcfa	0.027678002
249	0xbba3cf01	-0.004999042
250	0x3da7c077	0.08191007
251	0xbc821fe8	-0.015884355
252	0xbcfe990b	-0.031078836
253	0xb795a446	-1.783868e-05
254	0x3da09136	0.07840197
255	0xbcad39dd	-0.021145755

fc4.bias f4 [6]
0	0xbc675c01	-0.014121057
1	0x3d422cbc	0.047405943
2	0xbd28ed56	-0.041241966
3	0x3d4c13ca	0.04982356
4	0x3d444e43	0.0479262
5	0x3d96f4de	0.073709235
