megasena_model_4.pth (torch, 211116 bytes, 8 tensors)

fc1.weight f4 [256, 6]
0	0x3e1ee5d3	0.15517358
1	0xbe8e01b5	-0.27735677
2	0xbe1fcc56	-0.15605292
3	0x3e742912	0.23843792
4	0x3de76ca0	0.113000154
5	0xbeb6cbe3	-0.35702428
6	0xbd9a3b62	-0.075308576
7	0x3e9b9eaf	0.30394503
8	0x3e8b8e8f	0.272572
9	0x3e125b46	0.1429263
10	0xbd9ba49a	-0.07599755
11	0xbe753a9d	-0.2394814
12	0xbd368693	-0.044561934
13	0xbda77a9d	-0.081776835
14	0x3c4e4e48	0.012591906
15	0x3c9749e0	0.018467844
16	0x3e3fb08b	0.1871969
17	0x3e3be512	0.18349102
18	0xbd9d7b8e	-0.07689582
19	0x3ea630b6	0.32459038
20	0x3e2be714	0.16787368
21	0xbdd05b8e	-0.10173713
22	0x3e32ef07	0.17473994
23	0xbce55401	-0.027994158
24	0x3cdd3a5c	0.027005367
25	0x3e71eb0f	0.23624824
26	0xbe370b41	-0.17875387
27	0xbe837283	-0.25673303
28	0x3dfdfe90	0.124020696
29	0x3eb1c84f	0.34723136
30	0xbd334e98	-0.043776125
31	0xbe87c71d	-0.265191
32	0x3d556d4a	0.05210618
33	0x3e8ee488	0.2790873
34	0xbd9d75bb	-0.07688471
35	0xbd8ed228	-0.06973678
36	0x3e8eb6de	0.27873892
37	0x3e0c3831	0.1369331
38	0x3d6b81da	0.057496883
39	0xbe9c56ba	-0.30534917
40	0xbeaba7b2	-0.3352638
41	0x3d89ba44	0.067249805
42	0xbe51d7bb	-0.20492451
43	0xbdf590ed	-0.11990533
44	0xbe6b4f38	-0.22979438
45	0xbe65361b	-0.22383921
46	0xbde0e325	-0.109808244
47	0xbe1f0880	-0.15530586
48	0x3df1f8a9	0.11815006
49	0xbe5d5d08	-0.2161752
50	0x3e1a12f9	0.150463
51	0xbe60825a	-0.21924725
52	0x3e126d3e	0.14299485
53	0x3e6793e1	0.22615005
54	0x3ea11445	0.31460777
55	0x3e96ebc8	0.29476762
56	0x3ca6c8f7	0.0203595
57	0x3eb76145	0.35816398
58	0x3d9cb2cf	0.076512925
59	0x3ddb292a	0.10701211
60	0xbe98765f	-0.2977781
61	0x3cd88674	0.0264313
62	0x3e5d92af	0.21637987
63	0xbe2350c1	-0.15948774
64	0xbe9171b7	-0.2840707
65	0xbe3a126b	-0.18171088
66	0xbe6815d8	-0.22664583
67	0x3db400f0	0.08789241
68	0x3a033331	0.00050048815
69	0xbe223111	-0.1583903
70	0xbdc8b16d	-0.09799466
71	0xbea420e2	-0.32056338
72	0xbe03f50b	-0.12886445
73	0x3da5bb82	0.08092405
74	0x3e5e0e86	0.21685228
75	0x3da3548b	0.0797511
76	0x3b2f67d7	0.0026764774
77	0x3cdcec2c	0.026968084
78	0x3eb6ff62	0.35741717
79	0x3de0962b	0.10966142
80	0xbe5411a2	-0.20709851
81	0x3e7be88a	0.24600425
82	0x3ccaea0c	0.024769805
83	0xbe763d80	-0.24046898
84	0xbe24ece9	-0.16105999
85	0x3dc3fc17	0.09569567
86	0x3bbe0fa6	0.0058002053
87	0x3b2f2a97	0.0026728266
88	0x3e2c9375	0.16853125
89	0xbeba782e	-0.36419815
90	0x3e474fbe	0.19464013
91	0x3d8db027	0.06918364
92	0xbe172ee8	-0.14763987
93	0x3e0b6e54	0.13616306
94	0xbeb7967a	-0.35856992
95	0x3e036dbe	0.12834832
96	0xbd25ecc0	-0.040508986
97	0xbe1c47f6	-0.15261826
98	0xbe70aed4	-0.23504192
99	0xbdd4d1f0	-0.10391605
100	0x3c8abb56	0.016935032
101	0x3e77e149	0.24207033
102	0x3ea7fb72	0.32809025
103	0xbe1f3216	-0.1554645
104	0x3e6315b0	0.22176242
105	0xbe8c780f	-0.27435347
106	0x3e46cd86	0.19414338
107	0xbe2d9618	-0.16951787
108	0xbe85fbc3	-0.2616864
109	0xbe9b948f	-0.3038678
110	0xbe64ee9f	-0.22356652
111	0xbd3389a5	-0.04383244
112	0x3ea9f319	0.3319328
113	0x3e98975b	0.29802975
114	0x3ea44072	0.32080418
115	0xbcb56538	-0.022142991
116	0xbeb56081	-0.3542519
117	0xbe2a1b86	-0.16612062
118	0x3cd7f45c	0.026361637
119	0x3eab34ab	0.3343862
120	0x3e3b712e	0.18304893
121	0xbe33e591	-0.17568041
122	0x3e3391fa	0.17536154
123	0xbe59d0c1	-0.2127104
124	0xbc8eec8e	-0.017446782
125	0x3dcd7157	0.100313835
126	0x3dd840f2	0.10559262
127	0x3eac8ba9	0.33700302
128	0x3e2b0700	0.16701889
129	0x3e682e6c	0.22673959
130	0x3dd905b2	0.105967894
131	0xbe9a1eff	-0.30101773
132	0x3e720975	0.2363642
133	0xbea44e5d	-0.32091036
134	0x3e98e9c4	0.2986585
135	0xbe9a3c83	-0.30124292
136	0xbe9f4cfd	-0.31113425
137	0x3e2dc09f	0.1696801
138	0x3eb7588f	0.35809752
139	0xbea270d3	-0.31726703
140	0x3eaa55e8	0.33268666
141	0xbe13632b	-0.14393298
142	0xbe6b9dd0	-0.2300942
143	0xbd820a4e	-0.06349622
144	0xbea87031	-0.32898095
145	0xbd6e10f2	-0.05812163
146	0x3ea0bdc8	0.31394792
147	0x3d66ae5b	0.056318622
148	0xbe334d3a	-0.17509928
149	0x3e2e6b08	0.17033017
150	0xbdacd79f	-0.08439564
151	0xbe55ea0c	-0.20890063
152	0x3e05e0e3	0.13074069
153	0x3e824217	0.25441048
154	0x3d58e043	0.052948248
155	0xbe5fdbc1	-0.21861173
156	0x3e0af137	0.13568579
157	0x3cd32f03	0.025779253
158	0x3e5d3eaf	0.21605943
159	0x3cd994b8	0.026560172
160	0xbe911e14	-0.2834326
161	0xbe328853	-0.17434816
162	0x3e8719fc	0.26387012
163	0x3e27a18c	0.16370219
164	0xbe4cd92c	-0.2000472
165	0x3e91b4a0	0.28458118
166	0x3eaab2cf	0.33339545
167	0xbddb33b8	-0.10703224
168	0x3ea2ba92	0.31782967
169	0xbe7e260f	-0.24819206
170	0x3d0219c0	0.03176284
171	0x3d9e955b	0.07743331
172	0xbeb1fd4d	-0.34763566
173	0xbda840f7	-0.08215516
174	0x3eb655e5	0.35612407
175	0x3d322b36	0.04349824
176	0xbe4c5c7f	-0.1995716
177	0xbd5edd91	-0.05441052
178	0x3d7db569	0.061940584
179	0x3d113e73	0.035459947
180	0xbd043dde	-0.032285564
181	0xbe893193	-0.26795635
182	0xbdc0ae39	-0.0940823
183	0x3e81cb02	0.25350195
184	0xbe650dd0	-0.2236855
185	0xbdedbfa1	-0.11608816
186	0x3df16733	0.11787262
187	0xbc58dc75	-0.013236155
188	0xbe8bc23a	-0.2729662
189	0x3e807942	0.25092512
190	0xbea4a895	-0.32159868
191	0x3e7807a8	0.2422167
192	0xbe3a7539	-0.1820878
193	0x3e9b058d	0.30277672
194	0xbe247765	-0.1606117
195	0x3d126f48	0.035750657
196	0x3e855695	0.2604262
197	0x3dbdb04b	0.09262141
198	0xbe66b0d2	-0.22528389
199	0x3da19ec1	0.07891608
200	0x3e822454	0.2541834
201	0x3e49be5c	0.19701523
202	0x3e288007	0.16455089
203	0xbdefbce7	-0.11705952
204	0x3e8246f3	0.25444755
205	0x3e4ee80e	0.2020571
206	0x3e257f09	0.16161741
207	0x3e3fe681	0.18740274
208	0x3eb4e4b2	0.3533073
209	0x3ca3f1c2	0.02001274
210	0x3dfa1dc9	0.12212712
211	0x3d9bd478	0.076088846
212	0x3e9e64df	0.30936334
213	0xbda1e058	-0.07904118
214	0xbe934a83	-0.28767785
215	0xbdc2d25b	-0.09512778
216	0xbe26735d	-0.16254945
217	0xbe216655	-0.15761693
218	0xbec4c3ec	-0.38430727
219	0x3ea5c2f1	0.3237529
220	0xbe9723cb	-0.29519495
221	0x3de989ac	0.11403212
222	0xbdc712d3	-0.09720387
223	0xbeb8b171	-0.36072877
224	0xbe84b7a4	-0.25921357
225	0x3d80ec20	0.06295037
226	0xbcd46d6b	-0.02593108
227	0xbd125148	-0.035722047
228	0x3eb05f19	0.34447554
229	0xbe66284a	-0.22476307
230	0x3abcad43	0.0014394898
231	0xbe4faa16	-0.20279726
232	0xbeaeb32a	-0.34121066
233	0xbd80f38a	-0.062964514
234	0xbe86b556	-0.26310223
235	0x3e0b132d	0.13581534
236	0xbe0e5cb5	-0.13902552
237	0x3b27ff25	0.0025634256
238	0x3e0bb997	0.13645016
239	0x3eb9cf2b	0.3629087
240	0xbe59362f	-0.21212076
241	0x3eb03ff2	0.34423786
242	0x3daa3496	0.08310811
243	0x3e502fc1	0.20330717
244	0xbddcd3c9	-0.10782582
245	0x3e39490d	0.18094273
246	0x3e114c2f	0.14189218
247	0x3e366819	0.17813148
248	0x3eb0720f	0.3446202
249	0x3e936d7d	0.2879447
250	0x3dbc0526	0.091806695
251	0x3d5a9fd9	0.0533751
252	0x3e7668a4	0.24063355
253	0xbebd1b63	-0.36934957
254	0x3d793018	0.06083688
255	0xbdf95e5b	-0.121762

fc1.bias f4 [256]
0	0x3d8ed636	0.06974451
1	0x3d908256	0.070561096
2	0x3e69bc4a	0.22825733
3	0x3c7857b9	0.015157633
4	0xbe930f20	-0.28722477
5	0x3e22eb3f	0.15910052
6	0xbeb5f2b8	-0.35536742
7	0xbe3bb381	-0.18330194
8	0xbde11b8a	-0.10991581
9	0x3e4d151c	0.20027584
10	0x3ed23267	0.4105408
11	0x3e0cae4a	0.13738361
12	0x3da2c51e	0.07947753
13	0x3e8634b8	0.26212096
14	0xbe80c3fd	-0.25149527
15	0x3de642c5	0.11243204
16	0x3e194e81	0.14971353
17	0x3ebae321	0.3650141
18	0xbe85d9de	-0.26142782
19	0xbcd4922e	-0.02594861
20	0x3d95e4e0	0.07319045
21	0x3de13b51	0.10997642
22	0xbe643ac7	-0.22288047
23	0xbe64daee	-0.2234914
24	0xbde74b61	-0.11293674
25	0xbe0d3f1f	-0.1379361
26	0x3d466cf9	0.04844377
27	0xbb8b0d2c	-0.0042435136
28	0x3e928337	0.28615734
29	0xbe84fdfe	-0.2597503
30	0xbda00e75	-0.078152575
31	0xbdc9dc8f	-0.09856521
32	0xbe9550d1	-0.2916322
33	0xbd2067ff	-0.03916168
34	0x3ea84816	0.32867497
35	0x3e24ca0f	0.16092704
36	0x3e079e8d	0.13244076
37	0xbdab0197	-0.083499126
38	0x3eadefcd	0.33972016
39	0x3df78689	0.120862074
40	0xbe9cbb5d	-0.30611697
41	0xbda5f056	-0.08102481
42	0x3dc47150	0.09591925
43	0x3d5db1f7	0.0541248
44	0xbea95d5e	-0.33079046
45	0xbe43a3c4	-0.1910544
46	0xbe3213d7	-0.17390381
47	0x3e616a17	0.22013126
48	0xbe944874	-0.28961527
49	0xbeae66b8	-0.34062743
50	0x3de41456	0.11136691
51	0xbe9d1552	-0.3068033
52	0x3d2b1104	0.041764274
53	0xbe1d37b0	-0.15353274
54	0xbe315bed	-0.17320223
55	0x3e316bac	0.1732623
56	0x3d63ba77	0.05559775
57	0xbe34f743	-0.17672448
58	0xbea1bcc7	-0.31589338
59	0x3e3d2798	0.18472135
60	0x3e697c3b	0.22801296
61	0xbdd34815	-0.10316483
62	0x3ea9d066	0.33166808
63	0xbe26e53a	-0.1629838
64	0xbe0d9e40	-0.13829899
65	0xbe87e5ce	-0.26542515
66	0x3e42d1bc	0.1902532
67	0xbe78c70c	-0.2429468
68	0x3ddb2a46	0.107014224
69	0x3f23544f	0.6380052
70	0xbbde01bf	-0.0067751105
71	0x3e8aa225	0.2707683
72	0xbe49c5d0	-0.19704366
73	0x3d91c576	0.07117741
74	0x3e83e79d	0.25762644
75	0xbe861a8b	-0.26192126
76	0x3d3115b8	0.043233603
77	0x3ebacf76	0.36486405
78	0xbe7d791a	-0.24753228
79	0x3e170dc6	0.14751348
80	0x3e8c281d	0.27374354
81	0x3ea82843	0.32843217
82	0x3c8126c3	0.015765553
83	0xbdd9f44c	-0.10642299
84	0x3e59e146	0.21277341
85	0xbe57fac5	-0.21091755
86	0x3cf09961	0.029370012
87	0xbe42718e	-0.1898863
88	0xbd4b12f1	-0.04957861
89	0xbeb10f3d	-0.34581938
90	0x3e3cb45c	0.18428177
91	0x3e673cd8	0.22581804
92	0xbd30cbfe	-0.043163292
93	0xbe853081	-0.26013568
94	0x3e5b1ff5	0.2139891
95	0xbdbb3c06	-0.09142308
96	0x3caeee8e	0.021353986
97	0xbeb81638	-0.35954452
98	0x3e1d0560	0.15334082
99	0xbd7fe968	-0.062478453
100	0xbe13dbbd	-0.14439292
101	0xbe14c564	-0.14528424
102	0x3d8ecb8a	0.06972416
103	0x3ebad3cf	0.36489722
104	0x3e69aaa8	0.22819006
105	0xbe4834fc	-0.19551462
106	0x3de4b575	0.11167423
107	0x3ebce449	0.36892918
108	0xbea400cb	-0.32031855
109	0x3e40ae6b	0.18816535
110	0xbd13c92c	-0.036080524
111	0xbe0207ad	-0.1269824
112	0x3e88a995	0.2669188
113	0x3cd05143	0.025429374
114	0x3d2b86da	0.04187665
115	0xbe116c0f	-0.14201377
116	0x3dfaf8c0	0.122544765
117	0xbde3a0d7	-0.11114662
118	0xbd5db91f	-0.054131623
119	0x3bba39ec	0.0056831744
120	0x3dcbe604	0.099559814
121	0x3deb1eb3	0.11480465
122	0xbd526566	-0.051366232
123	0x3e8fea89	0.28108624
124	0x3dd85fe3	0.10565164
125	0xbdad1933	-0.08452072
126	0xbe51ae07	-0.20476542
127	0xbdf17464	-0.11789778
128	0x3e26dca5	0.16295107
129	0xbe5c6bda	-0.21525517
130	0x3db700e4	0.08935717
131	0x3b0bc446	0.0021326705
132	0x3e691447	0.22761641
133	0xbe6efe82	-0.23339275
134	0xbd45b9b9	-0.048272822
135	0xbe9433e2	-0.28945833
136	0x3eabdce1	0.33566955
137	0xbe5c8cbb	-0.2153806
138	0xbeb94e0a	-0.36192352
139	0xbe65ff8b	-0.22460763
140	0xbe89303b	-0.2679461
141	0xbe8da61e	-0.276658
142	0xbdcdecfe	-0.10054968
143	0x3da76a50	0.081745744
144	0xbe965d8a	-0.2936824
145	0x3d5554d7	0.052082863
146	0x3d91779a	0.0710289
147	0x3e88e11a	0.2673424
148	0x3ea50e4d	0.32237473
149	0xbe266e97	-0.16253124
150	0xbd85238b	-0.0650092
151	0xbd07f166	-0.0331892
152	0xbda4dfd9	-0.08050508
153	0xbd65bde6	-0.056089304
154	0xbdeb0d84	-0.11477187
155	0x3d4b40e8	0.049622446
156	0x3d98fdf0	0.0747031
157	0xbd8acbc6	-0.06777148
158	0x3e9b6c87	0.30356237
159	0xbd843160	-0.0645473
160	0x3e43f365	0.19135816
161	0x3dc289b0	0.09498918
162	0xbe20fb18	-0.15720785
163	0x3daa2810	0.083084226
164	0x3e9daa7a	0.30794126
165	0xbd6edc24	-0.05831541
166	0xbe8b5248	-0.27211213
167	0x3e4da909	0.20084013
168	0xbea8f4ef	-0.3299937
169	0xbdd96b17	-0.10616129
170	0x3eb53651	0.35393003
171	0x3cbaa33e	0.022782918
172	0x3c802d75	0.015646676
173	0xbccc4bfa	-0.024938572
174	0xbbf1a523	-0.007374422
175	0xbe3b54c9	-0.18294062
176	0xbe15dc64	-0.14634854
177	0x3e67f6b5	0.22652705
178	0xbe89e9c0	-0.2693615
179	0x3c30fbc3	0.010802212
180	0xbeb5f11d	-0.35535517
181	0x3e8b956b	0.27262434
182	0x3e07a296	0.13245615
183	0xbe9121f3	-0.28346214
184	0x3e3b4ef0	0.18291831
185	0xbdc7e746	-0.09760909
186	0x3c68d38e	0.014210595
187	0xbdcd10e1	-0.10012985
188	0xbe6810f2	-0.22662714
189	0xbeba6874	-0.36407816
190	0x3dc92da1	0.09823156
191	0xbc6b7229	-0.01437048
192	0x3e4a9230	0.19782329
193	0xbe54a00f	-0.20764183
194	0xbe6e18c4	-0.23251635
195	0x3d6a862b	0.05725686
196	0x3d04e24e	0.032442383
197	0xbe9b243a	-0.30301076
198	0x3e96c58c	0.2944759
199	0x3d8af059	0.06784124
200	0x3eaf3d6c	0.3422655
201	0x3dc00850	0.093765855
202	0x3da25ef5	0.07928268
203	0xbc4e563b	-0.012593801
204	0x3e478d01	0.19487382
205	0x3e99f8d5	0.30072656
206	0x3b7167ae	0.003683548
207	0xbd171e75	-0.03689428
208	0x3d667c88	0.056271106
209	0xbeaeee97	-0.34166405
210	0xbd3dc8b7	-0.046333995
211	0x3e22d400	0.15901184
212	0x3d94f631	0.0727352
213	0x3e54b200	0.20771027
214	0x3e77c970	0.24197936
215	0x3e664ebe	0.22490975
216	0xbe163d1a	-0.14671746
217	0x3e3c1904	0.18368918
218	0x3e530bdf	0.20609997
219	0xbeb6715f	-0.3563337
220	0xbeb13211	-0.3460851
221	0xbe658864	-0.2241531
222	0xbde324ba	-0.110909894
223	0x3db9ce60	0.09072566
224	0x3eb02ffe	0.34411615
225	0xbea45d89	-0.32102612
226	0x3e2cbc78	0.1686877
227	0x3dee8109	0.11645705
228	0x3eb2acb2	0.3489738
229	0xbde74089	-0.11291606
230	0x3d7d8471	0.061893884
231	0xbe95f00a	-0.29284698
232	0xbe8ac502	-0.2710343
233	0xbd0b5b62	-0.034022696
234	0xbea3f760	-0.3202467
235	0x3e5cb877	0.21554743
236	0xbcb29428	-0.021799162
237	0x3c874733	0.016513443
238	0x3e3d7fc4	0.1850577
239	0xbbf29cab	-0.00740393
240	0xbd629cc5	-0.05532529
241	0xbdb687ae	-0.089125976
242	0x3e08b389	0.13349737
243	0x3ea8e393	0.32986125
244	0x3d3f6d77	0.046735253
245	0x3db4fa3e	0.088367924
246	0x3d766bdf	0.060161468
247	0xbd707fa1	-0.058715466
248	0xbdde5bbd	-0.108573414
249	0xbd594dba	-0.05305264
250	0xbe1386e1	-0.14406921
251	0x3d47f5d0	0.04881841
252	0xbc2bd562	-0.010487886
253	0xbdb5f2cd	-0.08884201
254	0xbdbb5777	-0.09147542
255	0x3d602e6c	0.05473177

fc2.weight f4 [128, 256]
0	0xbc2a9914	-0.010412473
1	0xbd06afcc	-0.032882497
2	0xbd3c98eb	-0.04604427
3	0x3d30b551	0.043141667
4	0xbcaba489	-0.02095248
5	0xbcec4907	-0.028843416
6	0xbca78e9c	-0.020453744
7	0x3d2df9d9	0.0424746
8	0xbcd259dc	-0.025677614
9	0xbcb2f6cd	-0.0218462
10	0xbc668964	-0.014070842
11	0xbc8dbb6e	-0.017301288
12	0xbb844f20	-0.0040377527
13	0x3ac14b93	0.0014747254
14	0xbc2d55c9	-0.010579535
15	0x3d776f82	0.060409077
16	0x3d5cadbd	0.053876627
17	0xbc8af13e	-0.016960736
18	0x3d3ea00c	0.04653935
19	0xbccdf815	-0.025142709
20	0x3bf469ea	0.007458915
21	0x3d54436b	0.051822107
22	0xbaeced44	-0.0018076082
23	0x3cbf4e4d	0.023352766
24	0xbbac1ddc	-0.005252583
25	0x3ca51e79	0.020156132
26	0xbbcc2fee	-0.0062312996
27	0xbd588de0	-0.052869678
28	0xbc4aadd1	-0.012370543
29	0xbcd70286	-0.02624632
30	0xbc80f536	-0.015741926
31	0x3bf52410	0.0074811056
32	0xbd958f83	-0.07302763
33	0xbd49701e	-0.04917919
34	0xbd52e9e1	-0.051492576
35	0xbd023582	-0.03178931
36	0x3d2b17f9	0.04177091
37	0xbd10d8f0	-0.035363138
38	0xbce075e1	-0.027399959
39	0x3d307d39	0.04308817
40	0xbcd42c63	-0.025900071
41	0x3cfc6ee0	0.030814588
42	0x3c666287	0.014061577
43	0xbd6eb499	-0.0582777
44	0x3c3ac23c	0.011398848
45	0xbd315f76	-0.04330393
46	0x3c4928c4	0.012277786
47	0xbd0a21f9	-0.033723805
48	0x3d254650	0.04035026
49	0x3ce8f6fd	0.028438086
50	0xbd7d7082	-0.061874874
51	0xbd2292da	-0.03969083
52	0x3cc55b6b	0.024091443
53	0xbcbf26eb	-0.023333987
54	0xbc89fe77	-0.016844971
55	0xbcaa5da3	-0.020796603
56	0xbc58ba7e	-0.013228057
57	0x3cfdf108	0.030998722
58	0x3d3d5653	0.046224903
59	0x3d5665ec	0.052343294
60	0x3d5427e0	0.05179584
61	0x3c108dc8	0.008822866
62	0x3ae08730	0.0017130133
63	0x3d0c78e5	0.03429498
64	0x3bd9376c	0.0066289213
65	0xbda713ff	-0.08158111
66	0x3d5996e0	0.0531224
67	0xbd32bce5	-0.043637175
68	0xbd0df433	-0.034656715
69	0xbc95f950	-0.018307358
70	0x3beb14c3	0.007174106
71	0x3d9e1737	0.07719272
72	0xbd027b36	-0.031855784
73	0x3c738565	0.014863347
74	0x3c070bec	0.0082425885
75	0xbd33aff4	-0.043868974
76	0x3bbc3130	0.0057431683
77	0xbcf70c5c	-0.03015726
78	0xbca103a8	-0.019655064
79	0xbba85b88	-0.0051378645
80	0x3d5c7c0b	0.053829234
81	0x3c9dd2b3	0.019265508
82	0xbc06cce9	-0.008227565
83	0xbd55ad0c	-0.052166983
84	0x3bc8aed5	0.006124357
85	0x3d696ede	0.056990497
86	0xbb0f1a04	-0.0021835575
87	0x3c85e898	0.01634626
88	0x3c93420b	0.017975828
89	0xbcd1b9ef	-0.025601355
90	0xbc984247	-0.018586291
91	0x3cace1fc	0.021103851
92	0x3cbd365a	0.023097206
93	0xbd580166	-0.05273571
94	0x3d4eaccd	0.050457764
95	0x3aeef74f	0.0018231663
96	0xbd088a0c	-0.033334777
97	0x3c38be48	0.011275835
98	0x3b3ac4ec	0.0028498722
99	0x3d5008af	0.05078953
100	0xbb347152	-0.0027533364
101	0x3d47c106	0.048768066
102	0xbccbb2d2	-0.024865542
103	0xbd581e72	-0.05276341
104	0xbbf1d240	-0.0073798
105	0x3c16e988	0.009210952
106	0xbca8a6ca	-0.020587344
107	0x3d8e8d34	0.06960526
108	0xbcb939a8	-0.0226105
109	0x3b7a24ea	0.0038168975
110	0xbcbc2dde	-0.02297109
111	0x3cb58119	0.022156285
112	0xbcf5c180	-0.029999495
113	0xbb44804a	-0.0029983693
114	0xbd060052	-0.03271515
115	0xbcaeac95	-0.021322528
116	0xbcd8ea7c	-0.026478998
117	0x3b48929e	0.0030604969
118	0x3c544d27	0.012957848
119	0xbd0f2000	-0.034942627
120	0xbce76f63	-0.028251356
121	0x3d4bda6d	0.049768854
122	0xbc4fa3f1	-0.012673364
123	0xbc3f8f45	-0.011691873
124	0x3cea53f5	0.028604487
125	0x3a3e99f9	0.00072708685
126	0x3d8d580a	0.06901558
127	0xbca7d01d	-0.020484978
128	0xbcba3d6a	-0.022734363
129	0xbc4b3d45	-0.0124047445
130	0x3ce520f6	0.027969819
131	0x3ca24bb3	0.019811487
132	0xbc390270	-0.011292085
133	0x3d3559e0	0.044275165
134	0x3b73409f	0.0037117375
135	0x3d4d369c	0.050100908
136	0x3cac8a5e	0.021062072
137	0xbc49bfbd	-0.01231378
138	0x3c918a0f	0.017766027
139	0xbcc755ce	-0.024332907
140	0x3d25f159	0.04051337
141	0x3ccd29af	0.02504429
142	0xbafbf57f	-0.0019222944
143	0x3cc78e96	0.024359982
144	0x3d219e93	0.03945787
145	0xbd7a274d	-0.061072636
146	0xbd13328a	-0.03593687
147	0x3b917551	0.004439034
148	0xbcefe36f	-0.029283253
149	0xbc4b806d	-0.012420756
150	0xbca9b13d	-0.020714397
151	0x3ca0228a	0.01954772
152	0xbd46762b	-0.048452538
153	0xbc4cef00	-0.012508154
154	0xbc7faf7a	-0.015605802
155	0xbcdae1ef	-0.026719062
156	0x3cbf8048	0.023376599
157	0xbce49722	-0.027904097
158	0xbd3a9e70	-0.045561254
159	0x3cc64da7	0.02420695
160	0x3c829bfa	0.015943516
161	0x3b89356a	0.0041872757
162	0xbc8a1ce6	-0.016859483
163	0x3c05f2c3	0.008175555
164	0xbc43f112	-0.011959331
165	0xbd47a452	-0.048740692
166	0xbc377304	-0.011196855
167	0x3be1f4b8	0.006895628
168	0x3ccc8186	0.024964105
169	0xbd7cc4f4	-0.061711267
170	0x3c5b3f59	0.0133818025
171	0x3d0a8550	0.033818543
172	0x3caabfb1	0.020843359
173	0x3d5b48c7	0.053536203
174	0xbca67637	-0.020320041
175	0xbce6c76e	-0.028171267
176	0xbcf40eb5	-0.02979217
177	0xbc369d76	-0.01114594
178	0xbc22474f	-0.009904697
179	0xbda4dd11	-0.080499776
180	0xbcb2ed32	-0.02184162
181	0x3c8bafc0	0.017051578
182	0xbd9e9b9b	-0.07744523
183	0x3c903b5b	0.017606428
184	0xbd09160b	-0.033468287
185	0x3dcf33ef	0.101173274
186	0x3da8c7c5	0.08241228
187	0x3d05092d	0.032479454
188	0xbd55a4c0	-0.05215907
189	0xbcdf2db5	-0.027243474
190	0xbaf1d3b9	-0.0018449939
191	0x3ccf2838	0.025287732
192	0x3c18a64b	0.009316991
193	0x3ca76a4f	0.020436434
194	0xbd33153b	-0.04372142
195	0x3882a160	6.2289415e-05
196	0xbc994b18	-0.018712565
197	0xbcb6f9df	-0.022335945
198	0xbd32274f	-0.04349452
199	0x3c8fe1f6	0.017563801
200	0xbd439182	-0.04774619
201	0xbd2dc891	-0.042427603
202	0xbcaf64e6	-0.021410417
203	0xbc832f89	-0.016013877
204	0x3c494ce4	0.012286399
205	0x3d12cbd6	0.035838924
206	0xbc87e665	-0.016589353
207	0x3c8edbfa	0.017438877
208	0x3d4e3f98	0.050353616
209	0xbcdc8db1	-0.026923032
210	0x3d2267d3	0.039649796
211	0xbc8def58	-0.017326042
212	0xbcc2f1ad	-0.02379688
213	0x3d541071	0.051773492
214	0xbd533a9c	-0.051569566
215	0xbca57c64	-0.020200916
216	0xbcb1db46	-0.021711003
217	0xbd287b02	-0.041132934
218	0x3a33e525	0.00068624533
219	0xbb9e498d	-0.0048305453
220	0x3c0c2825	0.008554493
221	0x3d2651be	0.0406053
222	0xbc8bccb5	-0.017065385
223	0x3cb97570	0.022639006
224	0x3ab4aded	0.0013784744
225	0x3cf36bbe	0.029714461
226	0xbcc15823	-0.023601597
227	0xbc6ab1f1	-0.014324651
228	0xbcc80f1c	-0.024421267
229	0xbc167e82	-0.009185435
230	0x3d904e0e	0.07046138
231	0xbd14cf96	-0.036330782
232	0x3c47f6f2	0.012204872
233	0xbc0964b4	-0.008385826
234	0xbd260b9c	-0.040538415
235	0xbce61845	-0.028087744
236	0xbccc25eb	-0.024920424
237	0xbcf19b07	-0.029492868
238	0xbca6309c	-0.02028685
239	0xbd423af5	-0.047419507
240	0x3d13a64c	0.036047265
241	0xbc0d4155	-0.008621533
242	0x3d1a6f1e	0.037703626
243	0xbd3f2659	-0.04666743
244	0xbc764029	-0.015029945
245	0xbc7c98b8	-0.01541727
246	0xbcdf0486	-0.027223837
247	0x3d3a85c7	0.045537736
248	0xbc28af4c	-0.0102957
249	0xbc877c8b	-0.016538879
250	0xbd66cfad	-0.0563504
251	0x3d20e742	0.039283045
252	0xbd64dffd	-0.055877674
253	0x3cde2af6	0.027120095
254	0x3d1351cc	0.03596668
255	0xbd3a24fe	-0.045445435

fc2.bias f4 [128]
0	0x3d278e65	0.040907282
1	0x3c88494c	0.016636513
2	0x3d628a9f	0.05530798
3	0xbd45b985	-0.04827263
4	0x3911f110	0.0001391808
5	0xbcf428df	-0.029804645
6	0xbc855760	-0.016277015
7	0xbcb24976	-0.021763545
8	0x3adcb961	0.0016839915
9	0xbcc41dc7	-0.02393998
10	0xbd0ee851	-0.034889523
11	0xbd34d330	-0.044146717
12	0xbd1e922a	-0.03871361
13	0x3d30471b	0.04303656
14	0x3d8c1eae	0.06841789
15	0x3d82fccc	0.063958734
16	0xbd7b9ece	-0.061430745
17	0x3d8ce08f	0.06878769
18	0x3d10837d	0.035281647
19	0xbd1c929c	-0.038225755
20	0xbca1ea06	-0.019764911
21	0xbce480ad	-0.027893389
22	0x3d48c9ed	0.049020696
23	0xbd3d5de4	-0.04623212
24	0xbd3d9672	-0.046286054
25	0xbc97cdcb	-0.018530747
26	0x3d0ae606	0.033910774
27	0x3be9570d	0.007120973
28	0xbd2dd2a9	-0.04243723
29	0xbd034733	-0.032050323
30	0x3bc357a8	0.005961377
31	0xbc19b8ce	-0.00938244
32	0x3d5a6e46	0.05332782
33	0xbc3209a7	-0.010866559
34	0xbd2bff20	-0.041991353
35	0x3d522ca7	0.051312115
36	0x3c1fa40d	0.009743703
37	0xbd4aecf9	-0.0495424
38	0x3bfd23ca	0.0077252137
39	0x3d1a87cb	0.03772716
40	0x3d54d53f	0.05196118
41	0xbd76e880	-0.060280323
42	0xbcd3ef55	-0.025870958
43	0xbc0583e3	-0.00814912
44	0x3cfce69c	0.030871682
45	0xbca6e3b2	-0.020372245
46	0xbb9e0a4a	-0.004823004
47	0xbc96ad6b	-0.018393239
48	0xbd3b0d90	-0.04566723
49	0xbcdb3123	-0.026756829
50	0xbcc02d0f	-0.023458986
51	0x3d34f47f	0.044178482
52	0xbd5df58f	-0.05418926
53	0xbcbdd0a7	-0.023170782
54	0x3d642b45	0.055705328
55	0x3d2f2651	0.04276115
56	0x3d136992	0.03598935
57	0x3d468b68	0.048472792
58	0xbba9a280	-0.005176842
59	0xbcca35aa	-0.024683792
60	0x3cfbfa52	0.03075901
61	0x3cade787	0.021228565
62	0x3c2bf36e	0.01049505
63	0x3cf7d435	0.030252555
64	0x3d72ff5a	0.059325553
65	0xbc8f5a22	-0.017499033
66	0xbd1b4d25	-0.037915368
67	0xbd281d10	-0.04104334
68	0x3c73a0df	0.014869898
69	0xbd2eb348	-0.042651445
70	0xbc873f28	-0.016509607
71	0xbc298286	-0.010346061
72	0x3d3eae77	0.0465531
73	0x3d43fc16	0.04784783
74	0xbd209b5a	-0.039210655
75	0x3d1f008e	0.03881889
76	0xbd01e7d7	-0.03171524
77	0xbb94bfbf	-0.0045394595
78	0xbb7d17a4	-0.0038618827
79	0x3d6082c6	0.054812215
80	0xbc028ee9	-0.007968643
81	0x3d0923e2	0.033481486
82	0x3caae35e	0.02086037
83	0x3b403af0	0.0029332004
84	0xbd2ad21f	-0.041704293
85	0x3d4d4dfa	0.050123192
86	0x3c0dc463	0.008652779
87	0x3d35ebb2	0.04441423
88	0xbb6e7cb0	-0.0036390238
89	0x3c8ae8b4	0.016956665
90	0xbd0017aa	-0.031272568
91	0xbcd4e561	-0.025988283
92	0x3aa7fbe8	0.0012816163
93	0x3c2b553b	0.010457332
94	0xbcdc2c12	-0.026876483
95	0xbc68b2ff	-0.014202832
96	0x398f29da	0.00027306267
97	0x3c1035fd	0.008801934
98	0x3c6cd6da	0.0144555215
99	0xbb944f0a	-0.0045260238
100	0x3c970e95	0.01843957
101	0x3c6cd7a5	0.014455711
102	0x3beb6e80	0.0071848035
103	0x3be4d843	0.006983788
104	0xbcb16327	-0.021653725
105	0x3d1fc7f1	0.03900904
106	0x3d2406bc	0.040045485
107	0xbcda51e9	-0.026650386
108	0xbd30388a	-0.04302267
109	0xbb5692fa	-0.0032741413
110	0x3cef058f	0.029177455
111	0x3d76365c	0.060110435
112	0x3c0717b2	0.0082453955
113	0xbd486078	-0.048920125
114	0x3d5c82a3	0.053835522
115	0xbbb41f2b	-0.0054968796
116	0xbbf857f8	-0.007578846
117	0xbca19091	-0.019722255
118	0xbd280eea	-0.04102985
119	0xbc11ba8f	-0.008894577
120	0x3cc4df46	0.024032246
121	0xbcff82e8	-0.03119035
122	0x3c80a504	0.015703686
123	0xbbaec1e5	-0.0053331726
124	0x3d0c6452	0.03427536
125	0xbc7e1f00	-0.015510321
126	0x3c885a70	0.016644686
127	0x3b42c8ac	0.002972166

fc3.weight f4 [128, 128]
0	0x3d9fc0e4	0.07800463
1	0xbcb0fc97	-0.02160482
2	0xbd9123b6	-0.070868894
3	0x3cb50d87	0.022101177
4	0xbd7a864a	-0.061163224
5	0xbd3d1269	-0.046160135
6	0xbd8e2a5b	-0.069416724
7	0xbd6a3d0e	-0.057187133
8	0xbcd2f4c7	-0.025751485
9	0xbd38850b	-0.045048755
10	0xbd41024a	-0.047121324
11	0x3ceaeda2	0.028677765
12	0xbb4dad94	-0.0031383978
13	0xbd854304	-0.06506923
14	0x3d866369	0.0656193
15	0xbda1296c	-0.07869229
16	0xbbaaea56	-0.0052159233
17	0xbd825a35	-0.06364862
18	0xbda084c3	-0.07837822
19	0x3c458800	0.012056351
20	0xbc9a4806	-0.018833172
21	0x3d92364b	0.07139262
22	0x3d8b7d67	0.06811028
23	0x3d44df27	0.048064377
24	0x3d0666b6	0.032812797
25	0xbce46aee	-0.02788302
26	0x3da18aaa	0.07887776
27	0xbd76071c	-0.060065374
28	0x3c19fcac	0.009398621
29	0x3d4bb015	0.04972847
30	0x3d81c189	0.06335742
31	0x3d89c111	0.067262776
32	0x3d9fbd8f	0.07799827
33	0xb9ddba24	-0.0004229109
34	0xbd11120b	-0.035417598
35	0xbd950131	-0.07275618
36	0xbd23c346	-0.03998115
37	0xbd9433fd	-0.072364785
38	0xbda7b93c	-0.081896275
39	0xbcc97de3	-0.02459616
40	0xbd9f7907	-0.07786756
41	0xbd33faad	-0.043940235
42	0xbd926e22	-0.071499124
43	0xbda02d88	-0.078211844
44	0xbcd013c4	-0.02540005
45	0xbcf418f0	-0.029797047
46	0xbd015720	-0.03157723
47	0x3c0547fd	0.008134839
48	0xbca456b3	-0.020060873
49	0xbd97fe72	-0.074215785
50	0xbc666c80	-0.014063954
51	0xbc39cd0a	-0.011340389
52	0x3cfdaea0	0.030967057
53	0xbd3d5740	-0.046225786
54	0xbc8bddf6	-0.017073613
55	0xbd5df802	-0.054191597
56	0x3bf8720d	0.0075819553
57	0x3c33b1b4	0.010967661
58	0xbd5a2ae7	-0.05326357
59	0xba11373b	-0.0005539541
60	0x3cb3df04	0.021956928
61	0xbd7102f0	-0.058840692
62	0x3c99758a	0.018732805
63	0xbd0cb890	-0.0343557
64	0xbd2a831c	-0.041628942
65	0x3d8a8467	0.06763535
66	0x3d833a1d	0.064075686
67	0xbc74110a	-0.014896641
68	0x3cec71ee	0.02886292
69	0xbd94a1fa	-0.07257457
70	0x39e6ec2e	0.00044044986
71	0x3d986782	0.074416175
72	0xbd89086b	-0.06691059
73	0x3cde0926	0.027103972
74	0x3c9bb45e	0.019006904
75	0xbc9a0d1d	-0.018805081
76	0x3cc40500	0.023928165
77	0x3d52cbc0	0.051463842
78	0xbd33b2ec	-0.043871805
79	0xbbaaec5b	-0.005216164
80	0xbd50df97	-0.050994482
81	0x3a0ae78f	0.0005298787
82	0x3c5e15b2	0.013554977
83	0x3d9c9f77	0.07647603
84	0x3ccf2587	0.02528645
85	0xbda50a35	-0.080585875
86	0x3cec821a	0.028870631
87	0x3c489e8d	0.012244833
88	0x3d9ad137	0.07559436
89	0x3b81625d	0.0039484934
90	0xbba3abeb	-0.0049948595
91	0x3d21a99a	0.039468385
92	0xbd10f025	-0.03538527
93	0x3d4dee5b	0.05027614
94	0x3d952416	0.072822735
95	0xbd0e90c0	-0.034806013
96	0x3b40c4a6	0.0029414087
97	0x3a09a531	0.00052507507
98	0xbafafe0d	-0.0019149199
99	0xbd247748	-0.040152818
100	0xbd0ea47d	-0.034824837
101	0xbddc4bf8	-0.107566774
102	0x3d03b619	0.032156084
103	0xbd66410a	-0.05621437
104	0x3cbe3fe5	0.023223827
105	0x3d8f7631	0.07004965
106	0xbd8a65f5	-0.06757728
107	0xbd8f8fb3	-0.0700983
108	0x3cab2565	0.020891855
109	0xbd281b35	-0.04104157
110	0xbd975b8b	-0.07390507
111	0x3d278f85	0.040908355
112	0x3cbd31d2	0.023095045
113	0xbb63f338	-0.003478242
114	0x3da2019b	0.079104625
115	0x3daf508c	0.08560285
116	0x3c390fed	0.011295301
117	0xbb9fea93	-0.0048802583
118	0xbc30bca2	-0.010787161
119	0x3c61e0d3	0.013786512
120	0xbc0b4fce	-0.008502914
121	0xbd290da7	-0.041272786
122	0xbd8f1cf4	-0.06987944
123	0x3a2f54b2	0.0006688341
124	0x3c3d0994	0.011537928
125	0x3d683b96	0.05669745
126	0x3d828b78	0.06374258
127	0x3d0dc37b	0.034610253
128	0x3c49f36a	0.012326101
129	0x3c871965	0.016491601
130	0xbd12289b	-0.035683256
131	0xbc1d57ed	-0.009603483
132	0xbc91c65d	-0.017794782
133	0xbd7b53c0	-0.061359167
134	0x3d7a8abe	0.06116747
135	0xbd33b0aa	-0.04386965
136	0xbd40b039	-0.04704306
137	0x3cefd87d	0.029278034
138	0xbc9c5741	-0.019084575
139	0xbd9d4b98	-0.07680434
140	0xbd0a5105	-0.033768672
141	0xbd4e60d0	-0.050385296
142	0xbcf76d5f	-0.03020352
143	0xbca83bcb	-0.020536324
144	0xbba9b6fd	-0.0051792846
145	0x3d77c0bb	0.060486536
146	0xbc2bc2d0	-0.010483459
147	0xbcd29228	-0.025704458
148	0xbd29d3a7	-0.041461613
149	0x3cc69a71	0.024243565
150	0xbbc59e69	-0.006030847
151	0x3d91c0b6	0.07116835
152	0x3c6749ad	0.014116687
153	0xbcbba36d	-0.022905076
154	0xbd8f8dba	-0.07009454
155	0x3d8313a3	0.0640023
156	0x3d313d95	0.04327162
157	0x3c3a0683	0.011354092
158	0x3d88eb5f	0.066855185
159	0xbd51c641	-0.05121446
160	0xbc5ada12	-0.013357656
161	0xbda776f3	-0.08176985
162	0x3d970e67	0.07375794
163	0xbcf238c1	-0.029568078
164	0xbce8f066	-0.028434943
165	0x3c35ce00	0.0110964775
166	0x3c2faf2a	0.010722915
167	0xbbd8db72	-0.006617957
168	0x3d90c3c5	0.0706859
169	0xbcfb0bd2	-0.030645285
170	0xbc165b6a	-0.009177068
171	0x3d6b01f9	0.05737493
172	0x3d199d55	0.03750356
173	0x3d5b920a	0.05360607
174	0xbd8e123d	-0.069370724
175	0xbcbde362	-0.023179714
176	0x3992e0d9	0.00028014815
177	0x3cd5c21a	0.026093531
178	0xbcda3db8	-0.026640758
179	0x3da2b6e1	0.07945038
180	0x3d8d9ea6	0.069150254
181	0x3d775eb5	0.060393054
182	0x3d6c0bdf	0.05762851
183	0x3cf23084	0.02956415
184	0x3da654db	0.08121654
185	0x3d804edc	0.06265041
186	0xbd30eaba	-0.043192603
187	0x3b9989eb	0.0046856306
188	0xbb0631db	-0.0020476494
189	0xbd46a914	-0.04850109
190	0xbd1ee535	-0.038792808
191	0xbd05c283	-0.032656204
192	0x3ce1a1c1	0.02754295
193	0xbd68591d	-0.05672561
194	0x3cad49c0	0.02115333
195	0x3da31bac	0.07964262
196	0x3d2dad14	0.04240139
197	0x3d13565e	0.035971038
198	0x3cd247bd	0.025668973
199	0x3b19d2d4	0.002347161
200	0x3d6509b4	0.055917457
201	0xbcd352a5	-0.025796244
202	0xbcf05726	-0.02933843
203	0xbcfe6a27	-0.031056477
204	0x3da2f21e	0.079563364
205	0x3d9bbd0c	0.07604417
206	0xbce13a43	-0.027493602
207	0x3cc91494	0.024545945
208	0x3da96a61	0.08272243
209	0x3cbda17f	0.023148296
210	0xbced6912	-0.028980765
211	0x3cee0d38	0.029059038
212	0xbd4cb0c6	-0.04997327
213	0x3d0953ca	0.033527173
214	0x3d08437f	0.033267494
215	0x3d5cd441	0.05391336
216	0x3d98cca7	0.07460909
217	0xbd02c675	-0.031927545
218	0x3ca3bde8	0.019988015
219	0x3c072294	0.00824799
220	0xbceec89b	-0.02914839
221	0x3d7fff24	0.06249918
222	0xbc35546c	-0.011067491
223	0x3d9a3c37	0.07531016
224	0x3d331fe7	0.043731596
225	0x3c9b5826	0.01896293
226	0xbce4b06b	-0.027916154
227	0xbc2b5abb	-0.010458644
228	0x3cd95fb5	0.026534894
229	0x3d8a7479	0.06760497
230	0x3d325d15	0.0435458
231	0x3d827ee9	0.063718624
232	0x3da322af	0.079656
233	0xbb93b8a4	-0.004508095
234	0xbd440c8a	-0.04786352
235	0x3d9118e1	0.070848234
236	0xbd8cce7f	-0.068753235
237	0xbd3193bd	-0.043353785
238	0x3d45c69a	0.048285104
239	0xbcc7c395	-0.024385253
240	0xbc19ebf0	-0.009394631
241	0xbd741368	-0.05958882
242	0xbd8d3129	-0.06894142
243	0xbce4ebcd	-0.02794447
244	0xba3b8f92	-0.00071548775
245	0xbcf43fd5	-0.029815594
246	0x3c570a24	0.013124976
247	0x3d062eb3	0.03275938
248	0xbd7afd13	-0.061276507
249	0xbd4aa53e	-0.049473993
250	0xbcf8bc2b	-0.030363163
251	0x3d499703	0.04921628
252	0x3c12b2cc	0.008953761
253	0x3d46b5b7	0.04851314
254	0x3d0133cf	0.03154355
255	0xbd8e73ff	-0.06955718

fc3.bias f4 [128]
0	0xbbf835e1	-0.0075747822
1	0x3d9ffa42	0.07811405
2	0xbc3ccd04	-0.011523489
3	0xbd9b1e3b	-0.075741254
4	0x3dd4b4b8	0.10386032
5	0x3dde5049	0.10855157
6	0x3c4518ff	0.012029885
7	0xbd8a1f9f	-0.067443125
8	0x3ca968d5	0.02067987
9	0xbd351809	-0.044212375
10	0x3cffb65a	0.031214882
11	0xbd0de6b7	-0.034643855
12	0xbd390a93	-0.0451761
13	0x3cf34b45	0.029698977
14	0x3d093cea	0.033505358
15	0xbd280e67	-0.04102936
16	0xbd02e236	-0.031954013
17	0x3c171b75	0.009222855
18	0xbb965137	-0.0045873183
19	0x3d06cafd	0.03290843
20	0x3e78f168	0.24310839
21	0x3d82ea91	0.06392396
22	0x3ce5cfa9	0.028053122
23	0xbd427b64	-0.047480956
24	0xbd5b2bea	-0.053508677
25	0xbcb471e7	-0.02202697
26	0x3c8e8cdf	0.017401157
27	0xbd71b203	-0.059007656
28	0xbd35f1c3	-0.044420015
29	0x3d787991	0.06066281
30	0x3c5d037c	0.0134896
31	0xbdba1833	-0.09086647
32	0xb968268a	-0.00022139601
33	0x3dbb3c2c	0.09142336
34	0x3d3b487c	0.045723423
35	0x3d72eb19	0.059306238
36	0xbc65f3e1	-0.014035196
37	0x3d49868c	0.04920058
38	0x3dd8c2ce	0.10584031
39	0x3db09115	0.08621422
40	0x3cba1433	0.02271471
41	0xbd96b845	-0.073593654
42	0x3ea4a0a8	0.3215382
43	0xbd2dbb42	-0.04241491
44	0x3d492a4c	0.049112603
45	0xbdaab3f6	-0.08335106
46	0x3ac47569	0.0014988604
47	0xbcccb781	-0.024989845
48	0x3dc82c8d	0.097741224
49	0x3d5ed87c	0.054405674
50	0x3da453f0	0.08023822
51	0xbd6299bb	-0.05532239
52	0x3d6ef48a	0.05833868
53	0x3c982c18	0.018575713
54	0x3c84237c	0.016130202
55	0xbd49ccb0	-0.04926747
56	0xbd436d2b	-0.047711533
57	0x3d30f930	0.043206394
58	0xbcbda58a	-0.023150224
59	0xbd917122	-0.071016565
60	0x3d302e5b	0.043012958
61	0x3cd6da26	0.026227068
62	0x3d28c60e	0.041204505
63	0x3d49e2a7	0.04928842
64	0x3dcdfde9	0.10058195
65	0x3e055ca9	0.13023628
66	0xbd04a383	-0.0323825
67	0xbce6b87e	-0.028164145
68	0xbb3be1fe	-0.0028668637
69	0x3c4d065a	0.012513721
70	0xbd41a922	-0.04728044
71	0x3d5a0839	0.053230498
72	0x3e045354	0.12922412
73	0x3d0108a8	0.031502396
74	0xbc6e5383	-0.014546278
75	0xbc6e38e0	-0.014539927
76	0xbd261122	-0.040543683
77	0xbd99ae0b	-0.07503899
78	0xbd827ee1	-0.063718565
79	0xbd1db4cb	-0.038502496
80	0xbda1ab53	-0.078940056
81	0x3d865e7c	0.0656099
82	0x3d3c3068	0.0459446
83	0x3ed899f1	0.42304948
84	0x3dca9bed	0.09893022
85	0xbd7bfee9	-0.0615224
86	0x3c5cca9f	0.013476043
87	0x3dae6c7a	0.08516784
88	0xbd670b43	-0.056407224
89	0x3c825cc6	0.015913378
90	0xbd26f287	-0.040758636
91	0xbd4b9426	-0.049701832
92	0xbd929ac2	-0.07158424
93	0x3c994d26	0.018713545
94	0xbdab71cd	-0.08371315
95	0xbdc0e184	-0.09418014
96	0x3ec4e163	0.38453206
97	0xbc51729a	-0.012783671
98	0x3d9fcd1c	0.078027934
99	0x3ce0c55b	0.027437856
100	0x3e621d9a	0.22081605
101	0x3d8e91d2	0.06961407
102	0xbcfc0890	-0.030765802
103	0xbd0bfbd3	-0.034175705
104	0x3e53d0bb	0.20685093
105	0xbd3cc8d9	-0.04608998
106	0xbd3edfa8	-0.046600014
107	0xbd8c3a64	-0.06847075
108	0xbd8e511f	-0.06949066
109	0x3cd84447	0.026399745
110	0xb91c71b0	-0.00014919671
111	0xbd7d95ce	-0.061910443
112	0x3b88bae6	0.0041726707
113	0x3cffcdde	0.031226095
114	0xbd69e07d	-0.057098854
115	0xbd814707	-0.063123755
116	0x3cf2a7c1	0.029621007
117	0xbd970a33	-0.07374992
118	0x3da1e038	0.079040945
119	0xbd69517e	-0.056962483
120	0x3c417c01	0.01180935
121	0x3cd74818	0.026279494
122	0x3d98eaaf	0.07466637
123	0x3ed05644	0.40690815
124	0xbd5e5b6e	-0.054286413
125	0xbe293bfd	-0.1652679
126	0x3d43bf24	0.047789708
127	0x3d860b7d	0.0654516

fc4.weight f4 [6, 128]
0	0x3a68f413	0.00088864675
1	0x3d9d70c2	0.076875225
2	0xbc7cccbe	-0.015429674
3	0xbd4a674d	-0.04941492
4	0x3be7c4db	0.0070730275
5	0x3d7355f3	0.05940814
6	0x3c842e14	0.016135253
7	0x3d859e9b	0.06524392
8	0x3c3665a5	0.011132632
9	0x3da8f3dd	0.08249638
10	0xbb9708d9	-0.004609209
11	0xbcc95152	-0.02457491
12	0x3c192881	0.009348036
13	0x3d9cb188	0.07651049
14	0xbbc4b691	-0.006003209
15	0x3d6cd010	0.05781561
16	0xbd46dd29	-0.04855076
17	0xbd1e5b5d	-0.03866135
18	0x3bb79497	0.00560243
19	0xbcee90bc	-0.02912175
20	0x3e0c95bd	0.13728996
21	0x3d5bbbc1	0.053645853
22	0x3cba69a7	0.022755457
23	0x3d295bcb	0.041347306
24	0xbd40c14b	-0.04705934
25	0xbc1231c2	-0.008922996
26	0x3d913f9d	0.070922114
27	0xbd7dc6bd	-0.06195711
28	0x3c9ff8f1	0.019527884
29	0x3ba83d40	0.0051342547
30	0x3cead379	0.028665291
31	0xbcbc8ce5	-0.023016402
32	0xbc25d98f	-0.010122671
33	0x3c9e67d7	0.019336624
34	0x3c93bb6d	0.018033708
35	0xbcc1dc75	-0.023664692
36	0x3d73c20e	0.059511237
37	0xbcab38ce	-0.02090111
38	0x3cae6ac7	0.02129115
39	0x3da10266	0.078617856
40	0x3d8d5781	0.06901456
41	0xbd21b4a3	-0.03947891
42	0x3eb0cd0c	0.34531438
43	0x3d6abfc4	0.05731179
44	0x3d623adf	0.055231925
45	0xbc7d868a	-0.015473971
46	0xbd80b80b	-0.062851034
47	0x3c77d3fe	0.0151262265
48	0x3d9c983d	0.07646225
49	0x3d700e3b	0.05860732
50	0x3d25b3b2	0.040454574
51	0xbd1ac56d	-0.037785936
52	0x3cb9b97e	0.022671457
53	0x3dabe5d2	0.08393444
54	0x3c53908a	0.012912879
55	0x3d5f27b1	0.054481212
56	0xbcb7155b	-0.02234905
57	0x3d62104f	0.055191334
58	0x3d89cbc0	0.06728315
59	0x3daaf976	0.08348362
60	0x3d90f591	0.07078088
61	0x3d73b8b9	0.059502337
62	0xbd222a81	-0.039591316
63	0xbd063d18	-0.032773107
64	0x3d54c63a	0.051946856
65	0x3cfecb2f	0.031102745
66	0x3d31d913	0.04341991
67	0xbd20f707	-0.039298084
68	0xbd08024e	-0.033205323
69	0xbc9b901c	-0.018989615
70	0x3d52ddfd	0.051481236
71	0xbd893e1b	-0.06701299
72	0xbcbc3472	-0.022974227
73	0xbd15974e	-0.03652125
74	0x3d63f160	0.055650115
75	0xbca6d4a9	-0.020365076
76	0xbd52ce89	-0.0514665
77	0x3d09cb03	0.033640873
78	0xbc32f3c2	-0.010922374
79	0xbd7b4d97	-0.061353292
80	0x3ccfd983	0.025372272
81	0x3c9832ed	0.01857897
82	0xbc8a143a	-0.016855348
83	0x3e873ac1	0.26412013
84	0x3da35c5b	0.079766
85	0x3db799c5	0.08964876
86	0x3d33927b	0.043840867
87	0x3b9d0815	0.004792223
88	0xbd386cdc	-0.04502569
89	0xbbf5d186	-0.007501784
90	0x3bf3fe5a	0.0074460926
91	0x3be74588	0.0070578493
92	0x3da1f823	0.079086564
93	0xbd2f836f	-0.042849954
94	0xbc8ec764	-0.017429061
95	0xbc7ce634	-0.015435744
96	0x3e3bc316	0.18336138
97	0x3da8b9d8	0.08238572
98	0x3dacfe9a	0.08446999
99	0xbd5bc6da	-0.053656437
100	0x3d1e0271	0.038576547
101	0x3d2939bd	0.04131483
102	0x3d9fce7b	0.07803055
103	0xbbed4e83	-0.0072420253
104	0x3de41fe3	0.111388944
105	0xbc6ca854	-0.014444429
106	0xbcecb954	-0.028896965
107	0xbc314667	-0.010820008
108	0x3d8002f4	0.06250563
109	0x3d9e5286	0.07730584
110	0xbca1c180	-0.019745588
111	0xbd47f642	-0.048818834
112	0xbd1ac9fc	-0.037790284
113	0xbd4b1d3c	-0.049588427
114	0xbd8e99d8	-0.06962937
115	0xbd97c5ab	-0.07410749
116	0xbd694396	-0.05694922
117	0x3d5edfad	0.054412533
118	0x3d110ca4	0.035412446
119	0xbd6e7565	-0.058217425
120	0x3d183304	0.037158027
121	0xbd5f8a91	-0.054575507
122	0x3c8eca37	0.017430408
123	0x3edf3d65	0.43601528
124	0x3b495998	0.0030723568
125	0xbde21199	-0.11038513
126	0xbcd591b0	-0.026070446
127	0x3d204acf	0.039133843
128	0x3d167b95	0.03673895
129	0xbcb07ab0	-0.021542877
130	0x3bc53665	0.006018447
131	0x3cbbd1aa	0.022927124
132	0xbcf6be2a	-0.030119974
133	0x3bc56922	0.0060244957
134	0xbc18892a	-0.009310046
135	0xbd5112b3	-0.051043224
136	0x3d630d8d	0.055432845
137	0xbc81c0c3	-0.015838986
138	0x3cc9cc05	0.024633417
139	0x3daaa639	0.08332486
140	0x3d9ad147	0.07559448
141	0xbd695c11	-0.056972567
142	0xbce46ede	-0.027884897
143	0xbccc01c9	-0.024903195
144	0xbc8a5058	-0.016884014
145	0xb9bf96be	-0.0003654267
146	0xbd1be7e1	-0.038062934
147	0x3c06d4c9	0.008229443
148	0xbbcb9b2d	-0.0062135668
149	0x3957b350	0.00020570797
150	0x3c92b5c1	0.017908933
151	0x3c0036b2	0.00782554
152	0xbd4619f4	-0.048364595
153	0xbce3abfe	-0.027791973
154	0xbcd96651	-0.026538046
155	0xbd59ac64	-0.05314292
156	0x3d3a7307	0.045519855
157	0x3c63e664	0.01390991
158	0x3c6f3913	0.01460101
159	0x3a873dcf	0.0010318103
160	0x3c8802e9	0.01660295
161	0xbb8a5c61	-0.004222438
162	0x3c0251bd	0.007954058
163	0x3c486c3d	0.012232837
164	0x3d0f36f2	0.03496451
165	0x3b365a10	0.0027824678
166	0x3b4bb9bc	0.0031086048
167	0x3d811e95	0.06304661
168	0x3c51fbaa	0.012816349
169	0x3d5f233f	0.054476973
170	0x3b051673	0.002030757
171	0xbc93eba4	-0.018056698
172	0x3cbe5794	0.02323512
173	0x3d1e74ae	0.038685493
174	0xbbd78fb9	-0.0065784124
175	0xb8c27fa7	-9.274418e-05
176	0xbd1e3d39	-0.038632605
177	0xbd4a3672	-0.04936833
178	0xbd8eab85	-0.069663085
179	0x3d8fc788	0.070204794
180	0xbcea655e	-0.028612789
181	0x3be0f5c3	0.0068652346
182	0xbbba5c2e	-0.005687258
183	0x3d554919	0.052071664
184	0xbbece65e	-0.0072296103
185	0xbd2bc3f1	-0.04193491
186	0xb997883f	-0.00028902476
187	0xbd11e5a0	-0.035619378
188	0x3b83f231	0.004026674
189	0xbcee56a2	-0.029094044
190	0x3d0410a2	0.032242425
191	0x3cbe16c6	0.023204219
192	0x3c0c88db	0.008577551
193	0xbc4b05cb	-0.012391518
194	0x3ced7746	0.028987538
195	0x3d3474e4	0.044056788
196	0x3d9e22b5	0.077214636
197	0x3d311027	0.043228295
198	0xbcfa2734	-0.030536272
199	0x3c4bb34b	0.0124328835
200	0x3c367f7b	0.011138792
201	0x3cffe9de	0.031239446
202	0x3d751dae	0.059842758
203	0x3c8237fc	0.015895836
204	0xbc759802	-0.014989855
205	0x3b8cb18d	0.0042936266
206	0x3b00bb68	0.0019642953
207	0x3cfb9904	0.030712612
208	0xbd3c9a23	-0.046045434
209	0xbd79006f	-0.06079143
210	0xbccd0e1e	-0.025031146
211	0x3c9c3428	0.019067839
212	0x3d1e19f5	0.038598973
213	0xbc33f4ed	-0.010983688
214	0xbba357da	-0.004984838
215	0x3d3d3be8	0.04619971
216	0x3d18b19d	0.03727876
217	0xbc89aa0b	-0.016804716
218	0x3cbd3c40	0.023100019
219	0x3d7c806e	0.061645918
220	0x3d7f54c6	0.062336706
221	0xbcdb8dfe	-0.026801106
222	0x3ce3ca26	0.027806353
223	0x3d08ba3e	0.03338074
224	0x3ca6709b	0.020317366
225	0x3b745b42	0.003728584
226	0x3b9482b8	0.0045321845
227	0xbc3a6b91	-0.011378185
228	0x3cd90d3c	0.026495568
229	0xbd33c3cc	-0.0438879
230	0x3c2caaef	0.010538801
231	0xbcf9a785	-0.030475387
232	0xbc90e274	-0.017686106
233	0xbcc33fef	-0.023834197
234	0xbd17b4de	-0.037037723
235	0xbd4f2b8d	-0.050578643
236	0x3c9bd07d	0.019020313
237	0xbd0d1f70	-0.03445381
238	0x3d723047	0.059128072
239	0xbbc18709	-0.00590599
240	0xbb98dae6	-0.0046647666
241	0xbc908057	-0.017639322
242	0xbd1268d9	-0.03574452
243	0x3c3ef386	0.01165474
244	0xbc4dcc37	-0.012560896
245	0x3d786ca6	0.06065049
246	0xbc5c76bd	-0.013456044
247	0xbc42325f	-0.01185283
248	0x3d8c8e18	0.0686304
249	0x3d3be29c	0.04587041
250	0x3bf956cf	0.0076092253
251	0xbbec66d9	-0.007214409
252	0xbd391b41	-0.045192007
253	0xbcd0c83a	-0.0254861
254	0x3c01f0f1	0.00793098
255	0x3cf3acab	0.02974542

fc4.bias f4 [6]
0	0x3d41e035	0.04733296
1	0x3d76be16	0.060239874
2	0xbb8d5d32	-0.0043140883
3	0x3c92bb00	0.017911434
4	0x3c8fca27	0.017552448
5	0x3cc1679c	0.023608975
