megasena_model_3.pth (torch, 211116 bytes, 8 tensors)

fc1.weight f4 [256, 6]
00000000: 4d2c 2d3e 9dc9 1e3e 6af1 9b3e e9da 573e
00000010: 4df5 86be f834 6dbe 7674 a03d ac6e dabd
00000020: 8e0d 9cbe df04 b13e e362 b03e e66f 2fbb
00000030: db71 bc3d 771f a0be 681e 11be 95c0 853e
00000040: 00ae 823e 2fba 94bd aa41 313e e34e 16be
00000050: 0621 8cbb 9b7d 01bd 7919 bd3e 51fd ea3e
00000060: e716 d53d 44b4 3bbe 680a 8dbd efdd 93be
00000070: 7cb2 143e 7298 2e3e eed3 11be e01f 84be
00000080: e951 ea3d c4bd 01be 5ce8 a43d 19b7 26bd
00000090: f8e8 183c 0536 a0be bb68 a4be de83 65be
000000a0: 8513 353e 5cdc 5bbd 1871 693e 7ceb b5be
000000b0: 1db2 543c 3a1f c4be 3dde ccbe 8ecc 1c3e
000000c0: b0fc e93d da2f bc3c be31 30be f16b 8dbe
000000d0: 97e0 393e e0aa 38be a180 a2be db6a 2dbe
000000e0: 16dc abbd 12c4 e03d eaa8 39bd e71a 443e
000000f0: 7c5b de3d 7e60 2c3e dfda 8abe 8ab0 2dbe
00000100: d100 46be 4396 453e edf9 a53e bda1 87be
00000110: ea44 15bd 3267 053d 0a48 b43d d809 083e
00000120: 4e2a a43e 7049 3cbe 4d05 0ebd 661b 8fbe
00000130: 80ae a0be b427 a6be 5df0 b6bd dd0a 9f3e
00000140: ef31 2abe 94d4 023e 8982 d2bb 8903 5fbe
00000150: a1d5 79be f8d9 70be 2692 753e 74fa 543d
00000160: 8a70 a8bd b2b6 223e 7e63 8ebe c34f 093e
00000170: 7328 d1bd ff7e a0be 4e10 b2bd da8a a03e
00000180: 44ba a93e 1088 16be 1931 9c3e 3c16 773e
00000190: 2a7e 0abe 7cf3 f8bd ada2 adbe 7d11 823e
000001a0: cbab 843e f85b b7be 84fc 14bc 26f1 a8be
000001b0: 5a6e 2ebe 2559 61be 165c 2ebe 406d 9fbd
000001c0: 377d 333d 56aa 663d 6605 85be b935 4d3e
000001d0: fbad 76be a4c4 8fbe 3f8d 8abc 3ff7 813e
000001e0: 421e 4abe 6fc5 3f3e 76ef 823e 1580 243d
000001f0: 3e7f a03e 9716 e8bc e3f7 0fbe f9be b13e
00000200: 47fd b8be 2c97 3d3e 7cc4 893e d5f4 543e
00000210: 937f 653d d156 a7be 96c8 8f3e be0c 6bbe
00000220: 1aa8 093e 0423 88bd a39b 1ebd 036a 20be
00000230: 0ef1 12be 6c85 c03d 7708 19be 9ce6 b03d
00000240: f85b a4bd afe3 fc3d 479e 043e 1179 6dbe
00000250: aabf aa3e bed6 47be 2308 ba3e fea8 753e
00000260: ff7f 8e3e 3bef 9f3e 6ba4 043e 1312 8ebe
00000270: d4b2 8b3e 3e32 90bd 00f9 cb3d 59a0 b33e
00000280: 0679 263e f5e0 643e 81b4 843e b74c 78be
00000290: 9e50 c43d 7417 703d dae3 72be 1921 983d
000002a0: 4fc4 86be e447 99be ec15 a6bd 6878 afbd
000002b0: adb2 52be ab7f db3d aabd 9dbe 2919 503e
000002c0: b0fd 4ebd 3578 dc3d d59c 723e 4cf5 edbc
000002d0: 2ee6 34be 83f1 81be ee8d d5bd 7168 0abd
000002e0: 0d0a a23e 8735 9dbe b5a4 5bbe 04a3 58be
000002f0: b647 a2be 7a02 05be 8b20 993d 32c8 b13e
00000300: f763 bc3e ff07 7fbd 1c66 d43e 9298 cc3d
00000310: 4fda dd3d d610 7dbc 2e89 be3d 195f 7f3e
00000320: 0148 c03d 8518 cabd f341 16bc 0419 333e
00000330: d9a6 663e 626d 49bd f5a5 4a3e b30a 4cbe
00000340: 8333 87be d64a aa3e 089f 9abe a22c 883e
00000350: 8edb 423e dc32 99bd dfed 723e 39db 263d
00000360: 0650 563e 7f27 2a3e 34e0 54bd d1cd 34bd
00000370: 9d12 9f3d 5c80 08be 9e38 a6be fdd8 213e
00000380: 9ecb 8f3e 45a3 c9bd 1bd5 1dbc aab0 acbe
00000390: 8aac 873e ec93 173b a43c 743e 89f8 d5bd
000003a0: 9235 d63c 3466 e83a de67 67be f46e 85be
000003b0: 0a9d 17bd a158 b8bd 8141 f43d d8ab 813e
000003c0: 126c 87be 16dc 0bbd 1ccb 583e 77a1 cdbd
000003d0: 3de2 26be 7d80 d0bd 6b95 c1bb db00 993e
000003e0: bc12 9fbe 8274 09be 44aa a1be f210 b8be
000003f0: 4e49 bdbd 7d23 1cbe d4b3 17bd 646f cc3d
0.1691143 0.15506597 0.30457622 0.21079601 -0.26359025 -0.23164737 0.07834713 -0.1066564
-0.3047909 0.3457403 0.34450445 -0.0026769578 0.09201404 -0.31274006 -0.14171755 0.2612349
0.25523376 -0.07262074 0.17310205 -0.1467853 -0.0042763976 -0.031613927 0.36933497 0.4589639
0.10404759 -0.18330485 -0.068867505 -0.2888026 0.14521211 0.17050341 -0.14241001 -0.2580557
0.11441404 -0.12670046 0.080521315 -0.04070196 0.009332888 -0.31291214 -0.32111153 -0.22413585
0.17683227 -0.053676948 0.22797048 -0.35531223 0.012981919 -0.38305074 -0.40013304 0.15312406
0.114251494 0.022972036 -0.17206475 -0.27621415 0.1815208 -0.18033934 -0.3173876 -0.16935293
-0.083915874 0.109748974 -0.045327105 0.19150887 0.10857293 0.16833684 -0.2712011 -0.16961876
-0.19336249 0.19295602 0.3241724 -0.26490584 -0.036442675 0.032569118 0.08802803 0.13285005
0.32063526 -0.18387389 -0.034673024 -0.2795059 -0.31383133 -0.32452166 -0.089325644 0.31062976
-0.1662061 0.12776405 -0.0064242524 -0.21778692 -0.24397899 -0.23520648 0.23981532 0.051996663
-0.0822459 0.15890005 -0.27810282 0.13409333 -0.10212793 -0.3134689 -0.08694516 0.31355935
0.33149922 -0.14700341 0.3050621 0.24129575 -0.1352469 -0.12155816 -0.33913174 0.25403967
0.25912318 -0.35812354 -0.009093408 -0.32996482 -0.17034283 -0.22006662 -0.17027315 -0.0778451
0.043820586 0.05631479 -0.2598068 0.20040025 -0.24089806 -0.28079712 -0.016913055 0.25383946
-0.19738105 0.18727659 0.2557332 0.04016121 0.31347078 -0.028331084 -0.14059405 0.34716013
-0.36130735 0.18514699 0.26907718 0.20796521 0.056029867 -0.32683423 0.28082722 -0.2295408
0.13443032 -0.06647304 -0.038722645 -0.1566544 -0.14349768 0.09400448 -0.14944635 0.08637735
-0.08025354 0.12348115 0.12951003 -0.23190714 0.33349353 -0.19515511 0.36334333 0.23990247
0.27832028 0.31237206 0.12953345 -0.27748165 0.27284873 -0.07040833 0.09959602 0.35083273
0.16257104 0.2235144 0.25918964 -0.24248014 0.09585689 0.058616117 -0.23719731 0.07428188
-0.26321647 -0.2993766 -0.0810965 -0.085678875 -0.20575972 0.1071771 -0.30808765 0.20322098
-0.050534904 0.10765115 0.23692639 -0.02904763 -0.17665932 -0.2537957 -0.104274616 -0.03379101
0.31648293 -0.307049 -0.2144955 -0.21155936 -0.31695336 -0.12989226 0.0747691 0.3472305
0.36795017 -0.062263485 0.41484153 0.09990038 0.10832655 -0.0154459085 0.09303509 0.2493862
0.09388734 -0.09867958 -0.009170997 0.17490011 0.22524585 -0.04917658 0.1978987 -0.19925956
-0.26406488 0.3326022 -0.30199456 0.26596552 0.19029066 -0.07480404 0.23723553 0.04073641
0.20928964 0.16616629 -0.05197163 -0.044141594 0.07767222 -0.13330215 -0.3246507 0.1580543
0.28085035 -0.09845594 -0.009633328 -0.33728534 0.26498824 0.002312894 0.23851258 -0.10447795
0.026148591 0.0017730654 -0.22598216 -0.26061213 -0.037015 -0.090012796 0.119265564 0.2532642
-0.2644964 -0.034145437 0.2117123 -0.100405626 -0.1629724 -0.10180757 -0.0059077046 0.29883465
-0.3106898 -0.1342335 -0.31575215 -0.35950428 -0.092424974 -0.15247913 -0.03703673 0.099821836

fc1.bias f4 [256]
00000000: a5b2 5f3e 7423 9dbe 98b1 1b3e 5405 3bbe
00000010: 8997 013e 74a8 023e 1375 543e 1199 8cbd
00000020: ea41 933e b514 93be 13fb 61bd dc37 be3e
00000030: fd85 af3e fadc af3e d8ed 453e e4f2 903e
00000040: 88d0 863e f64e 413e d37f ab3e 3a06 193e
00000050: 073f 413e c5fc b5bd a12b 17bb 342c 523e
00000060: cda9 8d3e 6f84 a63e 0025 45bd b503 aa3e
00000070: 20ba 4b3c d0ad 52be 138c 913e 576a b5bc
00000080: ae59 1b3e 77cc 5e3e 57bc 5f3d d62f 34be
00000090: 3cf8 2cbe 8f60 e23d 9183 3bbd 423a 853e
000000a0: aaf4 633e 5c03 fcbc 0ba5 62bd 61bb 223e
000000b0: ffe8 793c d913 943e c600 28be 22c3 a23d
000000c0: e854 913e a524 89be 4ed5 753e 13e1 3cbe
000000d0: 59df cebc d8fa 1cbe ad51 663e 69fa 2f3d
000000e0: 2eb0 0abe 71c4 07be b492 633e 67ef 25be
000000f0: 11b7 91be da52 133e b2b9 0f3e f44d 7dbe
00000100: 45ed 553e 70d3 ff3c 4625 eb3d 8b44 6fbd
00000110: 8ea4 963e ee37 013e 7fed 153e a765 c3bd
00000120: cf3f 59be 6023 0e3c 82fa 173e d0b3 ae3c
00000130: ae15 8ebd c043 6f3e fe95 693e 9e73 923e
00000140: 5d19 46bd 61b3 9b3e 74fe 303e 76aa 8d3e
00000150: e100 29be c236 a83e 0557 7abe 1d1a dabd
00000160: 1224 8bbc 604f 17be 0e8a 9e3d 7f16 a2be
00000170: 8ca7 f8bd 21e9 2d3e c8b4 533d f8f2 5b3d
00000180: 1a04 9abe fb89 b3be 7c78 e93d 838f a6be
00000190: 1f39 163e 6fba a3be 73f1 443d 7536 38be
000001a0: 3c5e c8bd 26d0 24bd ca7a 74be 6754 59bd
000001b0: 65c4 823e bb51 853e 4a02 493e a177 ecbd
000001c0: 1037 783e 0d9b 8bbe 0116 b5bc 2d97 4ebd
000001d0: 12e2 3bbd f603 423e 95b3 293c a9d9 b2bd
000001e0: 6314 9cbe bbf2 a7bd 87f7 7a3e 8dcd e8bd
000001f0: e6de 76be 77dd fbbd e1a9 9c3d 59c1 b0be
00000200: 1e1e 153e 3c88 a2be 08c0 bb3e e9fe fc3d
00000210: 6808 253d a06d b13e aa2d 7cbe 9760 25bd
00000220: c986 efbc a0ad 1cbd 0ab6 413e 7be3 813e
00000230: c837 163d 2e3a c6bd 245e 9a3d d1d7 963e
00000240: 2405 953d c291 2e3e 014a 453e 7bf1 883e
00000250: 09e5 93bc 18df 97bd badc c1be 944f a53e
00000260: 3db1 773c 1638 17bd 5f80 eabd 19b8 d23d
00000270: 6a4f df3c 5d75 7dbe 01b4 8c3e 88b5 0dbe
00000280: 7c80 163d a8fb b2be 8065 29be 91dc b63e
00000290: 5270 7a3d 48df a53d e3b0 3abe de84 b1bd
000002a0: 989d 813e 5ad1 c9bc 6f97 3c3d 59f8 7ebe
000002b0: d93b bbbe 85a0 423b 8536 4f3e 66ae 8abe
000002c0: e893 85be bced 943e 33dd 3c3d 401f 913d
000002d0: 3f5b ccbd 7f30 babe d55c 9e3e 6e15 01be
000002e0: 39ff 4bbe 0536 b63e bd8c 05be b555 89bd
000002f0: bdfb 50be 7d77 493e 8bc3 57be 6064 2b3e
00000300: 6426 d63d c0e2 733e 17a2 723e 0067 753e
00000310: 6338 1cbe 6a79 91be 65fa b7be de21 a13e
00000320: 28d8 a4be 6664 9b3d d518 303d ec6c a73e
00000330: 0d04 a4be 3b16 5a3d bfac 35bd 0466 25bd
00000340: 96e7 89be e317 dabd 68a5 1e3d 1002 833e
00000350: 3138 263e 9aaf adbe cfce 923d 7689 7cbe
00000360: c9d6 4bbd 6af9 25bd 7fe3 c5bc 5569 e23d
00000370: d9d4 023e 6786 8bbe 02d9 98bd d70a 68bd
00000380: a08e 0e3e 2619 ab3e 5b00 5f3e b4e2 cdbd
00000390: c078 273d 6d04 1e3d 8fa4 0ebe f123 e8bc
000003a0: 6c1a 543c d5b6 4a3e f185 cbba 0725 6b3c
000003b0: 798c 8d3e 4ae9 ad3e ffed b63e 0661 aabe
000003c0: 95f8 9cbe 6635 78be 5df5 8cbd 8339 c3bd
000003d0: 6c3c 37be 9550 0dbe 4189 a5bd a2f8 5f3e
000003e0: 02dd 483e aeb4 4d3e 7641 d13d 010a cfbc
000003f0: cc7e 3ebe 8b13 893e 70ef 953e af31 e5bd
0.21845491 -0.3069111 0.15204465 -0.18263751 0.12655462 0.12759572 0.20747785 -0.068651326
0.28761226 -0.28726736 -0.055171084 0.37151992 0.34281912 0.3434828 0.19329011 0.2831031
0.26330972 0.18877777 0.3349596 0.14943781 0.188717 -0.088861026 -0.0023066776 0.20524675
0.2766861 0.32522914 -0.04813099 0.33205953 0.012434512 -0.20574117 0.2842718 -0.022145433
0.15170929 0.21757685 0.054622974 -0.17596373 -0.16891569 0.11053573 -0.04577977 0.2602101
0.222613 -0.03076332 -0.05533318 0.15891792 0.0152533045 0.28921393 -0.16406545 0.07947375
0.2838509 -0.2678577 0.2400715 -0.18445234 -0.025252985 -0.15330064 0.22492094 0.04296342
-0.1354377 -0.1325853 0.22223932 -0.16204606 -0.2845998 0.14387074 0.14035681 -0.24736768
0.20891292 0.031228751 0.11481719 -0.058414977 0.2942242 0.12618992 0.14641379 -0.09540873
-0.21215747 0.008675426 0.14841655 0.021325976 -0.06937729 0.23365688 0.22811124 0.28603834
-0.048364032 0.30410293 0.17284566 0.27669114 -0.16504242 0.32854277 -0.24447258 -0.10649512
-0.016984973 -0.14776373 0.077411756 -0.31657788 -0.12141332 0.16983463 0.05168608 0.05369851
-0.30081254 -0.35066208 0.11399934 -0.32531366 0.14670227 -0.31978175 0.048081826 -0.17989524
-0.09783599 -0.04023757 -0.23874965 -0.053059008 0.25540462 0.26038918 0.1962978 -0.11546255
0.24239755 -0.27266732 -0.022105219 -0.05043714 -0.045869894 0.18946823 0.010357757 -0.08732922
-0.30484304 -0.08200594 0.24508487 -0.11367331 -0.24108467 -0.122981004 0.07649589 -0.34522513
0.1456227 -0.31744564 0.36669946 0.12353308 0.04029122 0.3465395 -0.24626794 -0.04037532
-0.029239075 -0.03825152 0.18917099 0.25368866 0.03667429 -0.09679066 0.07537487 0.2946153
0.07276371 0.1704779 0.19266511 0.26746735 -0.018053548 -0.07415599 -0.37863714 0.32287276
0.0151179405 -0.036918722 -0.11450266 0.1028902 0.027259547 -0.24751802 0.27481082 -0.1383878
0.036743626 -0.34957623 -0.16542625 0.35715154 0.061142273 0.08099228 -0.1823154 -0.086679205
0.25315547 -0.02463596 0.046042856 -0.24899425 -0.36569098 0.0029697728 0.20235641 -0.2708618
-0.26089406 0.29087627 0.04610939 0.070860386 -0.09978341 -0.36365125 0.309302 -0.12605831
-0.19921578 0.3558809 -0.13041969 -0.067058004 -0.2040853 0.19674487 -0.21070687 0.16737509
0.10456541 0.23816967 0.23694645 0.23965073 -0.15255885 -0.28412944 -0.35933223 0.3147115
-0.32196164 0.07587509 0.04299243 0.32700288 -0.3203434 0.053243857 -0.044354197 -0.040380493
-0.269345 -0.10649087 0.038731962 0.2558751 0.16232373 -0.33923036 0.07168352 -0.24661812
-0.049765382 -0.040521063 -0.02415633 0.11055247 0.12776507 -0.27250978 -0.07463266 -0.056650963
0.13921595 0.33417624 0.2177748 -0.10053006 0.04088664 0.03857844 -0.13929962 -0.02833745
0.012945753 0.19796307 -0.0015527589 0.01435209 0.27646235 0.33967048 0.35728452 -0.33277148
-0.30658403 -0.2423912 -0.06882737 -0.09532454 -0.17894143 -0.13800271 -0.0808282 0.2187219
0.19615558 0.20088455 0.10217564 -0.025273325 -0.18603057 0.26772723 0.2928424 -0.11191117

fc2.weight f4 [128, 256]
00000000: e37b 8a3c 558a 913c e1c1 a03c 6cdd c9bd
00000010: 6568 bbbb af8c bc3a 2076 1d3b 20c8 6a3c
00000020: d591 b3bb cc2f 0abd f18d 2ebc b0d3 c03c
00000030: d43d 143d ec40 1e3d 976c 923a 9b65 5d3d
00000040: e993 bcbb 69f2 10bc 7cd7 1ebd 3855 053d
00000050: 8096 93bc 44f6 abbc 2d61 d3bc 7e66 f0bc
00000060: 970b aebc c2a7 753c c8e8 283d 3453 0ebd
00000070: b5a4 d5bc d5c3 023d 45c5 3cbc e927 5bbc
00000080: bc88 64be 30a6 40bc d4d9 533d d033 f2bc
00000090: 7d32 843c dddb 2bbb 211c abbc 1b83 35bc
000000a0: 7e6b d63b e9ff d1bc a08a f8bb 72b9 6c3d
000000b0: c272 4b3c d18e 3fbb 4ca9 ee3c 0b7e 0cbd
000000c0: f639 06be 4bad 3e3c 8232 8fbb b35e 57bd
000000d0: fb72 033b 5e2c 443c 9860 303d b1ba e6bc
000000e0: a83d 2dbd 3db6 9f3a 06c6 683d 26d3 473d
000000f0: 2190 45bc 1699 043d 5a99 a8bc 3799 b8bc
00000100: e12f c13c b9f4 47bd f3fa 383d 8395 1c3d
00000110: 4f0b d8bc b955 9fbc ca62 07bd 6b4f c3bb
00000120: dd6c bcba e052 353d 6f0b 113c 941b 803c
00000130: 51d2 173d 47de 393d 4ac1 b43c 53b3 15bd
00000140: 137f 673d b1a9 b7bc c04f 8f3a abe6 dbbc
00000150: c90d cfbd 47bf a23c cdb6 fbbc 4663 973c
00000160: d883 493b f663 3f3a fab8 11bd 9ace a13c
00000170: 1ce3 453d 16a8 da3c d802 34bb d771 36bd
00000180: f233 b03c 6cf9 763c 578e d6bc 49aa 213a
00000190: 0de3 dc3c 3ab2 b7ba 6e94 1ebd 3498 bfbb
000001a0: a7dc 69bc eee0 023c 7e34 183d 2115 02bc
000001b0: d4a5 07bd a93e c23c 6a23 783c e877 92bc
000001c0: 7d8c 81bc eb89 463d cfbf 363d 2207 37bd
000001d0: f6c8 2abd b926 7ebc ea68 963c 9517 ffbc
000001e0: ff5b 013d 4bb1 cabc b45e 0cbd 8148 373d
000001f0: 8dec 33bd bdcd 633d a5ad 05bd cf45 30bd
00000200: fc2e 0bba 3e50 1d3d 0f93 bd3d fbe2 d4bc
00000210: ae3c 903c e67e 173d 9058 f73c 0cce 2f3d
00000220: d4e6 10bd f076 43bd 28bb 7f3d 9b8d 73bd
00000230: 1caf 21bd a023 1bbd 20b0 c93b 817a 5e3d
00000240: 1448 703c b6a1 f6bb 9d49 74bb ccdb 683d
00000250: 998f 5ebd e662 113d 4ef8 66bc e91c b7bb
00000260: 7d18 513d 1543 dfbc 3a14 e7bc 78d1 b6bc
00000270: d167 68bc 4dc7 d73c b0c3 093c b818 d43c
00000280: 95a3 0e3d 65a7 b43c a715 95b9 4627 723d
00000290: e7f1 e6bc 181b 5cbb 700b e7bb 3a68 fe3c
000002a0: 3113 64bb 63c1 c93b 3a09 5f3c 5669 993c
000002b0: d986 dabc fa17 99bc 6938 3ebc 8dc3 e13c
000002c0: fc4a cdbc 4177 b6bc 13dc d93a 954d 16bd
000002d0: d0f0 9ebb 7d8d babc e580 a13b d364 1e3d
000002e0: d8d2 643d 4358 8b3c b823 50bd 2fd8 2cbd
000002f0: 2e85 4dbd fdc8 143a bdde 8ebc 28f9 abbc
00000300: ff0e 913b fb7e 113d 9def 4dbd fb34 803d
00000310: a8c1 163c cd87 1abd 0408 83bc d199 d73c
00000320: a1f1 99bc d8b6 fa3c 4983 33bc 8051 543d
00000330: b67e 6c3c 88bc 0bbc 203f 873c 7e32 4dbd
00000340: 5f6c bfbc eedd 4fbd 4d25 5d3d 28cd 79bb
00000350: 0040 abbc 225a 77bd f1d6 043d 81b8 363d
00000360: af5a d5bc 0b50 3ebd 267c 83bc e05b 593d
00000370: e070 ae3b 964e 50bd ecf3 433d 9e2b 1a3d
00000380: 1028 00bc d73e 763d 5279 85bc ca2a dabb
00000390: 7f26 dd3c 6be6 073c e060 37bd 802f 243c
000003a0: 4f6e 52bc 3486 35bd dfa3 c73a 0f5b be3b
000003b0: f38c 85be 9c43 b93d c643 2fbd 3767 0dbd
000003c0: c818 02bc d535 8bbd 0485 d63c b73e 983c
000003d0: 2030 f63b 3214 8cbc 2c67 e73b e67d bcbb
000003e0: 7e8a 8b3c e2c5 9cbb d7bd 4abd 4c1b 1dbd
000003f0: a426 fdba d32b 7abc c6f0 1b3c fcaa 2cbd
0.016904777 0.017766157 0.019623699 -0.09856686 -0.005719232 0.0014385189 0.0024026707 0.01432994
-0.005480031 -0.03373699 -0.010653959 0.02353844 0.036191776 0.038636133 0.0011171278 0.054051977
-0.005754937 -0.008846858 -0.03877972 0.032551974 -0.0180161 -0.020991452 -0.025803173 -0.029345747
-0.02124576 0.01499361 0.041237622 -0.034747317 -0.026079515 0.03192504 -0.011521642 -0.013376215
-0.22317785 -0.011758372 0.05172141 -0.029565722 0.016137356 -0.0026223578 -0.020887436 -0.011078621
0.006543576 -0.025634723 -0.0075848848 0.057794042 0.012417497 -0.0029229412 0.029133461 -0.03429989
-0.13108048 0.011637996 -0.0043700347 -0.052580547 0.0020057547 0.011973469 0.04306087 -0.028165193
-0.042295128 0.0012185049 0.056829475 0.04878535 -0.012058289 0.032372557 -0.020580936 -0.022533996
0.0235824 -0.04881737 0.0451612 0.038228523 -0.02637258 -0.019450055 -0.033053197 -0.005960395
-0.0014375706 0.04426849 0.008852824 0.01563815 0.037065808 0.045377996 0.022064824 -0.03654797
0.05651767 -0.022419782 0.0010933802 -0.02684339 -0.10110051 0.019866599 -0.030726815 0.018479954
0.003074875 0.0007300967 -0.035576798 0.019751836 0.04831229 0.026691478 -0.0027467515 -0.04454216
0.021509144 0.015074115 -0.02619092 0.0006167037 0.026963735 -0.0014014908 -0.038715772 -0.0058470014
-0.014273799 0.007988198 0.037159435 -0.007939608 -0.03311713 0.02371152 0.015145162 -0.017879441
-0.01581406 0.048471373 0.044616517 -0.044684537 -0.041695558 -0.015512162 0.018360574 -0.031139174
0.031581875 -0.024742743 -0.034270003 0.04474688 -0.043926764 0.05561613 -0.032636303 -0.043035325
-0.00053094304 0.038406603 0.09256565 -0.025987139 0.01760706 0.036986254 0.030193597 0.04292111
-0.035376385 -0.04772085 0.062434345 -0.059461217 -0.039473638 -0.03787577 0.006155029 0.054316048
0.014665622 -0.0075266017 -0.0037275322 0.05685024 -0.054336164 0.035494708 -0.014097286 -0.005588163
0.051048744 -0.027253667 -0.028207887 -0.02231668 -0.014184908 0.026340151 0.008408472 0.025890693
0.034823973 0.022052476 -0.00028435627 0.059119485 -0.02819152 -0.0033585485 -0.007050924 0.031055558
-0.0034801478 0.0061570867 0.01361304 0.018726986 -0.026675628 -0.01868819 -0.011610129 0.027559066
-0.02506017 -0.022273662 0.0016621373 -0.03669508 -0.0048504844 -0.022772545 0.0049286955 0.038670372
0.05586514 0.01700986 -0.050815314 -0.042198356 -0.05017584 0.00056757015 -0.017440194 -0.02099283
0.0044268365 0.03552149 -0.05027734 0.06260105 0.009201445 -0.037727166 -0.015995033 0.026318463
-0.018791975 0.030604765 -0.010956594 0.051835537 0.014434507 -0.008528836 0.016509593 -0.05009698
-0.023367105 -0.050748758 0.05399065 -0.0038116667 -0.020904541 -0.06038869 0.032431547 0.04460955
-0.026044218 -0.046463054 -0.01605041 0.053066134 0.0053235143 -0.050856195 0.047840044 0.037639253
-0.007822052 0.060118522 -0.016293202 -0.006657933 0.026995895 0.008294682 -0.04477012 0.0100210905
-0.012843682 -0.04431744 0.0015231333 0.005809195 -0.26084098 0.090460986 -0.042789243 -0.03452226
-0.007940479 -0.06797377 0.026186474 0.018584592 0.007513061 -0.017099474 0.0070618596 -0.005752313
0.017033812 -0.0047843317 -0.04949745 -0.03835611 -0.0019313884 -0.015269238 0.009517854 -0.04215525

fc2.bias f4 [128]
00000000: 16f6 f33c 6998 65bd 3f04 2b3d 8d12 05bd
00000010: adb7 1bbd 4914 7bbc 2a32 07bd 06dd 54bd
00000020: de11 993c e47b a3bc 81c6 7dbd da01 fc3b
00000030: 9f0c 4b3d e58b 1abd a04c 6b3c 2260 493d
00000040: fcc3 c33c ed3a 803d ceb7 b1bc 6460 0ebd
00000050: 1b3b 08bd 3ae5 383d bde7 4fbc ff14 cabc
00000060: 1efd 36bd 82ce ddbc 3bb2 37bb 575d e43a
00000070: 51cc 233c c3b8 e43c d681 313c a096 673d
00000080: eabf ec39 313d 5fbd 8304 bdbc 42db 1bbd
00000090: c3cc 0b3d a5a0 303c 1f11 0cbd 529b 15bd
000000a0: 4b4d 9f3b b607 853c 9edb 60bd 746e 3ebc
000000b0: 1b2d cebc e33b 063b 6647 4e3d 6116 55bd
000000c0: e988 4b3d ae7d 103b b4e4 f93c 28ee cdbc
000000d0: a248 3e3d 60fe 423d d129 2dbd e74b 7a3c
000000e0: 3345 5f3d e82a 2a3d faea fbbc 46dd 343c
000000f0: 9df1 323d ea3d 4f3d 752f bb3c a51c 173d
00000100: 6a62 363c 0476 4dbc 8f59 0abd 3e68 df3c
00000110: 59e9 09bd 4411 0fbc 904b 2cbd f979 583d
00000120: 2b20 7abd 6a88 0dbd 9a08 64bc ddee 41bc
00000130: 9e9b adbc 4bee 29bd d90f c8bc b7ad 68bd
00000140: 5238 54bd 2fc2 303c 9603 86bc 2394 dc3c
00000150: d715 353c 34ce 5abd ef64 293c 04fb e5bb
00000160: de31 7cbc 4a0b 1e3d 9049 75bd 902c 143c
00000170: c29f 233d 9f43 4dbc 5240 77bb 512a 20bc
00000180: 199f 573c d126 533c 70c0 823c 7390 2f3d
00000190: aaea be3b fb86 133d bd42 2d3d 1785 683d
000001a0: 1d5a bcbc 2426 95bc b05c e33b f4de 10bd
000001b0: 4422 2bbd feb4 9ebb be05 8b3b d364 373d
000001c0: f1f8 61bc e562 1a3d dc4e f1bc 0d4e 303d
000001d0: 6648 b73c ac91 2dbc 4832 273d d94f f43c
000001e0: e1e9 a03c 6440 b83c 0275 8c3c c041 3dbd
000001f0: 251c c1bc 6227 74bd 1d5c f8bc b25b 1e3d
0.029780429 -0.056053553 0.041752096 -0.032488395 -0.038016964 -0.015324661 -0.033006825 -0.051968597
0.018685278 -0.019956537 -0.061956886 0.0076906504 0.049572583 -0.03773107 0.014361531 0.049163945
0.023897164 0.06261239 -0.02169409 -0.034759894 -0.033259492 0.045140482 -0.012689528 -0.024668215
-0.044674985 -0.02707601 -0.0028029818 0.0017422837 0.009997443 0.027920133 0.010834178 0.05654013
0.00045156415 -0.054501716 -0.02307344 -0.038050897 0.034130823 0.010780488 -0.034196015 -0.036525078
0.004861509 0.016239028 -0.054896943 -0.011623014 -0.025167992 0.0020482473 0.05036106 -0.052023295
0.049691115 0.0022047567 0.030504562 -0.025137976 0.046455987 0.047605872 -0.042276207 0.015276886
0.054509353 0.041544825 -0.030751694 0.011039084 0.04368745 0.050596155 0.022849778 0.036892552
0.011131862 -0.012540344 -0.033776816 0.027271386 -0.033669803 -0.008732144 -0.04206425 0.052850697
-0.061065834 -0.034553923 -0.013918066 -0.011836735 -0.021192368 -0.04148702 -0.02442162 -0.056806292
-0.051811524 0.0107884845 -0.016359132 0.026926106 0.01105257 -0.053419307 0.010339006 -0.007018449
-0.015392749 0.038584985 -0.059884608 0.009043828 0.03994728 -0.012528329 -0.0037727547 -0.009775714
0.01316049 0.0128876725 0.015960902 0.042862367 0.005826314 0.0360174 0.042299975 0.05676755
-0.022992188 -0.018206663 0.0069385394 -0.035368875 -0.041780725 -0.0048433533 0.004242628 0.044773888
-0.013792262 0.03769197 -0.029456548 0.043043185 0.02237339 -0.010593813 0.040819436 0.02982323
0.019642772 0.022491641 0.017145637 -0.046205282 -0.02357299 -0.05960787 -0.03031736 0.038661666

fc3.weight f4 [128, 128]
00000000: 1a55 cf3b 7cae a6bb ae57 053d e9e3 98bd
00000010: 87b9 d3bc 61c5 06bd eab0 3ebd a6dc b7bd
00000020: 799e 243d 4b3e fabc 3c20 143d 29eb 763c
00000030: 6214 92bd d998 0fbd 4f05 31bd 02f3 bdbd
00000040: 8acc 6b3d 8411 9ebd 3c1c 8a3d cba4 f2bc
00000050: f8cb 64bd f75f 233d 31a4 a6bc e03a 063d
00000060: 963d 623d 3fc1 16bc 2af0 6b3c 6c18 bdbc
00000070: 1169 04bd 5350 84bd 2fd8 823c de97 483c
00000080: aabf 393d b170 923a ae91 063d 6413 76bd
00000090: 90d5 d6bc 879e 613d f374 d03c 0645 6ebd
000000a0: 5117 233d 7feb a9bd 488b 14bd f4bf 743d
000000b0: cb4b acbd e7ba 033d 449a 0bbc 7862 a2bd
000000c0: ffbd 273d 7fc7 a6bd efeb 493d 5cb9 3e3d
000000d0: 1be7 74bd b6bb c2bc 634c cfbb 25af 83b9
000000e0: 44b0 233d 7979 f93c 13c6 aa3b 003d 6ebd
000000f0: 990c 753c 4bfd 69bd df24 b83c 1303 70bd
00000100: 7efd ffbc 3283 323d f945 98bc c4ca 103d
00000110: ae0b 0b3d a00e b5bd 7648 edbc c78e 6cbd
00000120: d899 e5bb 1af0 14bd e3ab 373d e838 83bd
00000130: f29f 1ebd d2b1 a2bd 9c1b 663c 5b5c 703c
00000140: 3c55 c13c ca2a cabc b634 9bbd 4e8b 30bb
00000150: feaf 963d d36f a13c a982 a5bd 9ece 2a3d
00000160: 22a9 073d 4ecf 9bbd 2caf 44bd f2b8 453c
00000170: a240 0fbd eeb4 7bba 3b82 c3bc c758 babc
00000180: 6a66 f13b a8ff 123d 9236 09bd ef7c 843a
00000190: 6efa 47bd 7e97 583d 377c 863d 1385 90bc
000001a0: e321 f0bc debe 753d 9ff0 70bd 752c 823b
000001b0: b702 0e3d 8468 343b 3503 833d 757b afbd
000001c0: 0104 f53c eb5c 013d f6de 163d 73a6 adbc
000001d0: 8444 d4bc 65d1 f83c 7e6b 86bd 76c2 41bd
000001e0: 2eea bebc 5292 00bd 4c7b 29bc 6c83 a3bd
000001f0: aed4 683d 419c 3ebd e177 67bd d03d 22bd
00000200: 9956 443d 6e80 a33d 7e4c 843c 3b98 82bd
00000210: 4533 0cbd 4eb3 803d fc7b 8abb d3cd 56bd
00000220: 8ce8 4e3d 98f1 0b3d a68c a23d 5a30 3e3c
00000230: c52e 3ebc 5a7c 67bd 80e7 02bd d7c9 533c
00000240: 9fb3 403d df68 85bb 5ed7 5cbc 17be bf35
00000250: 05b0 79bd a7c6 67bd 3556 463d f7b2 ac3d
00000260: 4377 80bd e30d 5cbd 9c64 a53c f25c ae3c
00000270: 85ba ebb9 77f3 513d 0e29 98bc 126c ac3d
00000280: 75f4 73bd 79de 78bd 5427 11bd 20b0 7ebc
00000290: c3fd bebc 8a59 6bbd e9f6 3c3d 28b6 c8bc
000002a0: e539 b63d b066 b03c 97b2 79bd cfd8 8cbd
000002b0: 9d5c 223d 8f0b e93c 185c a33c 8cd5 8bbd
000002c0: e754 e03c 2223 813d a1e6 0cbc 9980 ac3d
000002d0: afd7 823d d12d 68bc 411e 2abd b01e 3abd
000002e0: 7ac4 a83d 3d4b 093d b048 363a fb5b 13bc
000002f0: edf5 afbb de87 36bc 51b6 b7bc ee8e edbc
00000300: e333 93bd 27a7 40ba 2ccd 0b3c d55d e8bc
00000310: cfe1 833d 21e5 a33c a627 9a3d 32ae 703d
00000320: cb42 26bd a92d 5e3d df67 89bd 01e5 d13b
00000330: c752 6a3d 0457 0dbd 39fb ad3d 3349 783d
00000340: 7d1b c8bc 918d 943c 5e48 3cbd ed42 973d
00000350: 9a5a 49bd c0bb 7dbd a443 363d 7a60 253c
00000360: 1f43 933d b290 f7bc ab78 793d 80cc 32bd
00000370: a37b 343c a096 35bd ba73 2d3d ccba e0bc
00000380: 062b da3c c8b0 fdbc 0686 9e3d 9728 a5bc
00000390: 0a0a 123d 859e 603d cc7d 853d 712b 853c
000003a0: 7da2 913d a9ac 61bd 344b d5bc 10aa 9fbd
000003b0: 913f 363c 372c b4bc 7627 353c 6f09 7ebd
000003c0: 70d2 8e3d 1aaa 123d bdc7 05bd 2029 ce3c
000003d0: c7fe 9a3d 98c8 3fbd 49b6 0b3d a695 55bd
000003e0: 4391 e6bc 6924 893d ba96 29bd 58f4 fdbc
000003f0: 9ae7 873d fc5b 70ba 857b 6fbd 9e23 82bc
0.0063272836 -0.005086718 0.03255432 -0.074653454 -0.025845302 -0.03290308 -0.046555437 -0.08977632
0.040190194 -0.030547282 0.036163554 0.015070715 -0.07132794 -0.035057876 -0.043217953 -0.09274866
0.05756811 -0.077181846 0.067436665 -0.029619595 -0.055858582 0.03988644 -0.020341964 0.03277099
0.055234514 -0.009201347 0.014400521 -0.023082934 -0.03232676 -0.06460633 0.015972225 0.012243239
0.0453488 0.0011172501 0.032853775 -0.060077086 -0.026224881 0.055082824 0.02544639 -0.058171295
0.039817158 -0.082968704 -0.03626564 0.059753373 -0.08412894 0.032160666 -0.0085206665 -0.07928938
0.04095268 -0.081435196 0.04929727 0.04656349 -0.05979071 -0.023771148 -0.0063262447 -0.0002511676
0.039963022 0.03045343 0.0052116006 -0.058163643 0.014956617 -0.057126325 0.022478519 -0.05859668
-0.031248804 0.04358215 -0.018588053 0.035349622 0.033946685 -0.0884068 -0.028965216 -0.05775335
-0.007006865 -0.03636179 0.04484166 -0.064073384 -0.038726754 -0.07944073 0.0140446685 0.014670457
0.023600213 -0.024678607 -0.07578413 -0.00269385 0.073577866 0.019706642 -0.08081562 0.04170095
0.033120282 -0.076078996 -0.04801862 0.01206802 -0.034973748 -0.0009601851 -0.02386581 -0.02274741
0.007366945 0.035888344 -0.033499308 0.0010108034 -0.048822813 0.05287885 0.06566661 -0.01764158
-0.029313033 0.05999648 -0.058823224 0.003972585 0.034670558 0.0027528116 0.06397096 -0.085684694
0.029909136 0.031582754 0.036833726 -0.021197533 -0.025911577 0.030373285 -0.06563471 -0.047304593
-0.023305025 -0.031389542 -0.010344338 -0.07984051 0.056843452 -0.046535734 -0.05651081 -0.03960973
0.04793415 0.079834804 0.016149756 -0.06376692 -0.034228582 0.062842 -0.004226206 -0.052442383
0.050514743 0.03416595 0.07936983 0.011608208 -0.01160783 -0.056515075 -0.031959057 0.01292654
0.0470463 -0.0040713395 -0.013479082 1.4285932e-06 -0.06095888 -0.056585934 0.048422057 0.08432572
-0.06272747 -0.05372418 0.020189576 0.021284554 -0.0004496166 0.051257577 -0.018574264 0.0841905
-0.059559304 -0.06075904 -0.035437897 -0.015544921 -0.023314362 -0.057458438 0.04613391 -0.024500921
0.08897761 0.02153334 -0.060961332 -0.068772905 0.039639104 0.028447894 0.019941375 -0.0682784
0.027384235 0.06305529 -0.008599908 0.084229656 0.06388795 -0.01417108 -0.04153276 -0.045439422
0.082406 0.03351902 0.00069535803 -0.008994098 -0.005369893 -0.011140792 -0.022425802 -0.028998818
-0.07187631 -0.00073491264 0.0085328035 -0.028365055 0.06439554 0.020006718 0.075270936 0.058759876
-0.040591042 0.054242764 -0.06709265 0.006405473 0.05720785 -0.034506813 0.084951825 0.060616683
-0.02442717 0.01813391 -0.045967452 0.07385812 -0.04915867 -0.06194663 0.0444981 0.010093803
0.07190537 -0.030220363 0.060906094 -0.043652058 0.011015805 -0.0443331 0.042346694 -0.027432822
0.026631843 -0.030968085 0.07740407 -0.020160956 0.035654105 0.054838676 0.065181345 0.016256066
0.0711107 -0.055096302 -0.026036836 -0.07796109 0.011123554 -0.02199374 0.0110567715 -0.062020715
0.069737315 0.035806753 -0.03266119 0.025166094 0.07568126 -0.04682216 0.034109388 -0.05214467
-0.028145438 0.06696398 -0.04140351 -0.031000301 0.06635971 -0.000916898 -0.058467407 -0.015886124

fc3.bias f4 [128]
00000000: 101d 8abd c50b b93d 47d6 853d 1977 e33d
00000010: ac37 babb f253 f03c c13f 183d c90f e5bc
00000020: 287a 5cbd 088d a2bd 2dc4 d63c 3423 8abd
00000030: 598b 85bd da11 b33e e6a5 5cbd 9b1d a1bc
00000040: e75f 35bc a03b c4bc 6e76 013d 15c7 773d
00000050: 5de4 0b3e e4f1 46bd 8733 3bbd 57ba 9f3e
00000060: 271f 64b9 933a 7d3d 177b 303d 7f71 93bb
00000070: 41a7 80bd d0b9 d73e c931 4dbd 3bc5 53bd
00000080: 75ab 19bb 7126 fd3c eb46 913d 58d2 b8bd
00000090: c377 8c3d 4488 b5bc b3eb 263d 0980 d53d
000000a0: c54b b03e e5a4 f9bb 1bd5 a1bd d7d9 de3c
000000b0: c6ea 383d 4311 2bbc 5b22 e23d ab31 c73d
000000c0: 41ad 8cbd ad2d 7abd b8cf e1bc 9f11 77bd
000000d0: 6b4a 6cbd 966f 0e3c db27 77bc 0ab4 0abd
000000e0: cc12 c83d 97d2 fb3c 6286 11bc db28 163b
000000f0: eaff 8ebd 455c ea3b 668f 9a3b e3d5 bdbb
00000100: 35b6 223d d50a 2dbd 2455 e93d cc44 25bc
00000110: 4990 e63d 1f0f 89bd 2345 f63c cb10 263d
00000120: feae 4bbc 4ed0 76bd b8e6 2fbd ce2e e2bb
00000130: 31a1 ae3d 5c10 e13d 9391 bc3d 030f d83d
00000140: de8a 7e3d 316a 7e3d f1e6 c83d 3e17 96bd
00000150: 6712 c63d 2afe 11bd 344f 8ebd 9e3c c0bc
00000160: 9b84 22bc 4524 893d 8fd6 4e3d 651e 2b3d
00000170: f318 bb3d 1835 0ebc 6534 0b3b cdd4 dc3c
00000180: 12d3 653d 7682 25bd a3ea 42bd e2a2 5bbd
00000190: 61c7 8dbd c910 7abd 566e ecbc abd0 edbc
000001a0: 37ca b3bb 0480 e13d d381 babc 7ad9 df3d
000001b0: 85d0 96bd f3c8 50bd 0b3b 783d 1c39 ba3b
000001c0: 55a0 b0bd 04ce 80bd b8ba 4ebd 0a9b 5a3e
000001d0: 5a94 6e3b 5a05 3dbc bd19 ec3d 123b 983c
000001e0: 7f20 98bc e299 a83a 5a77 963d 36d4 833c
000001f0: f6b3 9bbd 5f90 af3e 7699 b03c 0bfc a8bb
-0.067438245 0.09035448 0.06535011 0.111067005 -0.005682906 0.029336903 0.037170175 -0.027961629
-0.053827435 -0.07937056 0.02621659 -0.06744996 -0.06520719 0.34974557 -0.05386915 -0.019667437
-0.011070228 -0.023954213 0.031607084 0.060492594 0.13661332 -0.04857053 -0.045703437 0.31196854
-0.0002175538 0.06182344 0.043086138 -0.004499614 -0.06281901 0.4213395 -0.050096307 -0.051701766
-0.0023448144 0.03090212 0.07093605 -0.09024495 0.0685878 -0.022159703 0.040752124 0.104248114
0.34432808 -0.007618534 -0.07901975 0.027203484 0.045145772 -0.010441127 0.11041709 0.0972627
-0.06868983 -0.061078716 -0.027564868 -0.06031954 -0.057688158 0.008693596 -0.015085186 -0.033863105
0.0976921 0.030740066 -0.008882137 0.0022912535 -0.069824055 0.0071521127 0.0047168015 -0.0057933195
0.039724547 -0.04224666 0.113931924 -0.010087203 0.11257989 -0.06692337 0.030062264 0.04054336
-0.012431858 -0.06025725 -0.04294464 -0.006902552 0.085268386 0.109894484 0.092074536 0.10549738
0.062144153 0.06211299 0.098096736 -0.07328652 0.09671479 -0.03564278 -0.069487005 -0.023466405
-0.009919311 0.06696371 0.050497588 0.041777033 0.09135618 -0.008679651 0.0021240946 0.02695694
0.056109495 -0.04040762 -0.04758705 -0.053622134 -0.06922794 -0.061051164 -0.028861206 -0.029030165
-0.0054867524 0.11010745 -0.022766983 0.10930152 -0.07363991 -0.05097289 0.060603183 0.0056830775
-0.08624331 -0.06289294 -0.050471038 0.21348205 0.0036404342 -0.01153692 0.11528347 0.018582854
-0.018570183 0.0012863243 0.07346983 0.016092401 -0.07602684 0.34289834 0.02155755 -0.005156999

fc4.weight f4 [6, 128]
00000000: c0ed afbc 6ca9 773d 9879 8a3d 6b09 6a3d
00000010: 937f 9d3d a2cd 13bc 42d7 2bbc 2f87 64bb
00000020: 3a3f 553d 2fbd 1dbc 2cbf 52bd 1631 3d3d
00000030: 7de4 51bd 0ac5 243e 8e57 02bd e9a4 953c
00000040: 4589 843d 8f28 74bb d04f 3c3c 1a5a 953d
00000050: a2b3 c43d 8479 043d db6c 82bd 8204 963e
00000060: 3891 623d a831 ac3d 9fc1 35bc fe86 9d3d
00000070: eaec 713d 9646 c63e 264f 7cbd da99 a93c
00000080: ebae 433c 4f9a 33bd 78d9 1c3d 326f 9f3b
00000090: 8392 283d 0300 ce3c 8400 61bd ccaa 683d
000000a0: f3c8 a93e 503e 4bbb 7484 853d 9258 943d
000000b0: f7ff 38bd c490 843d 6f84 0d3c ae8e 9e3d
000000c0: 0f56 c03d b42a 2dbd 66f7 423d 0978 ddbb
000000d0: 7879 60bd 2975 29bd 8297 8f3d ac6a ab3d
000000e0: 4ea1 063d 07f5 9b3d ec97 5bbd 3345 25bd
000000f0: 9d91 393d 7617 54bd cab1 523d 74f8 49bd
00000100: ec10 29bd 6f06 5bbd a91c a03d 3aad 363c
00000110: 3050 a93d e49d 6ebd 13fc 5bbc bc77 6a3d
00000120: 5cfc fd3c 91e8 18bb e890 a83d 74d0 0dbd
00000130: 31b6 823d b1d5 933c b656 863d 46be 823d
00000140: 9c2f 953d 719e 093d 2c98 d2bc 713f cc3b
00000150: 07f8 9a3d 965e e6bc 8e4e 423c 4ac5 b53c
00000160: be2f 543d b61f be3c eb14 2e3d bcd1 223d
00000170: 5373 00bb 5b31 5c3d a6b6 ab3c 7456 78bc
00000180: 1e49 ba3d e585 8a3c 5dad 3dbc a92c 07bd
00000190: 3c54 943d c6ad 81bc 2993 bd3c 1382 413d
000001a0: a9f8 8cbd e67c 813d 7fbd 83bd 5455 63bd
000001b0: 7d8f c2bc 9aae a83a 8cf7 263b ad25 38bd
000001c0: 3691 a83d cc83 55bc 8ec5 a23d 07fd 923d
000001d0: a11a 33bd f764 a33d 6946 363d f2ea 3a3d
000001e0: 367b a7bb f2eb cdb9 4913 923d 2376 403d
000001f0: 9e7a 18bd 8854 8f3e 5e73 03bb a08d 17bd
00000200: 1be7 92bd 9f77 49bc 67b3 5dbd f61d 0cbc
00000210: 0c90 8cbd 2f86 f3bb 52f0 89bd 2c56 89bd
00000220: 49d4 1c3d 406e 22bd f6c6 71bb e0fa d7bc
00000230: eba9 c03c fee7 1b3d 2550 b2bd c976 90bc
00000240: 79a6 fb3c aaa9 37bd d810 663d 1954 953b
00000250: 0513 613c 5972 8ebd eb71 533d c914 0e3b
00000260: 896b ff3c 89fa 553d d1a8 9abb 8c29 a2ba
00000270: 5238 cc3c 2965 b8bc 7b9d 663d af2d 8bbd
00000280: 6aad 423d c3ce 6c3c 7ee9 b73b dfbb 1abc
00000290: 8e96 fa3c 0a3f 743b fc56 363d acba 863d
000002a0: 1df1 983d 74d8 9dbb 4897 7f3d 563a bfbb
000002b0: 2913 c8b9 0e1b 89bd a28c 773d 6e82 8cbd
000002c0: e950 83bd 8b83 75bd 83a7 883c 620c 48bd
000002d0: 5997 4cbd eeed a73b f66c 89bd 281e bf3b
000002e0: d3e2 1d3d f065 bc3c c59b 6c3d 84f0 77bd
000002f0: 1e64 003c c8ad c43c 30d4 1bbc 4e63 8cbd
00000300: 0f0b 41bc 00b4 58bc 31ce cf3c baef 563d
00000310: a74b d63c c139 15bd f9b7 05bb 6380 bbbd
00000320: b964 01bd aaa3 163d 25e1 ba3c 3121 35bd
00000330: 6655 4fbd 01f5 6b3c 30f1 e1ba e218 81bd
00000340: 28ee 22bd 93e1 fb3c 6af4 583d 5cba 26bd
00000350: 334b b2bc 4488 1ebd 4d6d b6bd 55da 2bbc
00000360: 788c 673d b0b1 acbc 6937 bc3c bfcb 0a3d
00000370: 736c 26bd 0f8a 143d 2059 c13c 2f7b f43c
00000380: 4bd8 b5bc 1060 b53c 27e4 e6ba 0057 8cbc
00000390: 3dcf 9fbb 2d57 87bd 172c 67bd d938 c03c
000003a0: 09c8 283d 6a69 a6bd 12fa a7bc 7c3a 59bd
000003b0: 4b9e 8abc b90e 063d 5ac6 b6bb e000 5c3d
000003c0: e777 e43c dafa 3abd 9aad 533d 965b c23c
000003d0: aa18 a53c 8053 d3bc ad36 563d 3fc9 9c3c
000003e0: 1b78 533d d61a 323d 00a2 cdbc c973 7b3d
000003f0: d6b6 91bc c38d 6e3b f8b9 743a 1b67 033d
-0.021475673 0.060464308 0.067614734 0.057137888 0.076903485 -0.009021195 -0.010488333 -0.0034870615
0.05206225 -0.009627624 -0.051451847 0.04618939 -0.051243294 0.1609079 -0.03182178 0.018267112
0.064714946 -0.003725562 0.011493638 0.07292576 0.09604575 0.03234245 -0.06368419 0.29300314
0.055314273 0.08407909 -0.011093526 0.07691763 0.05906383 0.38725728 -0.06159892 0.020703245
0.011943559 -0.043848332 0.03829333 0.0048655504 0.04115535 0.02514649 -0.054932132 0.05680351
0.33161125 -0.0031012483 0.06519404 0.07243456 -0.045165982 0.06472924 0.008637532 0.07742058
0.093914144 -0.042277053 0.04759922 -0.006758694 -0.05480334 -0.0413715 0.0701132 0.083699554
0.032868676 0.07615095 -0.05361168 -0.040349197 0.045304883 -0.051780187 0.051439084 -0.04930921
-0.041275904 -0.053472932 0.078179665 0.011149699 0.08267248 -0.058256045 -0.013426798 0.057243094
0.031004123 -0.002333198 0.08230764 -0.034622625 0.063824065 0.018046232 0.065595075 0.06383948
0.072844714 0.033598367 -0.025707327 0.0062331487 0.07566839 -0.028121274 0.011859549 0.022188801
0.051803343 0.02320848 0.042500418 0.0397508 -0.0019599989 0.053758007 0.020961117 -0.015157331
0.09095977 0.016909549 -0.011576978 -0.033001576 0.07242629 -0.015829932 0.02314146 0.04724319
-0.06883366 0.063226506 -0.06432628 -0.055501297 -0.023750061 0.0012869418 0.002547714 -0.044957805
0.08230822 -0.013031911 0.07947837 0.071771674 -0.043726567 0.07978242 0.044500742 0.045634218
-0.0051111234 -0.0003927644 0.071325846 0.046987664 -0.03722631 0.2799418 -0.0020057778 -0.0370003
-0.07172986 -0.012296586 -0.05412617 -0.008552065 -0.06863412 -0.0074317674 -0.067352906 -0.06705889
0.03828839 -0.039655924 -0.0036892272 -0.026364744 0.023518523 0.038063042 -0.087066926 -0.017634766
0.030719029 -0.04483954 0.056168407 0.0045571444 0.013737445 -0.06955404 0.051622313 0.002167987
0.031179206 0.052240882 -0.0047198315 -0.0012372001 0.0249292 -0.022509174 0.05630253 -0.06795823
0.04752866 0.014453593 0.0056125512 -0.009444206 0.030589368 0.003726902 0.04451655 0.065785736
0.07467864 -0.004817063 0.062400132 -0.0058358116 -0.00038161248 -0.066946134 0.060436852 -0.06860815
-0.06411917 -0.059939902 0.016681438 -0.048839934 -0.049949024 0.005124799 -0.06710236 0.0058324523
0.038546395 0.022997826 0.05776574 -0.060532108 0.00783637 0.024008647 -0.009511039 -0.06854878
-0.011782422 -0.013226509 0.025366874 0.052474715 0.02615912 -0.03643203 -0.0020403846 -0.09155347
-0.031590197 0.036777176 0.022812435 -0.044221107 -0.05061855 0.014401675 -0.0017238017 -0.06303574
-0.039777905 0.03074721 0.052967466 -0.04070507 -0.021764373 -0.03870417 -0.08907566 -0.010489066
0.056530446 -0.021080822 0.02297564 0.033885714 -0.04063077 0.036264475 0.023602068 0.029843895
-0.022197863 0.022140533 -0.0017615602 -0.017131329 -0.0048769997 -0.06608424 -0.05643853 0.023464607
0.041206393 -0.08125575 -0.020504985 -0.05303429 -0.016921183 0.032728884 -0.0055778446 0.053711772
0.027889205 -0.045649387 0.05167923 0.023725312 0.020153362 -0.025796652 0.052298237 0.01913893
0.051628213 0.043482624 -0.025101662 0.06138972 -0.017787378 0.0036400415 0.0009335573 0.03208075

fc4.bias f4 [6]
00000000: 35ad 203c a136 0e3d 6bd2 10bd 0e43 1bbd
00000010: 693c 1bbc 3fe1 d73d
0.009806921 0.034720067 -0.03535692 -0.037905745 -0.009474852 0.10541009
