megasena_model_5.pth (torch, 211116 bytes, 8 tensors)

fc1.weight f4 [256, 6]
000000 fe b8 d9 bd 85 56 95 3e af 18 b4 bd 78 0c 88 3d
       -0.106309876 0.29167572 -0.087937705 0.06643003
000010 55 a6 97 be eb 43 a7 3e 3e 43 e1 bd 6b 2d 0e 3e
       -0.2961909 0.32669005 -0.109991536 0.13884513
000020 b6 9c b0 bd cb 5d 07 3d 80 9f 6c be 39 4a 2d 3e
       -0.0862364 0.033048432 -0.2310772 0.16922845
000030 f3 1c aa be 3e 24 98 be 48 a4 78 be 61 ae 76 be
       -0.33225212 -0.2971515 -0.24281418 -0.24089958
000040 ba b4 88 be bd d1 b9 3e 46 fd 97 3e 51 d3 34 be
       -0.26700383 0.3629283 0.2968542 -0.17658736
000050 de 56 97 3e b5 2c b6 be 31 75 06 be ae ff 73 3e
       0.29558462 -0.35580984 -0.13130642 0.23828003
000060 e6 3f 1a bd 36 f7 09 3e 34 84 83 3e 70 d2 84 be
       -0.037658595 0.1347321 0.256868 -0.259418
000070 c3 30 85 3e 7c ed 18 3d bb 19 28 be cd 91 21 be
       0.26013765 0.037335858 -0.16416065 -0.15778275
000080 21 47 a5 be c7 24 95 3e ed 92 11 be 36 8f 32 be
       -0.3228083 0.2912962 -0.14216204 -0.17437443
000090 de 4b 4b be a8 7c f6 bd e5 ec 1b be d2 9a f7 bd
       -0.1985316 -0.12035495 -0.15227087 -0.120900765
0000a0 31 72 c9 3d 3e 34 a7 bd 8c 3c 8f 3e 89 dc 34 be
       0.098362334 -0.08164261 0.2797588 -0.17662252
0000b0 49 80 26 be 63 5f a6 be 8e 88 d5 bd 24 77 30 be
       -0.16259874 -0.3249465 -0.10426436 -0.17232949
0000c0 b4 53 1f be 1e a1 b0 3d 7d ea b2 bd 2f 15 aa be
       -0.15559274 0.08624481 -0.08736131 -0.33219287
0000d0 5f 74 db bd 20 f8 d5 3b c4 3e 0e 3e 71 9b 9e 3a
       -0.107155554 0.006529823 0.1389113 0.0012100769
0000e0 bc cd ca 3d ef f2 39 3e e4 ec 57 be 4a e6 8a 3e
       0.09902522 0.18159078 -0.2108646 0.27128822
0000f0 e6 9d b1 be aa c2 7f 3e fe 66 7d 3d a4 64 e0 3d
       -0.3469078 0.24976602 0.0618658 0.10956696
000100 5c 37 9d 3e b8 e0 11 3e 6f 98 8a be 98 d2 85 3e
       0.30706298 0.1424588 -0.27069423 0.26137233
000110 1c 92 88 bd 0d 2a a4 3e 74 88 91 bc 85 d7 7c 3e
       -0.06668493 0.32063332 -0.017765261 0.24691589
000120 65 11 33 3e a8 ac 03 3e 60 2b 05 be ea 95 79 3e
       0.17487104 0.12858832 -0.13004827 0.24373594
000130 c4 f5 bc 3e f8 72 2c bd 8d 78 84 be 1d 3b 10 3e
       0.36906254 -0.04210183 -0.25873223 0.1408505
000140 53 20 7a 3e 2c 39 96 3e 62 c7 24 be e2 ac 8d be
       0.24426393 0.29340494 -0.16091684 -0.27670962
000150 64 f9 63 3e 03 a6 45 3e 3f d6 44 be c5 f2 1f bd
       0.22263104 0.1930161 -0.19222353 -0.039049882
000160 25 4b b7 3d 92 fa e1 bc f1 95 39 be 8a 92 6d 3e
       0.089498796 -0.027585302 -0.18123604 0.23200431
000170 3a 5c 53 3e 89 ea 33 be b1 5a 93 3e c3 01 7c 3e
       0.2064065 -0.17569937 0.2878013 0.24610047
000180 c0 09 6f 3e 09 99 ad be d4 fa a6 bd 0b 4d 7d 3e
       0.23343563 -0.3390582 -0.081533104 0.24736421
000190 10 84 b7 be f1 49 98 3e cc f7 61 3e 7e f4 9d 3d
       -0.35842943 0.29743913 0.22067183 0.07712649
0001a0 a2 9d 91 3e d3 16 72 3d 2a d2 98 be fe 57 fe bd
       0.28440577 0.059103798 -0.29847842 -0.12419127
0001b0 40 eb 81 be f9 f8 65 be 60 5e a3 be 5f 5c 80 be
       -0.25374794 -0.22458257 -0.3190794 -0.25070474
0001c0 c0 c1 87 be f1 ed c6 bd f2 0d 84 3e 91 66 a7 3e
       -0.26515007 -0.097133525 0.2579189 0.3269544
0001d0 9a 7d 19 be e6 b5 78 3e 26 fb a9 be 16 c4 b8 be
       -0.1498932 0.24288139 -0.33199424 -0.36087102
0001e0 4a ee 2e bd 40 e0 76 be 79 c5 93 be 8d 80 1f 3d
       -0.04270772 -0.24108982 -0.28861597 0.038940955
0001f0 30 8c a8 3e 47 d6 da 3b a8 f0 20 be cf d1 bc bd
       0.32919455 0.006678376 -0.15716803 -0.09219705
000200 7d 72 bf 3b 80 a2 60 3e 53 1d 31 39 3a 77 93 be
       0.0058425055 0.21936989 0.0001689096 -0.288019
000210 60 4c b4 3d 9c ad bd bd d9 97 57 be b7 a5 a9 bd
       0.0880363 -0.09261629 -0.21054019 -0.08283561
000220 45 26 e7 bd 08 33 63 be 8f bb 95 3e 8f f8 7d be
       -0.11286596 -0.22187436 0.29244658 -0.24801849
000230 d7 cc cc bc be 6e 13 bd 77 43 8d be 48 d0 47 be
       -0.025000019 -0.035994284 -0.27590534 -0.19513047
000240 dd ce 6a be a4 77 3e 3c dc f6 16 be 33 b5 8b be
       -0.22930475 0.011625204 -0.14742607 -0.27286682
000250 3e 88 8e 3d b7 68 3d 3e 69 6d b6 bc 3a ce 85 be
       0.0695958 0.18496977 -0.022268968 -0.261339
000260 5e c0 92 3e 69 2b b5 3e 89 6a 6a be 69 de 72 3d
       0.2866239 0.35384682 -0.22892202 0.059294138
000270 4d 67 8c 3e 01 ce af 3d 75 20 93 bd fe 87 57 3d
       0.27422562 0.08584214 -0.07183925 0.052619927
000280 87 3d 86 3e a2 06 79 3e 0b e6 90 3e 8b c9 86 3e
       0.26218817 0.24318936 0.2830051 0.2632564
000290 cf 93 7e 3c eb 6f 75 3e 6f f6 5c be 8e d5 a5 be
       0.01553817 0.23968475 -0.21578382 -0.32389492
0002a0 ac 79 b2 bd d8 ca 7d 3d c3 dc b5 be 68 03 36 3e
       -0.08714613 0.061961025 -0.3551999 0.17774737
0002b0 cb d1 66 be 62 c4 ac 3e 49 59 86 bc a1 d6 05 3d
       -0.22540967 0.33743578 -0.016399996 0.03267539
0002c0 e7 69 34 be 50 97 5c 3e 50 c5 a0 3e 1e 56 a5 3e
       -0.17618524 0.21542096 0.31400537 0.32292265
0002d0 32 74 5c be 1e 6b cb 3c dd ba 3a bd 18 b2 4a 3e
       -0.215287 0.02483135 -0.045588363 0.197945
0002e0 ff be f1 3d 25 10 85 be 4a 7b 42 3c 33 0d b3 3d
       0.11804008 -0.2598888 0.011870215 0.08742752
0002f0 5c 9c ea 3d 12 8b bc be be 36 5f 3e cd 9f a0 be
       0.114556044 -0.36824852 0.21798226 -0.31371918
000300 02 b6 b1 be 39 a1 f0 bd d6 a0 09 be be 64 20 3d
       -0.34709173 -0.11749501 -0.1344026 0.039158575
000310 a9 8e 19 3e 07 e1 79 be 6f 96 43 3e 41 bb 9d be
       0.14995827 -0.24402247 0.19100355 -0.30806926
000320 47 08 94 3e 5c c7 03 be be ef c7 bd 28 13 82 3d
       0.28912565 -0.12869018 -0.09762524 0.0635131
000330 d5 a9 44 be be 17 97 be 3e 80 4c 3e d7 60 16 be
       -0.19205411 -0.295103 0.19970796 -0.14685379
000340 ac a3 a9 3d dd af 81 bd 2c 8d 04 be 07 89 9d bd
       0.08283171 -0.063323714 -0.12944478 -0.076921515
000350 af 1f 84 3e 96 ee 3f 3e 51 ac 19 3e 5a 37 7d bd
       0.25805423 0.18743357 0.1500714 -0.061820365
000360 37 f6 28 3e 39 56 17 be cc 17 24 3e d6 72 3d 3e
       0.16500174 -0.14778985 0.16024703 0.18500838
000370 94 25 89 bd 09 d6 64 3e c9 ed ae bd a7 b8 35 be
       -0.066966206 0.22347273 -0.08541448 -0.1774622
000380 6f 17 9e be f8 c4 d7 3d 30 a0 bd 3e e4 24 3f be
       -0.30877253 0.10535616 0.37036276 -0.18666416
000390 09 2f 7f be 3e 86 6a bd b4 45 f0 bd e6 89 58 3e
       -0.24920286 -0.05725693 -0.11732045 0.21146354
0003a0 87 ab 51 3e 15 02 3d 3e 63 dd 82 be e8 d5 50 3e
       0.20475589 0.18457825 -0.2555953 0.20394099
0003b0 ba 15 08 be 56 52 b3 3e a8 fa f0 3c 57 c5 6a be
       -0.13289538 0.35023755 0.029416397 -0.22926842
0003c0 cf ce 8b be 52 40 59 bd 7d 61 92 3e b0 2c db bb
       -0.2730622 -0.053039856 0.28590003 -0.006688677
0003d0 0e 40 92 3d 7d 29 a3 3e a0 5e de bc de 57 9a 3d
       0.07141124 0.3186759 -0.02714473 0.075362906
0003e0 33 7f a7 be ee 40 20 be b7 71 f5 3d 0d f9 c5 3d
       -0.32714233 -0.15649769 0.1198458 0.09666643
0003f0 f2 d2 54 bc 41 b9 3d 3d 12 8f 2e be 4e f0 a3 3d
       -0.012989746 0.04631925 -0.17046764 0.08004819

fc1.bias f4 [256]
000000 fe 2e 60 be 7d 5e c4 3b 5f d4 26 be 17 0e 0a be
       -0.21892926 0.005992709 -0.1629195 -0.13481937
000010 26 b0 6a 3e 25 fd bb 3e 6a 6a b5 be eb 4f 61 3b
       0.22918758 0.3671657 -0.3543275 0.003437991
000020 7e f6 e9 3d 9f b6 bd be a7 04 f8 bd 14 53 c6 bd
       0.11423968 -0.3705339 -0.12110262 -0.09683815
000030 95 72 46 be f7 fb d4 3d 1e 30 88 3e 7d 51 9d 3e
       -0.19379647 0.10399621 0.2659921 0.30726233
000040 e0 1e 1a 3d 4e 99 4c 3e 58 46 cb bd d5 d8 34 be
       0.0376271 0.19980356 -0.099255264 -0.1766084
000050 fe 7c 06 be 8f 50 3f 3e b2 2f 8e bc be 13 b3 3e
       -0.13133618 0.18683074 -0.017356727 0.34976
000060 d3 c5 b2 3e 4c 97 57 3e 5c db 2a bd 7b 2c a0 be
       0.34916553 0.21053809 -0.041713104 -0.31283936
000070 0c 3d e9 bd 30 76 10 3e 92 ac e0 3d 6e 57 b8 3b
       -0.11388597 0.14107585 0.10970415 0.005625657
000080 5d b9 aa 3e f8 fa 9d 3e 97 b4 53 be dc e9 0f be
       0.33344546 0.30855536 -0.20674358 -0.14054054
000090 d4 bd 91 be 9f 4a 23 be ef b4 67 be a6 37 3d be
       -0.2846514 -0.15946434 -0.22627614 -0.1847826
0000a0 f0 ef 38 3e 33 8f 93 be b8 f5 a1 be 87 fb c9 3d
       0.18060279 -0.2882019 -0.3163278 0.09862428
0000b0 92 b7 24 be ba d6 73 be 84 bc ec 3d dd 2a 13 3d
       -0.16085652 -0.2381238 0.11559394 0.03592955
0000c0 c0 fe b6 be dd 9a e9 3d 6e c4 b2 3e 91 22 b2 3e
       -0.35741234 0.11406491 0.3491549 0.34791997
0000d0 cd a7 78 be 24 d6 3a 3e 28 8a 83 be d2 8a 99 be
       -0.24282761 0.1824575 -0.25691342 -0.29988724
0000e0 aa ec 61 bb f5 85 da 3d e8 8a 76 3d 6f cf 11 be
       -0.0034473338 0.106700815 0.060191065 -0.14239286
0000f0 15 54 c1 bd 14 c1 3e 3e 5e 02 83 3e b8 2a 72 3e
       -0.094398655 0.18628341 0.25587744 0.23649108
000100 3a 63 7c 3e eb 04 90 3e 3f 72 bd bc 81 3d 95 3e
       0.24647227 0.28128752 -0.023125766 0.29148486
000110 e5 30 0c be 31 2a 1f bd dc 41 a4 3d 42 22 07 3e
       -0.13690527 -0.038858596 0.08020374 0.13196662
000120 d2 db 8b 3e 8e bb b7 3d c4 5c 47 be 8c bf 76 be
       0.27316147 0.0897132 -0.19468981 -0.24096507
000130 64 93 36 3e bf 68 91 be 93 8a 9f bd 11 29 af 3e
       0.17829663 -0.28400227 -0.07790103 0.3421102
000140 6b 6f 55 bc fa e9 a7 3d 6b 12 ac bd 10 6f fb bb
       -0.013027052 0.08198924 -0.084019504 -0.007673152
000150 5e 3b 62 bd c0 58 af 3e 45 c4 fc 3d 38 51 b3 3e
       -0.0552324 0.34247398 0.12342123 0.35022902
000160 73 11 f2 3c f8 cc 63 3e 0e d5 70 3e 59 a4 58 3e
       0.029549336 0.22246158 0.23518774 0.21156444
000170 7e cd e6 3d 35 88 bf 3e 56 a5 87 3d 90 1c b9 3e
       0.11269663 0.37408605 0.06623332 0.36154604
000180 dd e0 a3 bd a1 e0 3b be cd 12 82 be e0 c6 8e 3e
       -0.08001874 -0.18347408 -0.2540497 0.27886105
000190 55 42 1b 3e 16 92 d5 3d 52 b5 7f bc 14 15 7a be
       0.15162022 0.10428254 -0.015607195 -0.24422103
0001a0 81 f7 25 be 60 50 45 be 3b 96 e1 bd 51 37 99 3e
       -0.16207696 -0.19268942 -0.11014982 0.29925016
0001b0 58 3b a4 be 57 12 22 3d d7 fd 32 3e 24 c6 b7 be
       -0.32076526 0.03956827 0.17479645 -0.35893357
0001c0 28 46 7d 3e 76 57 7d be bd 00 b6 be a2 c1 0d be
       0.24733794 -0.24740395 -0.35547438 -0.13843396
0001d0 45 5a a1 be 21 c8 30 3e f2 37 6c 3e 8e 8a e4 bd
       -0.31514183 0.17263843 0.23068216 -0.1115924
0001e0 18 57 43 bd 6a 12 ae be 71 33 a5 3e 68 d0 51 bc
       -0.04769048 -0.33998424 0.3226581 -0.012806036
0001f0 77 bf a5 3e 8b e9 4f 3e 47 a1 82 be d9 b3 b1 3e
       0.3237264 0.20303933 -0.2551367 0.34707525
000200 35 47 18 bd c6 b8 62 3e 5d fe 83 be d5 74 4b 3d
       -0.037177283 0.22140798 -0.2578 0.049671967
000210 65 97 0c bd 50 aa ae 3c b5 ab 6d be 11 08 50 3d
       -0.03432407 0.021321446 -0.23210032 0.050788943
000220 28 7a a5 3e 7b d3 a6 be 77 2b 5e 3e 03 c7 c2 ba
       0.3231976 -0.32583222 0.21696268 -0.0014860336
000230 79 87 68 be e6 60 9f 3e 63 70 96 be 81 6a 8d 3d
       -0.22707929 0.31128615 -0.2938262 0.0690508
000240 8f ea 47 3e 06 68 c8 bd 59 e5 0d be 85 c8 84 be
       0.19523071 -0.09785466 -0.1385702 -0.25934234
000250 d1 46 8a 3e a4 49 b8 be 4e a9 a5 3d ec b8 e6 bd
       0.27007154 -0.35993683 0.08088933 -0.1126574
000260 f5 fc 9c 3e 32 31 e0 bd 6c 6a 60 be 17 6e 89 3e
       0.3066174 -0.10946883 -0.21915597 0.26841804
000270 a4 8b 12 3e 96 39 86 3e c8 d0 29 3d 14 31 d0 bd
       0.14311081 0.2621581 0.041458875 -0.10165611
000280 d0 0a b8 3d 77 bf 8d 3d b9 28 99 bd 1b bb 1d 3e
       0.08986437 0.06921285 -0.0747847 0.15403406
000290 60 ce 22 bb b3 92 2a 3e 74 34 d4 bd d5 ce bd 3c
       -0.0024842247 0.16657524 -0.10361567 0.023169914
0002a0 3f ae a9 3e a1 2a b3 3e 18 1f 2c be 3d 5e 09 3d
       0.33140752 0.3499346 -0.16808736 0.03353714
0002b0 3d c0 3b be 6f 0c 6e be 19 e2 e9 3c ae a7 96 be
       -0.18335052 -0.2324693 0.028550195 -0.29424804
0002c0 11 02 a4 bc 1f 83 64 3d e4 f0 4c 3e ae 44 55 3e
       -0.020020517 0.05578911 0.20013767 0.2082698
0002d0 36 2e 2c bd 44 ed 2f 3e 00 cc d3 bc b3 7e 8d be
       -0.042036258 0.17180353 -0.02585411 -0.27635726
0002e0 0a e4 95 3e 87 cf 8f be 56 2f a5 3d 12 e5 85 3e
       0.29275542 -0.28088018 0.08065669 0.2615133
0002f0 da 12 0d be a6 57 a0 3e ff 74 b7 be c2 b7 a8 be
       -0.13776723 0.3131687 -0.35831448 -0.32952696
000300 50 03 22 3e e6 b7 a2 bd b8 0d 3c 3d 20 19 31 be
       0.15821576 -0.07945232 0.04591152 -0.1729474
000310 47 9b af be 9d 84 f4 3c 65 39 8c 3d 32 1f 46 3c
       -0.34298155 0.029848391 0.06846885 0.0120923985
000320 81 7f 8e bc 19 54 91 bd ff 9e 50 bd fd c5 af 3e
       -0.017394783 -0.070961185 -0.05093288 0.3433074
000330 59 fc 32 be 32 62 c3 bb 97 3c e8 3c 05 9f 2c 3e
       -0.17479075 -0.0059626335 0.028349204 0.16857536
000340 ca 36 bb 3e 5d c7 44 3e c4 c3 26 be a7 91 b4 bd
       0.36565238 0.19216676 -0.16285616 -0.088168435
000350 95 e6 8e be 16 62 6d be f7 3f 55 3e 19 03 9e 3e
       -0.27910295 -0.23181948 0.20825182 0.30861738
000360 fc 0c 1d 3e 73 26 1d 3e f1 bd c4 3e 6b 4a 83 3d
       0.15336984 0.15346698 0.38426164 0.064106785
000370 cb 81 a2 be 98 90 6e 3e 78 38 0d be f2 e5 46 be
       -0.3173965 0.23297346 -0.13791072 -0.19423655
000380 70 7b 6a 3e 42 73 af 3d a0 52 91 3e 94 1f b1 3e
       0.2289865 0.085669056 0.2838335 0.34594405
000390 a5 ac 83 3e 2f 7b 95 3e 2b 4a ac 3e 94 fb 83 3d
       0.25717655 0.29195544 0.33650336 0.06444469
0003a0 dc 82 c1 bd 33 0c 19 3d ec 06 11 be e1 e0 8c be
       -0.094487876 0.03736515 -0.14162797 -0.2751532
0003b0 36 3a a6 3d 19 99 6f 3e fe 0d 07 3d 33 a9 8d be
       0.081165716 0.23398246 0.03297233 -0.2766815
0003c0 5e e4 52 be ce 5e ac 3e b6 a0 b3 3c 97 0b ab 3e
       -0.20594928 0.3366608 0.021927219 0.3340728
0003d0 dd b2 80 3e 42 4d 2b 3e a4 32 39 3d 06 bf 1e be
       0.25136462 0.1672869 0.04521431 -0.15502557
0003e0 fb e3 93 3e 62 d8 b8 be a2 7f 59 be 4f 43 62 3d
       0.28884873 -0.36102587 -0.21240094 0.05523997
0003f0 ce d2 ac 3e a3 0d 0d bd 57 c2 83 3e 46 a6 6b 3e
       0.3375458 -0.034436833 0.25734207 0.23012647

fc2.weight f4 [128, 256]
000000 65 fd 57 bd ee ec f3 bb 62 3b 40 bd ff 23 1d 3d
       -0.05273189 -0.0074440157 -0.046931632 0.038364407
000010 b8 63 02 ba c2 88 01 bd 55 af 4e bd 90 97 5a 3d
       -0.00049739657 -0.031624563 -0.05046018 0.053367198
000020 f3 24 3c 3d 4f a3 84 bb 36 f5 12 3d 42 82 4e bd
       0.045933675 -0.004047788 0.035878383 -0.050417192
000030 13 c3 11 bc 83 ef 0a bd a5 ae 0d 3d 29 7e 77 bd
       -0.008896607 -0.033919822 0.034590382 -0.06042305
000040 b6 12 8f bc be 7f f8 bc f5 75 c1 3c d3 8f 06 3d
       -0.017464977 -0.03033435 0.023615817 0.032852005
000050 ea 87 15 bd 08 71 bc 3c 8a 23 44 bd 39 e1 25 bc
       -0.03650657 0.023003116 -0.047885455 -0.010124498
000060 c7 8a 14 bd 10 8d 4b 3c a0 c6 a8 bc 8b 73 b4 bc
       -0.03626516 0.012423769 -0.020602524 -0.022027751
000070 58 41 96 3c 60 31 52 bd c2 cc 7d bd 95 93 e8 3c
       0.018341705 -0.05131662 -0.06196285 0.028390685
000080 e5 4d 26 bd 57 ed b1 3b e3 60 0c bd 59 16 31 3d
       -0.04060163 0.0054299044 -0.034272086 0.043234203
000090 05 4d 3e bd c8 c0 9b bc 94 e5 0b 3c 1c 69 68 bd
       -0.04646017 -0.019012824 0.008538622 -0.056740865
0000a0 0b b6 12 3d ec 1f ab bb b2 47 8f bc de 68 38 3d
       0.03581814 -0.0052223112 -0.017490242 0.045021884
0000b0 aa 5c 29 bb 55 aa cd 3c b8 55 38 3d 00 ae 9a bc
       -0.0025842586 0.025105635 0.045003623 -0.018881798
0000c0 06 56 34 bd 8e fc 00 3b d0 46 d2 b9 94 48 24 3d
       -0.04402735 0.0019681784 -0.0004010708 0.04010828
0000d0 a3 ff 48 bd b2 03 97 3c fe 80 1f bd 6c 0b 49 bd
       -0.04907192 0.01843438 -0.038941376 -0.04908316
0000e0 d5 04 6c bc fe 74 01 bd e2 3f c0 3c e6 40 0f bd
       -0.014405449 -0.031605713 0.023467962 -0.034974
0000f0 8c c5 39 3d cf 5b 49 3c bd 2c a1 bb c1 f9 68 3c
       0.04535441 0.012289955 -0.0049186633 0.014219702
000100 1a a2 56 bd a6 76 e8 bc 44 6e 75 bc 29 28 07 bd
       -0.052400686 -0.028376888 -0.014979903 -0.032997284
000110 90 d5 a9 3c 45 fe 3f bb 04 f7 2a bd 29 86 68 bd
       0.020731717 -0.0029295844 -0.04173948 -0.05676857
000120 78 f0 29 bd c3 10 60 bd 6f 23 48 3d 05 03 3e bd
       -0.041489094 -0.054703485 0.048861917 -0.0463896
000130 9f ed de bc 83 aa 3f bc 55 c4 ae 3a e0 3d 60 bc
       -0.027212916 -0.011698368 0.0013333658 -0.013686627
000140 d7 b1 08 bd 17 57 39 3b ec 45 1a 3d 06 d7 22 bd
       -0.033372726 0.002828067 0.03766434 -0.039755844
000150 86 df 05 bd bf 25 d9 3b 34 58 71 bd 8d a7 0c bd
       -0.03268387 0.006626814 -0.058922008 -0.034339476
000160 94 4a 57 bd 5f 5b 62 bd 61 68 3f 3d be c5 e6 3c
       -0.052561358 -0.05526292 0.046730403 0.028170463
000170 8e 84 fc 3c 90 09 1c 3d ac 3a 45 3d fd 39 85 3b
       0.030824926 0.038095057 0.048151657 0.0040657506
000180 dd a3 5e 3c 5c 17 65 3b 33 ed 20 3d 56 84 0f bd
       0.013588873 0.003495655 0.03928871 -0.035038315
000190 a5 cd 1f 3d 4d cf 58 3c 7f 7e ba bc a4 72 33 3d
       0.039014477 0.013233018 -0.022765396 0.0438105
0001a0 1f 8d 8f bb b2 78 54 bd ed c0 e4 bb 8c 05 0a 3d
       -0.0043808366 -0.051872917 -0.0069810064 0.033696696
0001b0 58 f9 3f bd ff 7b 63 bd 18 30 e7 bb 7c 22 b6 bc
       -0.046868652 -0.055538174 -0.007055294 -0.02223324
0001c0 27 60 f1 3c eb 6a 40 3d df 29 04 3b 98 61 31 3d
       0.029464794 0.046976965 0.0020166559 0.043305963
0001d0 3f 52 aa 3c 55 14 42 3d 28 02 2c bd de 88 56 bd
       0.020791171 0.04738267 -0.041994244 -0.05237662
0001e0 67 7a 43 3c 93 2e 3e 3d 1c 51 12 bd f9 08 6d 3c
       0.011931038 0.046431135 -0.035721883 0.014467471
0001f0 98 5e d1 3c 9e 49 cd bc e8 2b fb 3c 9c eb 01 bd
       0.025557801 -0.025059517 0.030660585 -0.031718835
000200 84 5d 40 3d 8b b4 2b bc dc ce 2b bd d4 7b ae 3b
       0.046964183 -0.0104800565 -0.041945323 0.00532482
000210 6b cc d6 bc 69 1a 37 3c 4c 27 7d 3c 43 b2 3b bd
       -0.026220521 0.01117573 0.015451264 -0.0458243
000220 d4 92 1b 3d 8e 7c 00 bd 87 28 1f bd f9 1a e7 bb
       0.037981823 -0.031368785 -0.03885701 -0.007052776
000230 f9 7e 30 3c 9d 3e 14 bd 63 66 59 bd e7 8b 53 bd
       0.01077246 -0.036192525 -0.05307616 -0.051647093
000240 a1 44 1b bc a7 78 42 3d 49 ae 50 bd d7 f9 cb 3c
       -0.009476812 0.047478344 -0.05094746 0.024899406
000250 37 73 1d 3d a9 52 4b bd 56 4b 3f bd 61 5a 05 bb
       0.038439956 -0.049639378 -0.046702705 -0.002034806
000260 73 8b 35 3d de c1 11 bd cb e6 d9 3c 1b b9 03 bd
       0.044322442 -0.035585277 0.026599308 -0.032158952
000270 86 74 ec bc 54 56 0f 3d 26 70 2b bd e0 1f 53 3c
       -0.028864156 0.03499444 -0.041855 0.012886018
000280 e0 8f 4e 3d 61 20 90 bc a6 39 21 bd 54 83 88 3c
       0.05043018 -0.017593564 -0.03936162 0.016664185
000290 05 04 36 bd 8b 60 dd bc 14 8b 51 bd 87 2d 2c 3d
       -0.044437427 -0.027023574 -0.051158026 0.042035606
0002a0 53 c6 9c bc ba 84 24 bd 9f c6 23 3d 79 b8 0c 3d
       -0.019137537 -0.04016564 0.03998434 0.034355614
0002b0 7c 8b 68 3c 43 30 33 bd f1 c6 6b 3d 36 ad 1b 3c
       0.014193412 -0.043747198 0.057562772 0.009501746
0002c0 a1 a8 1d 3d 4b ba 46 bd ed 35 e3 bc 03 fb 68 bd
       0.038490895 -0.048517507 -0.027735675 -0.05688001
0002d0 cf a6 cf 3c 45 f6 d9 bc 82 a4 4f 3c 0a 8e 54 3c
       0.025348095 -0.026606688 0.012673499 0.012973318
0002e0 e6 f5 37 3c a6 2c 2e bd 06 c3 e8 bc db 6f 33 3d
       0.01122806 -0.04252305 -0.028413307 0.043807846
0002f0 b8 a1 0b 3d 02 4c 07 bd 1e 02 be 3a 4f 36 68 3c
       0.034089774 -0.03303147 0.001449648 0.014173104
000300 4b 06 20 3c 7b 02 0a 3b 2f c2 ae 3b dc d1 31 bd
       0.009767125 0.0021058607 0.005333207 -0.043413028
000310 89 72 b9 bb ba b5 6a bd b7 90 23 3d c5 32 22 bd
       -0.0056594056 -0.057302214 0.039932933 -0.0395992
000320 6b b6 57 3c 02 c7 5a 3b 8a 11 33 bc 3e 11 25 bd
       0.01316605 0.0033382778 -0.010929475 -0.040299647
000330 e3 41 2d bd fe b2 ef bc 15 b5 0e bd f5 8f 90 3b
       -0.042299163 -0.029260155 -0.034840662 0.0044116923
000340 b7 16 95 bc 4f 01 ac bc 60 05 28 3d 92 f1 18 bd
       -0.018199308 -0.020996718 0.04102075 -0.037339754
000350 81 fe af bc 97 72 0a bd cf 2e 46 3d f7 b5 43 3d
       -0.021483662 -0.033800688 0.048384484 0.047780957
000360 a3 64 6c bd 1c de 21 bd 39 75 5f 3c 5c 01 cc 3c
       -0.057713162 -0.03951846 0.013638788 0.024902992
000370 eb 07 4c 3d c8 81 56 bd 75 d6 0b bb 24 84 39 3c
       0.04981224 -0.052369863 -0.0021337543 0.011323009
000380 04 36 11 bc 21 f3 58 3c b6 0d ff bb 0e 99 b2 3b
       -0.008862976 0.01324156 -0.007783617 0.0054503744
000390 4c be 83 bc 1c 59 27 3c ec 82 1e bd d4 50 83 3b
       -0.016081952 0.010214116 -0.038699076 0.004007438
0003a0 30 8d 95 3c 4f 41 53 bc 55 49 3c 3d c0 73 30 bd
       0.0182558 -0.012893989 0.045968372 -0.043079138
0003b0 86 40 51 bd f3 a3 02 bd 01 ef 2f bd e4 27 e8 bc
       -0.051086925 -0.031894635 -0.04295254 -0.028339334
0003c0 90 0a 44 3d 6b 42 4f bd fd dd d1 ba 95 b3 b9 3c
       0.047861636 -0.05060045 -0.0016011592 0.02266864
0003d0 dc 8d d9 3c e9 c3 d4 3c 10 02 99 3c 26 82 20 3c
       0.026556902 0.025972323 0.018677741 0.009796655
0003e0 e9 31 b3 bc 14 b5 a4 bb 7c 8d 40 bd 5b 08 48 3d
       -0.021874385 -0.005026469 -0.04700993 0.048836093
0003f0 45 85 06 bd 8b dc 1d 3d 26 92 8f bb 5b 74 78 bd
       -0.03284194 0.038540404 -0.004381436 -0.06065784

fc2.bias f4 [128]
000000 0a 66 63 ba 4d 04 e1 3c f3 57 80 bc fc 86 55 bb
       -0.0008674568 0.027467871 -0.015666937 -0.0032581678
000010 39 9c 0d 3d 23 ec 15 bd d4 53 84 bb f1 32 06 3d
       0.034572814 -0.03660215 -0.0040383134 0.032763425
000020 e6 77 5e 3c cd 44 d6 bc 7e 7c a0 bc aa e4 0f bd
       0.013578391 -0.026155854 -0.019590613 -0.03513018
000030 3a 51 69 bc 2e e8 7a 3d 3e 0a be bc 1e ac ee 3c
       -0.014240557 0.06125658 -0.023198243 0.029134806
000040 64 a9 1b 3d 19 bc 02 bd d5 2c 34 3c 29 30 1f 3c
       0.03800334 -0.031917665 0.010997017 0.009716072
000050 c3 3c 93 3c db 67 1c bc 95 6c b3 bc 74 67 ea bc
       0.01797331 -0.009546245 -0.021902362 -0.028613783
000060 eb bc 00 bd e3 31 40 3d d0 d5 cc 3c 79 cd 8f 3c
       -0.031430166 0.046922576 0.025004297 0.017554032
000070 e7 cb 92 bc b1 a4 6d 3c 21 76 24 bd 28 ad 49 bc
       -0.017919494 0.0145045975 -0.04015172 -0.01230935
000080 64 08 c0 3a 34 52 7a bc 6f 3c 50 3c 56 84 41 3c
       0.0014650938 -0.015278388 0.012709721 0.0118113365
000090 05 80 2e 3d b7 46 56 bd e0 13 11 3d a0 73 b8 bc
       0.042602558 -0.052313533 0.035419345 -0.022516072
0000a0 02 bf f5 bc ac b8 07 bd 69 fc 2b 3d 6d 67 52 bd
       -0.029998306 -0.0331351 0.041988764 -0.051368166
0000b0 c0 1b 27 3d 89 1b 4e bd 47 2c 3f 3c 00 64 d8 3c
       0.04079795 -0.05031923 0.011668271 0.026414871
0000c0 93 2a 0f bd b3 64 4d 3d 20 1d 44 3d 0e 52 d6 3c
       -0.03495271 0.050144862 0.04787934 0.026162174
0000d0 08 91 68 3d 9b e8 17 3d 38 34 4d bc 0a ad 18 bd
       0.056778938 0.037087064 -0.012524657 -0.037274398
0000e0 fd ea 0b bd 69 a5 43 bd 91 ed f0 3c 80 7b 5e bd
       -0.03415965 -0.04776517 0.029410155 -0.054316998
0000f0 df f8 52 3d 3a 78 b3 3c ea be ff 3c 36 5d 9a 3c
       0.051506873 0.021907914 0.031218965 0.018843275
000100 d2 64 a7 bb a7 9b d6 bb 6c a2 b9 3b e1 47 20 bc
       -0.0051084543 -0.006549317 0.005665114 -0.009782762
000110 ff fb 47 3d 7c 69 41 bd 18 37 71 3c 64 99 cc 3c
       0.048824307 -0.04721974 0.014722608 0.024975486
000120 ba 35 e9 bc 95 9c 4b 3b 65 07 80 bb 0c e9 69 bd
       -0.028468002 0.0031068672 -0.0039071315 -0.057107016
000130 e3 e1 12 bd be 61 2a 3c 10 1d c3 bc 18 bf d3 3c
       -0.035859954 0.01039928 -0.023817569 0.025847957
000140 c6 c0 91 3c ed b6 13 bd f1 42 05 3d 66 5f 59 bc
       0.017792117 -0.036063123 0.032534543 -0.013267374
000150 66 c8 40 bd 5a a1 19 3d ae 43 ed 3c bb d6 bd 3c
       -0.047066115 0.037507392 0.028962936 0.02317368
000160 20 96 37 bd 75 b5 17 bd 43 4f 21 3c 58 4c 14 bc
       -0.044820905 -0.037038285 0.009845558 -0.009051405
000170 ba 02 31 bd 6f 72 02 3c 1a 82 37 3d 7c f2 e7 3c
       -0.04321549 0.007961853 0.04480181 0.028313868
000180 0d 92 ab 3c 38 4c 4c bc c2 ba 3a bd 4b 3f 5c 3d
       0.020943666 -0.012469344 -0.045588262 0.0537713
000190 26 19 8b 3c c2 ac d6 bc f8 e0 9c 3c 7b 68 c4 3c
       0.016979765 -0.026205424 0.019150242 0.023975601
0001a0 59 7b f9 3b 0a 1e 3e 3d 34 ab 2f bd 34 f1 cf 3c
       0.007613581 0.046415366 -0.04288788 0.02538357
0001b0 ac 62 3c 3d 48 88 73 bd 7d 69 3b 3c 02 06 53 3c
       0.04599254 -0.05945614 0.011438725 0.01287985
0001c0 68 fe 86 3c 01 8e 37 3d d6 bd c8 3b d9 46 e8 bc
       0.016478732 0.04481316 0.006126146 -0.028354095
0001d0 cf f8 aa bb 5a 74 2b 3d e1 27 6a 3d 27 ef 33 bd
       -0.0052176486 0.04185901 0.057166938 -0.043929245
0001e0 cc f7 ff bc 04 48 17 3d 4c bb 20 3d 18 4f 8e bc
       -0.031246088 0.036933914 0.03924112 -0.0173717
0001f0 bd dc 35 3d cd 17 7c 3c 92 f1 e5 3c 56 54 32 ba
       0.044399966 0.015386534 0.028069291 -0.0006802728

fc3.weight f4 [128, 128]
000000 95 e8 89 bc fd 1e 5c 3d 51 6a 3d bd 73 88 bb 3b
       -0.016834537 0.05374049 -0.04624397 0.005723053
000010 da 2f 87 3d f5 d1 9d bd 74 26 35 3d d8 6d db bb
       0.06600924 -0.07706062 0.044226125 -0.006696444
000020 3b 7f 84 bc ba ff c2 3c 8b e2 a5 bc 5b 9a be 3d
       -0.01617395 0.02380358 -0.020249626 0.09306785
000030 de eb 7c bc 06 12 21 3c 39 be 82 3d fc 95 5f bd
       -0.0154370945 0.009830957 0.06383938 -0.054586396
000040 76 bc 77 bd a1 f0 88 bd c7 dd 3f bd a3 c3 1e 3d
       -0.060482465 -0.06686521 -0.046842363 0.038760792
000050 49 1c 97 3d dd ee a1 3b af 02 7e bc 05 0d b1 3c
       0.07378442 0.004941805 -0.0155035695 0.021612654
000060 23 06 03 3e f1 c3 83 bd b8 5e 76 3c 2e 50 1f bd
       0.1279531 -0.06433857 0.015037231 -0.038894825
000070 a6 8c 85 3b b3 f1 ae bc b7 04 5a 3d 98 e5 0a 3c
       0.0040756045 -0.021355486 0.053227153 0.008477591
000080 fa 25 e0 3c 99 c4 98 3c 17 85 3d 3d 35 52 8c 3d
       0.027361859 0.018648433 0.046269502 0.06851617
000090 7b 98 42 bd 06 8f 76 b9 89 21 00 ba 49 fc 4e bd
       -0.047508698 -0.00023513669 -0.00048878096 -0.050533567
0000a0 8e a5 05 3d 58 9d e4 3c b8 64 1e 3c f7 fb af 3d
       0.03262859 0.027907059 0.009667568 0.0859298
0000b0 22 f4 1b 3d d3 15 7a 3d e8 b0 af 3c d5 eb af bd
       0.03807462 0.06105597 0.02144666 -0.08589903
0000c0 b8 74 ac bc 8f 43 79 3c 53 ea 06 3e 75 59 3a bd
       -0.02105175 0.015213861 0.13175325 -0.04549547
0000d0 0c c7 05 3c 6b da 07 bd 4d 4c 26 bd c0 75 84 bd
       0.008165132 -0.033167284 -0.04060011 -0.064677715
0000e0 a2 9e fe 3c 9c 3c 9f bc d8 0a 84 3d 6b fa 03 3e
       0.031081501 -0.01943808 0.06447381 0.12888496
0000f0 63 45 67 3d 57 bc 8e 3c c7 0b 95 bc 48 a4 12 bd
       0.056462657 0.017423792 -0.018194092 -0.035801202
000100 c4 30 72 3d 45 c4 71 bb a6 f4 8b 3d 6a d4 34 bc
       0.059128538 -0.0036890667 0.06833772 -0.011036972
000110 08 85 dd bb 0c 6c 90 bd 1e 00 3a 3d c9 0e 91 3d
       -0.0067602433 -0.07051858 0.045410268 0.07082898
000120 24 de 86 bc d5 72 c7 3c b6 7c ba bd 1a 45 42 bd
       -0.016463347 0.024346748 -0.09105818 -0.04742918
000130 eb 47 4b 3d e3 ac e1 3d ac 45 d2 3c 85 51 b7 bc
       0.049629133 0.11019304 0.025667988 -0.022377739
000140 47 70 c0 bc 4f 47 b9 3c d4 13 40 be 93 f8 fe bd
       -0.023491038 0.02261701 -0.18757564 -0.124497555
000150 1b 80 99 3d 68 62 17 3d 96 b9 d5 bc cf e0 db 3d
       0.07495137 0.036959082 -0.02608947 0.10736238
000160 89 87 9c 3b de 4a ad bd 55 27 1c bd 81 e8 89 bd
       0.0047768992 -0.084615454 -0.038123447 -0.067338
000170 fb db 74 bd c0 0e e9 3c 08 1e 19 3d eb 3f 8b bd
       -0.059780102 0.028449416 0.037382156 -0.06799301
000180 97 77 17 bd 04 55 26 bc f8 3f 1f 3c 20 9c 7f bd
       -0.036979284 -0.010152105 0.009719841 -0.06240475
000190 e6 e7 94 bd ee 3a 7d 3c 11 8f ab bb d8 81 1d 3d
       -0.072707936 0.015455944 -0.0052355607 0.038453907
0001a0 1b 9d 0e 3d 4a 24 ac bd 6f 8a 82 bd b6 f2 5c 3d
       0.034817796 -0.08405359 -0.0637406 0.053942405
0001b0 0d d3 1b bd 1e e3 9f bd 81 44 84 3c 0c 07 a6 bc
       -0.03804307 -0.07806991 0.016145946 -0.020267032
0001c0 a7 e9 e5 bd 68 ed 38 3d 35 85 12 3c 56 4f 83 bc
       -0.11226206 0.045148283 0.008942892 -0.016029041
0001d0 b7 13 8c 3b 16 a2 69 3d e8 a0 a5 3c ef c9 96 ba
       0.004274811 0.057039343 0.020218328 -0.0011504273
0001e0 0d 65 21 bd 9d 1e 1e bc 5d 0b 61 3c a7 d8 d4 3c
       -0.03940301 -0.009650853 0.013735619 0.025982214
0001f0 66 11 bf bd 8c ce 01 3d cf 3f 8f bd e8 0d 54 bd
       -0.0932949 0.03169112 -0.069945924 -0.051771075
000200 3c c7 71 bd db 45 14 bd 8a 7e 95 3c bc 6a 70 3d
       -0.059027895 -0.036199432 0.018248815 0.05869554
000210 c1 1e a2 bd 6f 32 22 bd e0 c9 1c 3c 5f c9 7c 3d
       -0.07916022 -0.03959888 0.009569615 0.06171548
000220 15 d5 9e bd a5 66 4d 3d cd 53 83 bd f9 36 46 3d
       -0.07755486 0.050146718 -0.06412468 0.04839227
000230 c6 6f ad ba 7d 14 69 bc ee a0 7d 3d b8 05 6c 3d
       -0.0013232164 -0.014226076 0.061921053 0.05762264
000240 42 63 83 bd a8 8b 1f bd f3 be 09 3d 5c 57 6b 3d
       -0.06415416 -0.038951546 0.03362937 0.05745636
000250 bd ed 8e 3d 3e 6c 2a bd 0a 96 ba 3c f1 89 9f bd
       0.06978939 -0.041607134 0.022776622 -0.07789982
000260 23 b0 28 bd 27 ab 80 bd 89 30 ce bc 50 4f 96 bc
       -0.041183602 -0.06282645 -0.025169628 -0.018348366
000270 50 41 81 bd 74 3f 4b 3d 7b ac 49 bd 0b e7 c5 bc
       -0.063112855 0.04962106 -0.049236756 -0.024158021
000280 0f fd 63 3b ee c9 55 3d bf 60 4f 3c 30 55 06 bd
       0.0034788286 0.05219453 0.012657343 -0.032796085
000290 c9 36 69 bd 8b 17 4c 3c da 8b ae bc 53 d3 1d 3d
       -0.056937013 0.012456785 -0.02130692 0.038531613
0002a0 84 8f a8 bd 5b f0 30 bc 10 be 37 3d 03 4a 57 bd
       -0.082304984 -0.010799493 0.044858992 -0.052560817
0002b0 be 80 5d bd df 48 88 3d 36 09 35 3d c5 65 38 bd
       -0.054077856 0.06654524 0.044198237 -0.04501893
0002c0 96 9e 35 bd 80 ba ae bd e8 cd 85 bc af 4c a0 3c
       -0.044340692 -0.08531666 -0.016333535 0.019567816
0002d0 f5 26 35 3d 84 46 80 3c 2a 0e ba bd bc cb 91 bd
       0.044226605 0.015658624 -0.09084733 -0.071189374
0002e0 6a 18 68 3d 8c bb 47 bc 5f 0b 32 bc ce 49 34 3c
       0.056663908 -0.012190711 -0.010866969 0.0110039245
0002f0 1e 3e a5 3b cd 76 81 bc 37 90 a0 3c 7d 37 4e 3d
       0.0050428053 -0.015803719 0.019600017 0.050345886
000300 1b ce 58 3d 1d 63 a7 bd 89 a0 23 bc 37 5a 76 bc
       0.052930932 -0.08173201 -0.009987005 -0.015036157
000310 bc 7b 84 bd d4 ee e0 bc c9 cb 3d bd 4d ad 41 3c
       -0.06468913 -0.027457632 -0.046336923 0.011821103
000320 29 69 6a 3d 37 8e 62 3d a5 22 41 3c 49 b8 57 bc
       0.057229195 0.055311408 0.011788045 -0.013166496
000330 73 38 30 3d 52 f5 4d bd cc 4e 0f bc bc 7c 2f bc
       0.043022584 -0.050282784 -0.008746814 -0.010710891
000340 04 79 5a 3a eb 16 13 bc 76 f6 90 bd 07 c8 0e bd
       0.0008334073 -0.008977632 -0.07078259 -0.03485873
000350 c7 07 11 bd c8 fe 23 bd 9c 3d 73 bd 5d 4a 2c bd
       -0.035407808 -0.0400379 -0.059384927 -0.042063106
000360 97 f0 d3 bc 7c 99 a6 bd f6 65 c7 3b a6 27 25 bd
       -0.025871558 -0.081347436 0.0060851527 -0.040321015
000370 ab c1 67 3d 2a 8b 88 bc 8c 45 1d 3c 13 91 b8 bd
       0.05658118 -0.016667921 0.009599101 -0.09012046
000380 aa 4b 34 bc 4b 06 32 3d 50 75 2d bd 19 0a e1 3b
       -0.011004368 0.043463033 -0.042348206 0.006867659
000390 c0 c3 cf bb d5 35 57 bd 93 02 0c 3c e6 c5 d5 bc
       -0.006340474 -0.052541573 0.008545536 -0.026095342
0003a0 64 7b 4b 3d 2a 86 9d bd 63 14 6e bd 28 ee 2a 3d
       0.04967822 -0.076916054 -0.05812491 0.04173103
0003b0 f5 c2 bd bc 3d 45 b2 bd f8 10 19 3d 38 90 a7 3c
       -0.023164252 -0.087046124 0.0373697 0.020454511
0003c0 de e1 22 3d 19 0f 9c bb 56 cf 29 bd e6 0b 7b 3c
       0.039766185 -0.004762542 -0.041457497 0.015322661
0003d0 74 18 ac 3c 86 b4 76 3d 2a c3 b7 bd e8 ad a2 bd
       0.021007754 0.060230754 -0.089727715 -0.07943326
0003e0 88 69 f7 bc 24 ef 6d 3d 2f ea 7d 3d a4 87 1d bd
       -0.030201688 0.05808939 0.061990913 -0.038459435
0003f0 56 52 62 bc 97 4f 1b bd bb ad b7 bc 2b 1b ff bb
       -0.013813576 -0.0379177 -0.022421708 -0.007785221

fc3.bias f4 [128]
000000 95 2c c2 3e eb 83 0b bd 77 bd f8 bc bc 01 57 bd
       0.37924638 -0.034061354 -0.030363781 -0.05249189
000010 f1 68 a6 3c 67 59 ca 3d d6 1f 20 3c b0 29 3d bd
       0.020313712 0.098803334 0.009773215 -0.046182334
000020 9e b7 6c bd 57 03 cb 3d 9d 81 43 3d 15 3e c6 3e
       -0.0577923 0.099127464 0.04773103 0.3871924
000030 6b 86 84 3a 8c 56 a2 bc 83 b7 ea 3c 60 f2 1c bd
       0.001011086 -0.01981666 0.028651958 -0.038317084
000040 9c 8d 9c 3d 7c 4a 91 39 83 4c 36 bd ab 1b 8d 3d
       0.07644197 0.0002771205 -0.04450656 0.06890043
000050 33 e0 82 3d d0 b8 d4 3d 39 7b 20 3d e6 6e f6 3c
       0.06390419 0.10386813 0.039180014 0.030082177
000060 24 4e 8a bd b0 37 a3 bb 90 b0 fb bc fe e1 a0 bd
       -0.067531854 -0.0049810037 -0.03072384 -0.078556046
000070 f8 90 59 3d c6 de 2c 3d 6a 0c 83 3c 62 3e fd 3d
       0.05311677 0.04220464 0.01599713 0.12365414
000080 0d 15 44 3d b2 f3 af 3d 55 b8 26 bd 2f 3f 13 3c
       0.047871638 0.08591403 -0.040703136 0.008987232
000090 d3 78 a1 3c a2 39 de 3d 7a 49 56 bd d4 82 fa 3c
       0.019710934 0.10850836 -0.052316166 0.030579962
0000a0 e8 3f 4a bb 5c ee 85 bd f4 04 91 3c 73 90 8c bd
       -0.0030860845 -0.06539604 0.017702557 -0.06863489
0000b0 e1 18 14 bd 34 2d 35 3d ea ba 2c 3b 7d dc b2 bb
       -0.03615654 0.044232562 0.0026356527 -0.005458413
0000c0 1c 3d 2d bd a5 f1 23 3d 87 b4 92 bd 30 60 01 3e
       -0.042294607 0.040025372 -0.07163339 0.12634349
0000d0 9a 82 e6 3d 36 16 ea 3d fb 5b b3 bd 77 30 9c 3c
       0.11255379 0.11430018 -0.08757778 0.019066079
0000e0 3b 65 00 bd 62 9b 3a bd 5a a0 3e 3d 92 ef fb bc
       -0.03134654 -0.04555834 0.046539642 -0.030753884
0000f0 c5 48 cc 3e f7 3e 36 3d 55 03 46 3d 90 37 58 3e
       0.3989927 0.04449364 0.04834302 0.21114945
000100 b5 42 37 bd f4 41 4b 3d b8 e8 bb bd b6 9d 47 3d
       -0.04474135 0.049623445 -0.09175247 0.04873439
000110 ec 41 b7 3d ae 61 b6 bd 05 79 9a 3c 54 e6 c6 3b
       0.089481205 -0.0890535 0.018856535 0.0060699377
000120 74 a5 fc bc de 15 f7 3c cb 8a 4c bc 42 16 d7 bc
       -0.030840613 0.030161794 -0.012484263 -0.02625573
000130 00 e0 41 bc d7 0e 7e 3d 4f 84 2f bd 20 a4 48 bd
       -0.011833191 0.06202587 -0.04285079 -0.048984647
000140 f5 ca bd 3d 22 2b 00 3d 55 2b b0 bd 0d 50 30 bc
       0.092672266 0.031291135 -0.08602015 -0.010761273
000150 7a 14 8b 3d 1f 2c 85 bd 91 b2 b0 3d ef b7 33 bd
       0.06791015 -0.06502556 0.08627809 -0.043876585
000160 42 68 2b bc b4 37 26 3d ba ea e9 bc bb c8 1e 3e
       -0.010461869 0.040580466 -0.02855431 0.1550626
000170 7f a3 d1 3d 4b af a8 bc 6f 94 8d 3d c6 62 41 3d
       0.102362625 -0.020591399 0.06913077 0.04721334
000180 9e bb cf 3d 57 a7 a1 3c 47 68 b1 3d 68 be 38 3d
       0.10143207 0.019733114 0.086624674 0.04510346
000190 5e a4 93 bd cf cf fd 3d bf d1 86 bc b7 d4 cd 3c
       -0.07209085 0.12393152 -0.016457437 0.025125844
0001a0 24 36 8f 3b 6c 0e 86 bd 6a 41 5f 3d 06 5a eb 3e
       0.0043704677 -0.065457195 0.054505743 0.4596712
0001b0 9f 7e 1b bd fb 8d 4d bc 76 d7 aa 3d 41 23 96 bd
       -0.037962552 -0.012546058 0.08341877 -0.07330943
0001c0 d9 b9 b0 bd f6 72 6a bd 16 16 97 3d 94 68 db bb
       -0.086291976 -0.05723854 0.073772594 -0.0066958163
0001d0 dc 59 d7 bc dd 6f 43 bc 79 8b a2 3c 49 a9 74 3d
       -0.026287965 -0.011928526 0.019841896 0.059731755
0001e0 30 73 a8 bc 49 5d c9 bb 1f cc 8f 3d 0c fc 1b 3d
       -0.020562738 -0.0061451537 0.07021355 0.038082168
0001f0 b5 0f f8 bc cd 5c b2 bc 10 24 72 3d 95 ac 25 3d
       -0.030280927 -0.021772766 0.059116423 0.04044779

fc4.weight f4 [6, 128]
000000 56 06 ee 3d 2c 4b 57 bd e6 e7 0b bd 44 53 f1 3c
       0.11622302 -0.052561924 -0.034156702 0.02945865
000010 96 3c 13 3d 1d a4 d7 3c 62 9c 37 3a 5a 29 83 3d
       0.03594645 0.026323372 0.0007004199 0.064043716
000020 8b e8 9c 3c 5c e2 54 bc 80 05 3d 3d 74 c7 7c 3e
       0.019153854 -0.012993421 0.046147823 0.2468546
000030 0c 3f 83 bd 64 48 63 bd 39 fa e5 3c 91 1c 6f 3d
       -0.064085096 -0.05548896 0.028073417 0.058376852
000040 b7 43 12 bd a8 76 0f bc be 19 83 bc 71 d2 82 3d
       -0.03570911 -0.008756317 -0.016003486 0.06387795
000050 81 3c 2c 3c 2c cc 9a 3d 07 07 24 3c 44 ed 7b 3d
       0.010512472 0.07558474 0.010011441 0.06150557
000060 62 ec 1c bd c1 65 d4 3b 32 84 bc 3c 52 3d 74 3d
       -0.03831137 0.0064818566 0.023012254 0.059628792
000070 87 8d f1 3c 1d 83 81 bd 97 56 31 bd 65 ea c4 3d
       0.02948643 -0.06323836 -0.04329547 0.0961502
000080 75 92 67 bd 2e 95 96 3d 49 fe 0b bd c3 f9 0b bd
       -0.056536157 0.073526725 -0.034178052 -0.03417374
000090 c7 5c 45 3b 90 8f fd 3c 62 1d 8e bd 8c 16 4b 3d
       0.0030115114 0.030952245 -0.06939198 0.04958205
0000a0 b7 d0 1e 3d f6 06 dc 3a 26 19 5d bc 9c cf b2 3c
       0.038773265 0.0016786742 -0.013494765 0.021827511
0000b0 79 32 35 bc 88 2c 80 3c 2c 2c fb bc 46 96 00 bd
       -0.011059397 0.015646234 -0.030660711 -0.031393312
0000c0 5d a3 42 3d 71 af c9 3c 42 98 4b bd f0 f9 13 3d
       0.047519077 0.02461979 -0.04970575 0.03612703
0000d0 eb 9d 75 3d 65 d3 46 3d 45 a9 56 bd 38 84 f6 3c
       0.059965055 0.048541445 -0.05240752 0.030092344
0000e0 e8 60 58 bd b5 9a d8 3b f5 fa 6b bd 96 48 4a bd
       -0.052826792 0.0066102394 -0.05761238 -0.04938563
0000f0 55 ce ac 3e 15 d9 46 bc 1b ae 78 bd 12 4e f3 3d
       0.3375117 -0.012136717 -0.060712915 0.11880125
000100 f0 9a 2d bc 93 36 03 bd 8c 2b 59 bd 6b 70 a0 3d
       -0.010596022 -0.032034468 -0.053020045 0.07833942
000110 96 e6 9c 3d 50 12 62 bd fd 3c ba 3c 7b e9 3d bd
       0.07661168 -0.055193245 0.02273416 -0.046365242
000120 63 ea aa 3c 84 e6 a2 3d e4 c0 37 3d 7b 06 39 3d
       0.020863717 0.079541236 0.04486169 0.045172196
000130 ba 71 47 3d 5c 46 9d 3d 84 66 31 bc ad 4f d2 3c
       0.048692442 0.076794356 -0.010827664 0.025672758
000140 ed 8f 4e 3c 2b 2d c1 bc 1f 52 ca 3c ba ca 90 3d
       0.012607557 -0.023581108 0.024697362 0.07069917
000150 ac 44 48 3b 87 e4 9b 3d 6c 1f 32 3d ab 4c 82 bc
       0.003055851 0.076119475 0.043486997 -0.015905699
000160 87 0f 85 bc bf 51 a5 3d 1d dd 75 bd 0b d6 0a 3e
       -0.016242756 0.080722325 -0.060025323 0.13558213
000170 01 06 af 3d 01 f9 61 bb ff e7 a4 3d aa 03 f8 3c
       0.08546067 -0.0034480693 0.08052062 0.030275185
000180 32 03 66 3d ed c8 f8 bc 17 51 d7 3d 51 cb 76 3d
       0.05615539 -0.030369246 0.105135135 0.06025249
000190 5d f0 7a bd 47 e1 68 bb da 4f 89 bb 01 4e 71 bb
       -0.061264385 -0.0035534666 -0.0041904273 -0.0036820176
0001a0 eb 93 16 3d 02 c8 93 bc e9 bc 94 3d 3f 01 08 3f
       0.03676216 -0.018039707 0.07262594 0.531269
0001b0 4c f1 ee bd 93 a2 7e bd 5b 74 0f bc 57 e5 e0 3c
       -0.116671175 -0.06216676 -0.008755769 0.027453108
0001c0 f2 41 12 bd 62 18 84 3d a5 0f 39 bd 48 28 99 3d
       -0.03570742 0.06449963 -0.045180935 0.07478386
0001d0 b1 1e 01 3d df 11 80 3c 1f 7b 05 3c 39 e2 b2 3d
       0.03152341 0.015633522 0.00814703 0.08734555
0001e0 ed 34 33 bd 0f 43 63 3d c4 b9 82 3d 8c 7b 00 bc
       -0.043751646 0.055483874 0.06383088 -0.007841956
0001f0 86 e4 89 3c b9 81 0d bd 13 75 95 3d 9e 54 6d 3d
       0.016832601 -0.03454754 0.07297721 0.057942025
000200 a9 4a 60 3b 87 1d 16 3c 1b 45 9f bc 14 7d 79 bb
       0.0034224188 0.009162313 -0.019442132 -0.0038068937
000210 ab fc 4a bc 97 cf 08 bd 04 86 36 bd ac 16 f7 bb
       -0.012389342 -0.033401098 -0.0445614 -0.0075405445
000220 f5 5f 15 bc 14 b6 15 3d a5 6d 02 bd 91 90 04 bd
       -0.009117116 0.036550596 -0.031842846 -0.03236443
000230 a0 39 6d bc 40 25 93 3c 05 c0 0b b9 1f 5b 23 bc
       -0.014479071 0.017962098 -0.00013327606 -0.009970455
000240 7a bb 94 3b 64 ec 87 3d fc bb b3 3c 06 c5 fd b9
       0.0045389505 0.06636885 0.021940224 -0.00048402714
000250 72 e6 38 3d 68 fc 42 3c 9a a6 f2 38 a1 19 08 bc
       0.045141645 0.011900999 0.00011570491 -0.008306892
000260 88 d3 af bc 40 96 5f 3c 5b e8 d6 3b 6e bb f0 bb
       -0.02146317 0.013646662 0.0065584606 -0.007346562
000270 5b ca 9d 3c d4 af 72 3a 47 5b ca 3c b5 4b 18 3d
       0.01926153 0.0009257768 0.024701728 0.037181575
000280 9b aa 23 bd 56 54 28 3d e6 a7 f6 bc 08 4c 31 3d
       -0.039957624 0.041096054 -0.030109357 0.0432854
000290 a4 ab 88 bb 5d 70 1a bb 90 43 78 bc 90 5b 85 3c
       -0.004170852 -0.002356551 -0.015152827 0.016279012
0002a0 a8 73 6d 3c 30 63 6e 3b ed a1 80 3b 27 29 88 3a
       0.014492907 0.0036375038 0.003925553 0.0010388241
0002b0 93 cc db bc 7b 27 8b bb 6d c1 11 bd 74 50 8d bb
       -0.026830947 -0.00424665 -0.035584856 -0.0043125693
0002c0 38 72 20 3d 69 d2 6f bc e4 56 23 3c 9f e7 5e bc
       0.039171427 -0.014637568 0.009969447 -0.013605027
0002d0 63 08 55 3c bb 27 fb bc c7 16 d8 bc 76 37 aa bc
       0.013002488 -0.030658593 -0.026378049 -0.020778399
0002e0 9b a1 ad bc 26 46 56 bd 2e 9f 4e 3c 7a ca 1c 3d
       -0.021195224 -0.052312993 0.012611194 0.038279034
0002f0 25 87 56 3c 03 4f cd 3a 55 8e ee 3b 3c 85 1d bc
       0.013093744 0.0015663806 0.007280151 -0.009614285
000300 93 75 4b 3d 36 f4 ba bb ba 88 fe bc 67 26 07 bb
       0.049672674 -0.0057053817 -0.031071056 -0.0020622255
000310 ea 2d 35 3c 88 2e a0 bd 12 0e 1e bd e7 27 80 bd
       0.01105831 -0.07821375 -0.038587637 -0.06257611
000320 96 e7 5e bd 1d 9c 11 bc 97 51 bf bc 7d dd 11 3c
       -0.054420076 -0.008887318 -0.023354335 0.008902905
000330 9d 2c 38 3c 75 11 60 3c 8e 97 c7 3c d5 73 15 bc
       0.011241105 0.013676037 0.02436426 -0.009121855
000340 ce 50 1c bd a4 4a 12 bc bc 10 bf bc 2a 0e 2b 3c
       -0.038163 -0.0089289285 -0.02332341 0.010440389
000350 b7 f4 76 bc e7 56 b0 3b 18 a4 8e 3c 62 4e 88 bd
       -0.015072993 0.0053814533 0.01741223 -0.06655575
000360 04 34 09 ba fa f7 69 3c 03 f8 95 3c 97 a0 b5 3c
       -0.0005233886 0.014280314 0.018306738 0.022171302
000370 80 b0 61 bc bf 63 b0 bc 86 b3 02 bd 75 20 f6 3b
       -0.013774991 -0.021531938 -0.03190949 0.0075111934
000380 61 be 24 3d a6 9c 06 bc fd c7 e1 bb 15 3e 02 3c
       0.040220622 -0.008216059 -0.0068902955 0.007949372
000390 cc ef e1 3c 66 23 c9 bb b4 84 33 3d 93 b8 04 3c
       0.027580164 -0.006138253 0.043827727 0.008100647
0003a0 a2 31 1e bd c8 43 1e 3d e8 ab f8 bc 9d 7f 1b 3d
       -0.038621552 0.03863886 -0.030355409 0.0379635
0003b0 6b 25 38 3d ee 64 3f 3d 4e 32 84 3a 25 00 7e bd
       0.04495756 0.046727113 0.0010085793 -0.062011857
0003c0 23 89 0a 3d 03 f1 5c bd e6 d0 89 bc b1 06 d1 bc
       0.03382219 -0.053940784 -0.016823243 -0.025515886
0003d0 35 74 bb 39 f8 7f 20 bd 4b bc 32 3c 1c bf bc 3c
       0.00035754 -0.03918454 0.01090915 0.023040347
0003e0 1b 56 00 bc e0 6f 91 3c 2f 7f 18 bd 8d 7d 7d 3c
       -0.007833029 0.017753541 -0.037230667 0.015471828
0003f0 48 c3 65 3d 89 be 10 3c 32 02 29 3d 4c 6f a0 bb
       0.056094438 0.00883449 0.04126186 -0.00489608

fc4.bias f4 [6]
000000 56 ad a1 bc 75 1f 5b 3d e4 e1 47 bd b3 ac 67 3b
       -0.019735973 0.053496797 -0.04879941 0.003535074
000010 7b 4c ba 3d 46 cc 28 3d
       0.09096619 0.041210435
