megasena_model_6.pth (torch, 211116 bytes, 8 tensors)

fc1.weight f4 [256, 6]
-0.17191419 -0.11293531 -0.18158823 0.26842594 -0.045414817 0.09193596 -0.25080582 -0.010320429
-0.2227512 0.42867348 0.01662129 -0.05326029 -0.0019284092 -0.35720316 0.2296004 -0.2679154
0.34391192 -0.2738442 -0.20814584 -0.35427403 0.2791722 -0.20440015 -0.0273716 0.1904099
0.31439084 0.021487385 0.0767657 0.26080385 0.29457366 -0.20251474 0.19309767 0.2014182
-0.29548243 -0.28246117 0.3365335 -0.27166277 0.2607526 -0.028381431 0.19542089 -0.31145263
-0.23436475 -0.019703772 -0.28041428 -0.08898987 0.14759168 0.13529378 -0.30091095 -0.120165385
0.10852576 0.23746811 0.3315023 0.17240915 -0.061507247 0.13740556 -0.14440566 -0.18266867
-0.22951698 0.17334725 -0.30740535 0.017690474 0.010821252 -0.048515093 -0.13064073 -0.07225345
0.15949337 -0.2219315 0.19171436 -0.1946877 -0.14499195 0.17396876 -0.1709247 0.059027083
-0.1557661 -0.19048491 -0.19708614 0.2694015 -0.29449058 -0.2198477 -0.049566913 0.31365815
-0.26892754 -0.08003634 0.29898804 0.26751557 0.35899004 -0.013596298 -0.25440538 0.11076832
0.26094916 -0.33110002 -0.27706254 0.13637197 0.27929258 -0.07742473 0.0409655 0.17567565
-0.1548069 0.22089435 -0.04768912 -0.16703917 -0.12307636 0.07401969 -0.0729199 -0.2561858
0.10102702 -0.2470095 -0.24286981 -0.24663873 -0.35592213 -0.3074444 -0.3277446 -0.21236439
0.3545626 0.009778107 0.30637887 -0.32546195 -0.3289784 -0.07252673 -0.15599725 -0.30914983
-0.26926798 0.118885286 -0.046615604 -0.18947789 0.21518473 0.24367376 0.05472542 0.31028017
0.12612768 0.31809628 -0.23471984 -0.25377688 0.10826362 0.13335697 0.24332254 -0.16418782
-0.101931326 0.19399603 0.25641584 -0.039070863 0.16212589 -0.038539834 -0.057247125 0.35262185
-0.059441663 -0.28363234 0.07049101 -0.19509758 -0.028290605 0.23392479 -0.10906439 0.025861407
0.033640664 0.20536655 -0.12043114 0.19270605 -0.33869383 -0.13264275 0.2420143 -0.076943345
-0.1391657 -0.3191242 0.26482162 -0.23183022 0.11042155 0.32707247 -0.12451398 -0.2513254
-0.1841211 0.057895724 0.3452752 0.023694294 0.23615372 -0.05057674 -0.08771284 0.025583405
0.43696007 0.25930694 -0.063467965 0.29189163 0.34964246 0.13187125 0.14854436 -0.08472259
0.12147699 0.13980669 0.2835151 0.11634539 0.14628285 -0.09052411 -0.37158635 -0.037557565
-0.21058172 0.05644257 0.29326424 -0.33088124 0.34569758 0.111582205 0.2857785 -0.271808
-0.13768588 0.20715043 -0.23718578 0.041757375 0.3241621 0.11620813 0.23681857 -0.17875902
-0.10823993 0.06266316 -0.004885521 -0.043054953 0.18455996 -0.010908909 -0.35966828 -0.16085468
-0.14514157 -0.30206478 -0.2544589 -0.13539746 0.13526143 0.018737687 -0.3387527 0.30951586
0.17855465 0.004711364 -0.1250479 -0.29005527 0.017943518 -0.1948988 -0.2144676 -0.1006145
0.025335437 0.15013218 0.08233105 0.36562186 -0.023983428 0.18686447 -0.16536735 -0.25026128
-0.23075068 0.12773216 -0.02305929 0.12234706 -0.08625015 -0.18612058 -0.06479815 -0.25097242
-0.3432803 0.34753722 0.08232729 0.26382074 0.23920886 0.10697014 -0.043226425 0.026841836
00000000: 460a 30be a14a e7bd 44f2 39be 206f 893e
00000010: e304 3abd ec48 bc3d 9f69 80be 0417 29bc
00000020: e418 64be 177b db3e 5f29 883c 7627 5abd
00000030: adc2 fcba 55e3 b6be 5e1c 6b3e 352c 89be
00000040: 3915 b03e 4f35 8cbe 2f24 55be 6863 b5be
00000050: a9ef 8e3e 464e 51be 683a e0bc d0fa 423e
00000060: d6f7 a03e 5006 b03c 5637 9d3d 1588 853e
00000070: 5cd2 963e 0660 4fbe 65bb 453e 9340 4e3e
00000080: 7949 97be c09e 90be 1e4e ac3e 6217 8bbe
00000090: 5d81 853e 2d80 e8bc 6a1c 483e b876 9fbe
000000a0: 50fd 6fbe ce69 a1bc 7692 8fbe 5240 b6bd
000000b0: 4622 173e 748a 0a3e 0011 9abe 4519 f6bd
000000c0: c142 de3d d72a 733e abba a93e 068c 303e
000000d0: 06ef 7bbd 0bb4 0c3e 14df 13be 7f0d 3bbe
000000e0: 8006 6bbe f181 313e 3c64 9dbe 9deb 903c
000000f0: 9f4b 313c c3b7 46bd afc6 05be 9ef9 93bd
00000100: 3b52 233e 0342 63be c550 443e 365c 47be
00000110: c578 14be de24 323e e206 2fbe 62c6 713d
00000120: 2681 1fbe 7a0e 43be f3d0 49be feee 893e
00000130: 78c7 96be c11f 61be ad06 4bbd cd97 a03e
00000140: dfb0 89be 18ea a3bd f614 993e cdf7 883e
00000150: 8bcd b73e 02c3 5ebc 6c41 82be 80da e23d
00000160: 219b 853e f185 a9be 24db 8dbe 18a5 0b3e
00000170: 70ff 8e3e db90 9ebd 71cb 273d 51e4 333e
00000180: b385 1ebe 2132 623e ab55 43bd 510c 2bbe
00000190: 750f fcbd a397 973d 0757 95bd c92a 83be
000001a0: 41e7 ce3d 0ff0 7cbe ddb2 78be dd8e 7cbe
000001b0: 6d3b b6be 5a69 9dbe 24ce a7be 0d76 59be
000001c0: 3b89 b53e 5a34 203c b1dd 9c3e f3a2 a6be
000001d0: db6f a8be e588 94bd bebd 1fbe e348 9ebe
000001e0: 7edd 89be 217a f33d 01f0 3ebd 7e06 42be
000001f0: 6359 5c3e 9d85 793e c327 603d 0bdd 9e3e
00000200: 9d27 013e 84dd a23e 665a 70be 0bef 81be
00000210: 51b9 dd3d bb8e 083e 8b29 793e da20 28be
00000220: 5fc1 d0bd e5a6 463e f048 833e c508 20bd
00000230: 5404 263e f2db 1dbd f67b 6abd da8a b43e
00000240: 1a79 73bd 4238 91be 975d 903d a9c7 47be
00000250: b3c1 e7bc fb89 6f3e 275d dfbd 4ddb d33c
00000260: cbca 093d 9c4b 523e 9aa4 f6bd bc54 453e
00000270: 4769 adbe 80d3 07be 99d2 773e 7994 9dbd
00000280: 7481 0ebe 3f64 a3be b396 873e e764 6dbe
00000290: b224 e23d 0b76 a73e 2f01 ffbd b9ad 80be
000002a0: 3e8a 3cbe 1124 6d3d e9c7 b03e 891a c23c
000002b0: 48d2 713e 8e29 4fbd caa2 b3bd 4a94 d13c
000002c0: 3bb9 df3e e1c3 843e 7efb 81bd d272 953e
000002d0: 5604 b33e 4209 073e 031c 183e 0a83 adbd
000002e0: eec8 f83d 7c29 0f3e e428 913e 7e46 ee3d
000002f0: 2ccb 153e b464 b9bd 9140 bebe f6d5 19bd
00000300: bca2 57be 5330 673d bb26 963e 4469 a9be
00000310: 46ff b03e 3685 e43d 8f51 923e 6b2a 8bbe
00000320: 87fd 0cbe 3e1f 543e d4e0 72be c809 2b3d
00000330: 93f8 a53e 87fe ed3d 9180 723e 9b0c 37be
00000340: e5ac ddbd 8b55 803d b816 a0bb 645a 30bd
00000350: 49fd 3c3e 48bb 32bc 7126 b8be 17b7 24be
00000360: fe9f 14be 3ca8 9abe 7048 82be a2a5 0abe
00000370: f981 0a3e c77f 993c fe70 adbe dd78 9e3e
00000380: 08d7 363e c961 9a3b 8f0c 00be 2082 94be
00000390: 49fe 923c 8d93 47be 659d 5bbe fa0e cebd
000003a0: 438c cf3c 40bc 193e 2e9d a83d ca32 bb3e
000003b0: e578 c4bc 6659 3f3e 0f56 29be 3f22 80be
000003c0: e849 6cbe 38cc 023e d6e6 bcbc 1891 fa3d
000003d0: eba3 b0bd 6596 3ebe e4b4 84bd 757f 80be
000003e0: 6fc2 afbe 66f0 b13e 369b a83d 8313 873e
000003f0: 2bf3 743e 2913 db3d 310e 31bd 69e3 db3c

fc1.bias f4 [256]
0.361815 -0.021933222 0.004079725 0.11651094 0.3525228 -0.055309106 -0.21723807 -0.24136306
-0.3351308 0.24452005 0.31551185 0.3235917 0.044789433 0.05428667 0.12713332 0.30609936
0.27384531 0.3968392 0.08868842 0.23929426 -0.03443534 0.17619474 -0.3528038 -0.01020796
0.098742075 -0.15884346 0.23596399 0.29144466 -0.32509583 -0.063703135 -0.00010064486 0.11515585
0.29589877 -0.06485524 0.23717369 -0.0392159 -0.20336841 0.32282403 0.06663539 -0.11230098
-0.17153987 0.2655691 -0.11596503 0.013148428 -0.12467573 0.02891208 0.19650556 -0.07551062
-0.073321104 0.103219 -0.12986512 -0.18174413 -0.06709135 0.25353608 0.26939204 -0.32108378
0.09705102 0.25233108 -0.026793584 -0.16434486 -0.06618755 -0.18441676 0.032975163 0.18560317
-0.25194296 0.119646125 0.03277385 0.20621313 -0.105129555 0.013600379 -0.116513655 -0.15809953
-0.212742 0.11768755 0.07804939 0.09224398 -0.114044525 -0.08933076 -0.033413514 0.15936543
-0.013898699 -0.32447165 0.18066326 0.3546041 -0.18425666 -0.06954181 -0.080582686 -0.33460656
0.24487278 -0.12432594 -0.34113923 0.27208844 0.14471854 0.36139405 0.1314974 0.16990772
0.02332851 0.33966154 -0.041096285 0.34023774 0.26493445 0.14445145 0.24169998 -0.19284531
0.37023154 0.068251535 0.16129349 0.20380652 -0.15702718 0.03912501 -0.09359734 0.30561712
-0.12916455 -0.28627044 0.039817877 0.31634843 0.26114908 0.1526567 0.033196993 0.067670554
-0.2295451 -0.06376711 0.012362115 -0.3387909 0.33494756 0.24356645 0.2846397 -0.35818097
0.23528278 0.17348956 -0.15869501 -0.16892806 0.01986469 0.32328606 -0.3359741 0.029524287
0.31645674 -0.14003097 0.09298773 0.1318578 0.032800782 -0.08238435 -0.3373883 0.18943107
-0.19791079 0.29702905 -0.12692276 -0.1747039 0.34728974 -0.1567677 0.021648904 -0.2640259
0.26271772 -0.24910054 -0.34898412 -0.025797933 0.37330857 -0.1809648 0.005919757 0.13334966
-0.16861762 0.007215848 -0.14389098 0.058073387 0.101072595 -0.10143872 -0.21973093 -0.36699563
-0.16501594 0.29622072 0.1241936 0.29576606 0.33573192 -0.34090623 0.27875265 0.069766976
0.02085543 -0.10473372 -0.079724655 0.19426969 0.021169417 -0.30734807 0.16666439 0.31054008
0.043213237 -0.3562151 0.042252474 -0.23239078 0.093397185 -0.24094017 -0.20173338 -0.31571618
0.13992658 -0.19763055 0.14246257 -0.0489744 -0.18937376 -0.3027411 0.26524132 0.34203905
0.13698724 -0.2754258 -0.3247233 0.052251033 -0.13312788 0.02927644 0.31942564 0.18815304
-0.19371004 -0.30462193 -0.30255556 0.15053746 0.16246635 0.41946936 -0.19083847 -0.049622875
-0.0677978 0.06493922 -0.23477694 0.034854013 0.27051193 0.18961257 0.11567732 0.17183398
-0.20868106 0.07892958 0.35422447 -0.20315774 0.27210554 0.22304863 -0.05191509 -0.37660375
-0.36550623 -0.08233907 0.12926476 -0.15326738 0.05678614 0.2674075 -0.0014085051 0.35524938
0.19212228 0.3337046 0.40998662 0.31187814 0.26497003 -0.100678004 -0.15404895 -0.12372637
-0.2768372 0.2288022 0.11734221 0.25966007 -0.09872819 -0.33422583 -0.35615528 0.21178988
00000000: d13f b93e 4dad b3bc 37af 853b 4a9d ee3d
00000010: de7d b43e cd8b 62bd a873 5ebe e127 77be
00000020: 4496 abbe 7763 7a3e c58a a13e d0ad a53e
00000030: 2075 373d b35b 5e3d 3d2f 023e 0eb9 9c3e
00000040: 7435 8c3e 822e cb3e 46a2 b53d 8e09 753e
00000050: 120c 0dbd 656c 343e b3a2 b4be 4a3f 27bc
00000060: 4939 ca3d dca7 22be 8ba0 713e 3c38 953e
00000070: f672 a6be ca76 82bd 4c11 d3b8 d5d6 eb3d
00000080: 0b80 973e d3d2 84bd a9dd 723e daa0 20bd
00000090: cf3f 50be 3149 a53e 2378 883d 0efe e5bd
000000a0: 26a8 2fbe acf8 873e 137f edbd 816c 573c
000000b0: fd55 ffbd 07d9 ec3c c138 493e 50a5 9abd
000000c0: 6029 96bd 7c64 d33d 5dfb 04be 221b 3abe
000000d0: 3167 89bd 7bcf 813e c1ed 893e 1865 a4be
000000e0: afc2 c63d 8a31 813e 387e dbbc 054a 28be
000000f0: 578d 87bd bfd7 3cbe f710 073d c20e 3e3e
00000100: abfe 80be 0709 f53d df3d 063d 8929 533e
00000110: 2a4e d7bd 20d4 5e3c b69e eebd d8e4 21be
00000120: 0ad9 59be 2c06 f13d 5cd8 9f3d 69ea bc3d
00000130: 2d90 e9bd 0cf3 b6bd 9cdc 08bd b130 233e
00000140: 5eb7 63bc 2621 a6be caff 383e ab8e b53e
00000150: c7ad 3cbe f06b 8ebd 8908 a5bd 8d51 abbe
00000160: eebf 7a3e 999e febd cda9 aebe 2d4f 8b3e
00000170: 1931 143e a408 b93e 41a7 063e 4afc 2d3e
00000180: 6e1b bf3c 1ee8 ad3e 9454 28bd a433 ae3e
00000190: 7da5 873e 15eb 133e 3380 773e 3e79 45be
000001a0: fd8e bd3e 76c7 8b3d 1f2a 253e a8b2 503e
000001b0: bccb 20be 8c41 203d f6af bfbd d979 9c3e
000001c0: b643 04be 0a92 92be 1218 233d 6cf8 a13e
000001d0: 55b5 853e 0a52 1c3e 92f9 073d dc96 8a3d
000001e0: df0d 6bbe 5598 82bd 788a 4a3c 0076 adbe
000001f0: 3f7e ab3e 7c69 793e 4bbc 913e 7f63 b7be
00000200: f8ed 703e 3fa7 313e f280 22be 7afb 2cbe
00000210: 46bb a23c c085 a53e cc04 acbe ebdc f13c
00000220: 9e06 a23e 4764 0fbe 5a70 be3d bb05 073e
00000230: 1d5a 063d 20b9 a8bd 29be acbe 38fa 413e
00000240: 20a9 4abe 3114 983e 0af8 01be 94e5 32be
00000250: f6cf b13e b687 20be 0b59 b13c 672e 87be
00000260: f082 863e 3614 7fbe 0cae b2be 3056 d3bc
00000270: 4d22 bf3e d64e 39be 85fa c13b d08c 083e
00000280: 19aa 2cbe ec72 ec3b 2858 13be 5cde 6d3d
00000290: 26ff ce3d 1bbf cfbd 2501 61be dae6 bbbe
000002a0: f0f9 28be 3eaa 973e 3759 fe3d a66e 973e
000002b0: 0ee5 ab3e 438b aebe abb8 8e3e fde1 8e3d
000002c0: 02d9 aa3c a27e d6bd ae46 a3bd a2ee 463e
000002d0: 7c6b ad3c ba5c 9dbe 12aa 2a3e 1cff 9e3e
000002e0: 5d00 313d d361 b6be ee10 2d3d d9f7 6dbe
000002f0: 0647 bf3d 05b9 76be 3293 4ebe 8da5 a1be
00000300: ea48 0f3e aa5f 4abe b5e1 113e 6199 48bd
00000310: 32eb 41be e200 9bbe b6cd 873e be1f af3e
00000320: 6246 0c3e 9c04 8dbe 2242 a6be 2e05 563d
00000330: ad52 08be 25d5 ef3c c28b a33e 31ab 403e
00000340: ed5b 46be 68f7 9bbe 90e8 9abe 7e26 1a3e
00000350: 945d 263e b0c4 d63e 296b 43be 5b41 4bbd
00000360: 93d9 8abd dbfe 843d 5e69 70be 15c3 0e3d
00000370: 8a80 8a3e cc29 423e 3be8 ec3d 3ff5 2f3e
00000380: 7db0 55be d5a5 a13d e95c b53e 9508 50be
00000390: 6b51 8b3e dc66 643e eba4 54bd 35d2 c0be
000003a0: a223 bbbe 63a1 a8bd fb5d 043e 20f2 1cbe
000003b0: 9598 683d a3e9 883e 979d b8ba 3fe3 b53e
000003c0: b4bb 443e 54db aa3e c4e9 d13e 7eae 9f3e
000003d0: 27aa 873e 4530 cebd 02bf 1dbe 4064 fdbd
000003e0: 9bbd 8dbe 204b 6a3e 1d51 f03d 2af2 843e
000003f0: 0132 cabd a61f abbe fc59 b6be 72df 583e

fc2.weight f4 [128, 256]
-0.05046315 0.021197887 0.04485769 0.035834618 0.007067522 -0.05244455 -0.042833153 0.011510376
0.047572646 -0.011301988 -0.015273626 0.0011011243 -0.017911071 0.033652022 0.005414993 0.013036946
-0.02003902 -0.050111838 0.031073585 0.027597567 -0.014807343 0.02872209 -0.032691523 0.011664026
0.035776038 -0.042532444 0.012013937 0.025324937 0.041592333 0.0346087 0.01672491 0.024651296
0.03710679 -0.037294824 0.039755315 0.04423666 0.020131774 0.029217597 -0.063186586 -0.048165444
0.020650934 0.046460662 -0.025341902 0.031698752 -0.056874305 0.014061943 -0.054604005 0.025835678
-0.011430577 0.053722724 -0.016169634 -0.01833659 0.033110846 -0.048838016 -0.048621 0.026353203
-0.04715234 -0.05557803 -0.061448786 -0.040600777 0.0009264253 0.03155447 0.0130397435 -0.02224725
0.046650074 -0.049245838 0.0073925457 0.037435114 -0.012798682 -0.0015685819 -0.034765713 -0.020213189
0.0018337066 -0.024709856 -0.0039431676 0.0049956907 -0.06173844 -0.046176527 0.0028988856 -0.02054267
0.043628365 0.056137707 -0.009392744 -0.052650873 -0.020929689 0.05033988 -0.033541925 -0.06416943
0.028122026 -0.04048908 -0.032561135 -0.051300507 -0.03333082 -0.046390142 -0.048941303 -0.013159612
0.017331842 0.048557986 0.024100523 0.04676565 -0.022921303 0.029852815 0.0508974 0.025907908
-0.05450571 0.03504635 -0.026181528 0.00021623322 -0.03405899 -0.01946325 0.04962372 0.048633806
-0.040926155 0.021326965 0.008705791 0.0010055646 0.024275461 -0.005059236 0.013773933 0.0005917236
0.006637757 -0.029130515 -0.055434477 -0.0049000164 0.03629819 -0.048727397 -0.016892573 0.042320304
0.035238467 0.023938715 0.027135463 -0.0039579263 0.005203319 0.0067173773 -0.025026873 0.024811223
0.006435201 0.027195347 -0.060997766 0.04525894 -0.016184742 0.058346387 0.007936761 0.036913015
-0.044588942 -0.0028646844 -0.031304486 -0.03821911 0.037681352 -0.020252582 0.03164128 0.025347756
-0.03787159 0.02516494 -0.028707728 0.03732078 -0.015626963 0.03918352 0.010240276 0.0015871399
0.0076310555 -0.03799231 0.045802236 0.042811424 -0.0069074994 -0.046561062 0.014415597 -0.02581519
-0.05226768 -0.035616826 0.010011154 0.008269336 -0.022538196 0.0029970296 -0.009682739 -0.06261112
-0.04488787 -0.019022634 -0.022860048 0.0010719794 -0.040146373 -0.04645279 -0.04065668 0.04360715
-0.014192557 -0.04795377 -0.037855405 -0.02225772 -0.026386164 0.0076801716 0.04810276 -0.040992845
0.0457678 -0.036136147 0.044528965 0.015280573 0.014181871 0.023832308 0.0348825 -0.022085821
-0.058883388 0.02754255 0.007444219 0.02303353 -0.0032022716 0.029488694 0.006810779 -0.051780544
-0.054281 0.013888347 -0.033852324 -0.00066595344 0.04771435 -0.0075828624 -0.0030277101 0.017538648
-0.00026591567 0.031868357 -0.035104066 -0.004134517 -0.041811075 -0.011897703 -0.03321379 0.012327699
0.0026602063 0.04765567 -0.029247237 -0.030243803 -0.029227247 0.048345402 -0.031423442 0.005686069
-0.052380823 0.046868417 -0.038575377 -0.040327854 0.05645155 -0.043213487 0.0341999 0.033073667
0.036460016 -0.032795336 -0.0043775993 0.0153493285 -0.036356434 0.000230666 0.016519396 0.04694078
0.01530493 -0.06173954 0.012480019 0.0017579747 0.0042396053 -0.024295688 0.03666204 0.02808998
00000000: 73b2 4ebd 31a7 ad3c b2bc 373d 52c7 123d
00000010: ac96 e73b 19d0 56bd d171 2fbd 0496 3c3c
00000020: 89db 423d f92b 39bc 3b3e 7abc 9a53 903a
00000030: 3dba 92bc b4d6 093d 4170 b13b ea98 553c
00000040: df28 a4bc 1242 4dbd 088e fe3c 4b14 e23c
00000050: 7f9a 72bc 974a eb3c 8ce7 05bd 791a 3f3c
00000060: e589 123d 8036 2ebd 1bd6 443c 3e76 cf3c
00000070: b95c 2a3d dac1 0d3d ae02 893c 84f1 c93c
00000080: 4afd 173d 75c2 18bd 78d6 223d 8031 353d
00000090: 64eb a43c be59 ef3c f867 81bd 2149 45bd
000000a0: 262c a93c 894d 3e3d d299 cfbc 8dd6 013d
000000b0: 08f5 68bd 1064 663c 73a8 5fbd 58a5 d33c
000000c0: 5147 3bbc 5c0c 5c3d 2e76 84bc 9e36 96bc
000000d0: 3d9f 073d 5f0a 48bd d026 47bd ace2 d73c
000000e0: d022 41bd caa5 63bd b9b1 7bbd 004d 26bd
000000f0: 59db 723a 433f 013d a6a4 553c dd3f b6bc
00000100: 2614 3f3d 01b6 49bd 2b3d f23b 9055 193d
00000110: 90b1 51bc e098 cdba 7e66 0ebd 2196 a5bc
00000120: fc58 f03a 536c cabc b035 81bb e4b2 a33b
00000130: 72e1 7cbd 9923 3dbd 3bfb 3d3b 1a49 a8bc
00000140: a8b3 323d a7f0 653d 06e4 19bc 71a8 57bd
00000150: bd74 abbc 3131 4e3d 4263 09bd 436b 83bd
00000160: 2a60 e63c e1d7 25bd d35e 05bd 7b20 52bd
00000170: e685 08bd 9703 3ebd ad76 48bd 6a9b 57bc
00000180: 82fb 8d3c bde4 463d 766e c53c 578d 3f3d
00000190: 75c5 bbbc e48d f43c cb79 503d d23c d43c
000001a0: 6141 5fbd c38c 0f3d a57a d6bc aabc 6239
000001b0: 7181 0bbd 6571 9fbc 3e42 4b3d 3e34 473d
000001c0: 2fa2 27bd e3b5 ae3c bca2 0e3c 26cd 833a
000001d0: 55dd c63c f3c7 a5bb 10ac 613c e61d 1b3a
000001e0: 8b81 d93b 1ea3 eebc 430f 63bd 5190 a0bb
000001f0: 69ad 143d 6196 47bd 4b62 8abc 0e58 2d3d
00000200: 3656 103d 201b c43c 314b de3c 7eb1 81bb
00000210: 9a80 aa3b 721d dc3b 2805 cdbc e840 cb3c
00000220: 61de d23b c7c8 de3c cbd8 79bd 7061 393d
00000230: dd95 84bc 9ffc 6e3d 3009 023c 1a32 173d
00000240: e5a2 36bd 6ebd 3bbb 2239 00bd a48b 1cbd
00000250: c357 1a3d bee8 a5bc 499a 013d 19a6 cf3c
00000260: 3e1f 1bbd b426 ce3c 782c ebbc addd 183d
00000270: 1e04 80bc e67e 203d d5c6 273c 9407 d03a
00000280: ef0d fa3b d39d 1bbd 209b 3b3d 085b 2f3d
00000290: 4e58 e2bb d0b6 3ebd 652f 6c3c 617a d3bc
000002a0: a316 56bd f3e2 11bd d305 243c 1c7c 073c
000002b0: 06a2 b8bc d069 443b 5aa4 1ebc 423a 80bd
000002c0: 58dc 37bd 5bd5 9bbc ff44 bbbc a981 8c3a
000002d0: 8670 24bd 4845 3ebd 9e87 26bd 699d 323d
000002e0: e687 68bc 2c6b 44bd 450e 1bbd d255 b6bc
000002f0: cc27 d8bc f3a9 fb3b 6607 453d 1de8 27bd
00000300: 0477 3b3d 7f03 14bd 0164 363d 5e5b 7a3c
00000310: 145b 683c f93b c33c f4e0 0e3d 53ed b4bc
00000320: b52f 71bd eaa0 e13c a3ee f33b d0b0 bc3c
00000330: 34dd 51bb 4692 f13c f52c df3b d617 54bd
00000340: c155 5ebd f38b 633c bca8 0abd 6193 2eba
00000350: 1f70 433d a979 f8bb 8c6c 46bb 36ad 8f3c
00000360: 996a 8bb9 6588 023d 48c9 0fbd d87a 87bb
00000370: 1742 2bbd 95ee 42bc 2f0b 08bd 1efa 493c
00000380: db56 2e3b 9832 433d e797 efbc dac1 f7bc
00000390: fb6d efbc d405 463d deb5 00bd 3452 ba3b
000003a0: 468d 56bd 19f9 3f3d 3701 1ebd d22e 25bd
000003b0: be39 673d a000 31bd 3215 0c3d 4178 073d
000003c0: 1957 153d 6754 06bd f771 8fbb c07b 7b3c
000003d0: 7cea 14bd efde 7139 af53 873c fa44 403d
000003e0: 87c1 7a3c 9ae2 7cbd fe78 4c3c d86b e63a
000003f0: 63ec 8a3b c007 c7bc ef2a 163d f51c e63c

fc2.bias f4 [128]
-0.046860673 -0.05985149 0.03541564 -0.04380557 -0.035938617 -0.05755185 0.05747852 0.0590368
0.024146134 0.013408014 -0.054550845 -0.043756004 0.036967248 0.044094972 0.047490172 -0.018905776
-0.02377392 -0.011283862 0.0378669 -0.0087129725 0.029124577 -0.052713484 0.0051850225 0.036587924
-0.0368099 -0.042639244 -0.029859984 -0.03717487 0.03597877 -0.006566514 0.0062898095 0.04644089
-0.03369348 0.0006983224 0.013771936 0.042863026 0.035989314 0.05285889 0.036178112 0.018675596
0.045396924 0.0012067477 -0.060291193 0.028598448 0.013213635 -0.047223464 0.018756745 -0.013526423
-0.02260508 -0.02572931 -0.050375357 0.03422078 -0.05378729 -0.024215898 -0.01989618 0.018407773
-0.008676123 -0.0041492097 -0.02025104 0.037943386 -0.00883712 0.023385482 -0.014384005 0.024798322
0.01736452 0.025302606 -0.0362844 0.043303326 0.027930157 -0.013665466 -0.0599615 0.050933335
-0.028227821 -0.038725596 -0.031519424 0.0029327557 0.062463913 -0.020918636 -0.023939965 0.059437703
0.051603552 -0.06842982 -0.054956097 -0.024391832 -0.0060082767 0.03300986 0.044843763 0.036566798
-0.062361985 -0.022648571 -0.028774034 0.033828687 0.018964143 0.04846978 -0.00039352683 0.0018976652
0.021291558 -0.008402575 -0.0288903 -0.05241602 0.03270549 0.016426202 -0.05477245 -0.012148027
-0.033143718 -0.051122926 0.004424777 -0.006472954 0.04377261 -0.0021150887 -0.045669675 -0.028625892
0.04145755 0.045447506 0.03784555 -0.019714057 0.01741232 0.055993732 0.038760982 0.021586604
-0.0007568527 -0.026215553 -0.0314855 -0.037221145 -0.042514715 0.0226527 -0.01639121 0.04633161
00000000: faf0 3fbd d626 75bd fd0f 113d 786d 33bd
00000010: 5f34 13bd 7dbb 6bbd 996e 6b3d 92d0 713d
00000020: 1dce c53c 49ad 5b3c b570 5fbd 7f39 33bd
00000030: f86a 173d ee9c 343d 0e85 423d 49e0 9abc
00000040: 86c1 c2bc f3df 38bc 531a 1b3d dbc0 0ebc
00000050: aa96 ee3c 18ea 57bd 1fe7 a93b 38dd 153d
00000060: fac5 16bd 7da6 2ebd ed9c f4bc ad44 18bd
00000070: 7a5e 133d e92b d7bb bf1a ce3b cd38 3e3d
00000080: 2d02 0abd 9f0f 373a b0a3 613c 2491 2f3d
00000090: 8869 133d 9082 583d 802f 143d 90fd 983c
000000a0: 20f2 393d bc2b 9e3a e6f3 76bd 4b47 ea3c
000000b0: 017e 583c 646d 41bd bfa7 993c ee9d 5dbc
000000c0: 4a2e b9bc 46c6 d2bc 6456 4ebd 172b 0c3d
000000d0: 1050 5cbd 6b60 c6bc 50fd a2bc e6cb 963c
000000e0: 4c26 0ebc 18f6 87bb 82e5 a5bc 866a 1b3d
000000f0: 91c9 10bc e992 bf3c e4aa 6bbc da25 cb3c
00000100: 0a40 8e3c 6947 cf3c f39e 14bd d45e 313d
00000110: c9cd e43c 1ee5 5fbc 319a 75bd 799f 503d
00000120: 083e e7bc bb9e 1ebd 831a 01bd 7a33 403b
00000130: 29da 7f3d 8f5d abbc bf1d c4bc f374 733d
00000140: 3f5e 533d ef24 8cbd a519 61bd 61d1 c7bc
00000150: 14e1 c4bb 5935 073d 18ae 373d 11c7 153d
00000160: 486f 7fbd 7f89 b9bc 86b7 ebbc f38f 0a3d
00000170: b15a 9b3c 3f88 463d 4752 ceb9 14bb f83a
00000180: a26b ae3c f4aa 09bc 5aab ecbc 2eb2 56bd
00000190: 31f6 053d 3e90 863c 1459 60bd 8508 47bc
000001a0: b5c1 07bd 4666 51bd b8fd 903b 131b d4bb
000001b0: e94a 333d 4d9d 0abb 2010 3bbd d980 eabc
000001c0: 64cf 293d 2a27 3a3d ef03 1b3d 607f a1bc
000001d0: 48a4 8e3c af59 653d d6c3 1e3d 64d6 b03c
000001e0: 8667 46ba 00c2 d6bc f1f6 00bd 3375 18bd
000001f0: e923 2ebd 2892 b93c dc46 86bc 37c6 3d3d

fc3.weight f4 [128, 128]
0.035591494 0.074394494 0.019915605 0.043407444 -0.062250137 0.050156713 -0.05981069 -0.034938343
-0.06365817 -0.03698213 -0.022183433 0.08167155 0.073994674 0.04763752 0.0016685361 -0.01810099
0.08298164 0.049078573 0.08475089 0.032127116 -0.039733846 0.06321711 0.07211261 0.07723171
0.007278377 -0.031766623 0.019894293 -0.05649828 -0.00824928 0.020392349 -0.056680426 -0.031418215
0.008303925 -0.04039437 0.05261282 0.08609101 -0.043423012 -0.068283215 -0.044571765 -0.051244263
0.064398326 0.014401329 -0.025053672 -0.055849925 0.07584467 -0.045894224 -0.025663862 -0.04850678
-0.04412396 0.08189313 -0.074040316 -0.005076012 0.038464196 0.0059524435 -0.020441746 -0.048282992
-0.074344404 -0.041086175 0.020896839 -0.017739851 0.06780063 -0.0055763824 0.025376778 -0.026898254
-0.058164284 0.01110396 -0.009393654 0.06766897 0.08603577 -0.07832145 0.039111663 0.06418999
-0.07100459 -0.053393397 -0.0052405037 0.030239362 -0.07364566 0.027720345 -0.02179027 0.016021052
0.024562893 -0.021955553 0.06760334 0.07856265 0.008476532 -0.06830067 0.0045152325 0.06949361
0.018936573 -0.049337696 0.043978605 -0.03334287 0.017405655 0.07587519 -0.059408456 -0.06467482
0.013838552 -0.04078612 -0.02056175 0.042293552 -0.032921854 -0.05111057 0.036829393 0.04443138
0.016401613 0.038102057 0.03770855 0.070445485 0.035023246 0.023342825 0.01063534 0.049214266
-0.06607088 -0.07634586 0.07057535 -0.017910758 -0.06348074 0.00065862684 -0.041978925 0.04236619
0.007266407 0.0077641145 0.051441167 0.07955147 0.080001876 -0.0013795497 -0.051340066 -0.010137251
-0.03876436 -0.069958426 -0.03924866 0.04792322 0.0815095 0.06997382 -0.0494113 -0.05716283
2.7631024e-05 0.068823926 0.01624555 0.05330286 -0.033152584 0.028516317 0.07901574 -0.067878924
-0.042210456 0.0080503775 0.088191316 0.0031402642 -0.005559184 -0.066582955 -0.037475385 0.04113715
0.04851996 0.070418514 0.05368158 0.07366023 -0.006241844 -0.03577508 0.013031884 -0.017211452
-0.010406687 0.081553936 -0.025562705 0.043600753 -0.058818053 0.03629552 -0.047172405 0.010004285
0.06567341 -0.016845942 -0.061843306 -0.015672728 -0.0060618776 0.049965594 -0.036511716 -0.010247778
0.062439457 -0.047994416 -0.0042045964 0.020377675 -0.047494464 -0.043992538 0.05574186 0.021340994
-0.056080848 0.062752515 -0.033789642 0.0058925035 0.034791384 0.04190522 0.022812787 -0.03514311
0.07761583 0.06613226 -0.033077244 -0.054404672 0.0031409152 0.038269088 -0.035629336 -0.032876924
-0.019121973 0.013869851 0.05277234 -0.03976116 0.048980903 -0.0070304936 0.02322186 -0.049384184
0.019818265 0.010957774 0.07484452 0.041511092 0.073065184 0.05568951 -0.018572498 -0.007484185
-0.03747422 0.053138737 0.08322722 -0.023416812 0.059734482 -0.0460213 -0.053529978 0.025753457
0.016986819 -0.0417119 0.018533759 0.06390268 0.009886697 0.015780626 0.05439666 -0.0062848898
-0.03759853 -0.016594103 0.059701797 -0.06960992 0.05571904 0.033932153 0.026708523 0.004339068
-0.046334807 0.016533913 -0.02176902 0.08039978 -0.042293627 0.03714107 0.007306614 0.027839208
-0.030431602 -0.05372304 0.017513147 0.026012134 -0.019026624 -0.004541207 -0.0050600674 0.020798026
00000000: 63c8 113d 245c 983d 0d26 a33c 01cc 313d
00000010: 00fa 7ebd 2071 4d3d 0efc 74bd 821b 0fbd
00000020: 375f 82bd 937a 17bd 08ba b5bc 6a43 a73d
00000030: 858a 973d 8f1f 433d c8b2 da3a 8748 94bc
00000040: 47f2 a93d 9d06 493d e091 ad3d b997 033d
00000050: f5bf 22bd f977 813d c7af 933d a92b 9e3d
00000060: 747f ee3b b81d 02bd 5bf9 a23c be6a 67bd
00000070: fd27 07bc db0d a73c bc29 68bd 63b0 00bd
00000080: 300d 083c 9174 25bd 8a80 573d 7c50 b03d
00000090: 54dc 31bd 12d8 8bbd e290 36bd 81e5 51bd
000000a0: 45e3 833d 8df3 6b3c 5c3d cdbc e4c2 64bd
000000b0: 7354 9b3d 95fb 3bbd 053d d2bc 0caf 46bd
000000c0: 53bb 34bd 96b7 a73d 73a2 97bd ad54 a6bb
000000d0: a28c 1d3d b70c c33b 7375 a7bc 63c4 45bd
000000e0: e141 98bd fa49 28bd d92f ab3c 2a53 91bc
000000f0: 0fdb 8a3d 16ba b6bb f6e2 cf3c ba59 dcbc
00000100: ac3d 6ebd 62ed 353c d7e7 19bc 0796 8a3d
00000110: 8633 b03d ff66 a0bd 8d33 203d 0b76 833d
00000120: db6a 91bd 09b3 5abd 88b8 abbb 8ab8 f73c
00000130: 89d3 96bd c715 e33c 8281 b2bc 953e 833c
00000140: 1f38 c93c 22dc b3bc 9f73 8a3d 74e5 a03d
00000150: 27e1 0a3c 39e1 8bbd 84f4 933b aa52 8e3d
00000160: df20 9b3c 5316 4abd e922 343d 8992 08bd
00000170: 4e96 8e3c 7464 9b3d 4856 73bd 3b74 84bd
00000180: 18bb 623c 590f 27bd 1d71 a8bc 013c 2d3d
00000190: 11d9 06bd 5159 51bd 6bda 163d aefd 353d
000001a0: ad5c 863c e710 1c3d 4874 1a3d b945 903d
000001b0: 8974 0f3d 7439 bf3c d93f 2e3c e694 493d
000001c0: 2b50 87bd 385b 9cbd cf89 903d 95b9 92bc
000001d0: 3102 82bd b3a7 2c3a 18f2 2bbd 2c88 2d3d
000001e0: 0a1b ee3b 1d6a fe3b f9b3 523d e2eb a23d
000001f0: 06d8 a33d 02d2 b4ba f649 52bd b616 26bc
00000200: 61c7 1ebd 5d46 8fbd 34c3 20bd 234b 443d
00000210: 74ee a63d 6f4e 8f3d 8163 4abd 9223 6abd
00000220: 2cc9 e737 8ff3 8c3d 6315 853c 1a54 5a3d
00000230: 01cb 07bd 0d9b e93c 01d3 a13d 1b04 8bbd
00000240: dfe4 2cbd bbe5 033c a69d b43d e4cc 4d3b
00000250: d129 b6bb a55c 88bd ca7f 19bd 6e7f 283d
00000260: debc 463d 9537 903d 37e1 5b3d 2ddb 963d
00000270: 6288 ccbb e488 12bd af83 553c 08ff 8cbc
00000280: cf80 2abc c005 a73d e168 d1bc b496 323d
00000290: 33eb 70bd 9caa 143d da37 41bd 03e9 233c
000002a0: c87f 863d 8000 8abc 684f 7dbd 1864 80bc
000002b0: b7a2 c6bb b9a8 4c3d 4f8d 15bd 4ce6 27bc
000002c0: 84c0 7f3d cb95 44bd b6c6 89bb 15ef a63c
000002d0: 8e89 42bd 8531 34bd 9451 643d 4fd3 ae3c
000002e0: 08b5 65bd 6484 803d 0267 0abd e715 c13b
000002f0: 6981 0e3d cfa4 2b3d e2e1 ba3c 39f2 0fbd
00000300: 0cf5 9e3d 5a70 873d 017c 07bd 6fd7 5ebd
00000310: d0d7 4d3b 0cc0 1c3d 11f0 11bd f4a9 06bd
00000320: afa5 9cbc 5f3e 633c cf27 583d 99dc 22bd
00000330: 33a0 483d 0e60 e6bb c53b be3c 1247 4abd
00000340: ea59 a23c 3c88 333c 1548 993d 8907 2a3d
00000350: 33a3 953d af1a 643d 5a25 98bc e53d f5bb
00000360: 917e 19bd 01a8 593d 0873 aa3d 9dd4 bfbc
00000370: 25ac 743d d580 3cbd 4042 5bbd eaf8 d23c
00000380: f127 8b3c 19da 2abd 1cd4 973c 69df 823d
00000390: d0fb 213c 5f46 813c 08cf 5e3d 7af1 cdbb
000003a0: eb00 1abd 5bf0 87bc df89 743d a58f 8ebd
000003b0: a639 643d 71fc 0a3d d5cb da3c be2e 8e3b
000003c0: 91c9 3dbd 2172 873c f254 b2bc a4a8 a43d
000003d0: 153c 2dbd 3c21 183d 526c ef3b 0d0f e43c
000003e0: b24b f9bc b10c 5cbd bb77 8f3c 6617 d53c
000003f0: b9dd 9bbc 68ce 94bb ecce a5bb 9f60 aa3c

fc3.bias f4 [128]
-0.053115085 0.07365546 -0.09649189 -0.011590836 0.017228527 0.11377163 0.08761318 0.074239224
0.013348082 0.09554754 -0.023033883 -0.015490653 -0.06573765 -0.020292046 0.032791995 0.019995699
0.104314804 0.0877503 0.10519229 0.35015428 0.04451949 -0.035535377 0.030921513 0.10293562
0.10292364 0.0018909102 -0.05259702 0.11092411 0.012809325 0.049939413 0.45170376 -0.078136794
0.06183013 0.018159151 0.05649427 -0.01243697 0.022354672 -0.0058783535 0.055968758 0.07846419
-0.050301608 -0.0032999592 -0.022672331 -0.05676946 -0.003525694 0.09051201 -0.047888566 0.07636068
0.052023053 -0.060678095 0.039395705 -0.02349566 -0.00652422 0.0393528 -0.061932266 -0.09292963
0.04351256 -0.02422045 0.020024804 0.074695714 0.011619502 -0.080748245 0.03094298 -0.08541311
0.10752458 -0.07178023 0.044682145 0.040077306 -0.009292443 -0.06464577 0.0586314 0.09729875
-0.04981217 0.05959587 -0.05557225 0.07450076 0.064424746 -0.026954697 0.015509994 0.0045333877
0.024045585 0.052932367 -0.009335214 0.0009062667 -0.06975326 0.06849767 0.011536071 -0.05859546
-0.006759385 0.33652213 -0.08622774 0.03889822 0.07074925 0.012889337 0.10137432 0.10150877
0.011053072 -0.04884609 -0.012134178 0.45103037 -0.037715808 -0.046063 -0.00595791 -0.04552816
-0.026899373 0.09726086 0.03404503 0.02502586 0.0051193796 0.10637416 0.07630798 0.040531438
0.09689612 -0.06200266 0.049122967 -0.00479126 0.44581404 -0.05345764 -0.049097825 -0.054510687
-0.061893992 0.07374051 0.040318612 0.043217935 0.09029076 0.110245235 -0.03634404 -0.055488046
00000000: 348f 59bd acd8 963d 8a9d c5bd 7de7 3dbc
00000010: d722 8d3c 1a01 e93d 8a6e b33d bc0a 983d
00000020: eab1 5a3c 6eae c33d 8eb1 bcbc 82cc 7dbc
00000030: 76a1 86bd 813b a6bc e650 063d 05ce a33c
00000040: 00a3 d53d 6eb6 b33d 0e6f d73d 6c47 b33e
00000050: 125a 363d 8b8d 11bd 1d4f fd3c e9cf d23d
00000060: a1c9 d23d 6bd8 f73a f96f 57bd 2e2c e33d
00000070: 34de 513c 458d 4c3d b745 e73e 2f06 a0bd
00000080: 9741 7d3d 80c2 943c 8966 673d 6fc4 4bbc
00000090: 2521 b73c 349f c0bb 7f3f 653d d5b1 a03d
000000a0: 0f09 4ebd 2144 58bb 53bb b9bc 1887 68bd
000000b0: 540f 67bb 5c5e b93d cd26 44bd fd62 9c3d
000000c0: 2016 553d 9889 78bd 645d 213d f879 c0bc
000000d0: 20c9 d5bb 6730 213d b0ac 7dbd e451 bebd
000000e0: 3a3a 323d f769 c6bc 0f0b a43c 11fa 983d
000000f0: b95f 3e3c 565f a5bd 227c fd3c 12ed aebd
00000100: d935 dc3d 8301 93bd a004 373d 1a28 243d
00000110: 553f 18bc 0065 84bd 7b27 703d 9144 c73d
00000120: d907 4cbd cd1a 743d ba9f 63bd db93 983d
00000130: 1ff1 833d 19d0 dcbc a11d 7e3c d08c 943b
00000140: 3ffb c43c 9ccf 583d baf2 18bc 8792 6d3a
00000150: ccda 8ebd 8248 8c3d ca01 3d3c cb01 70bd
00000160: d57d ddbb a14c ac3e 2b98 b0bd bd53 1f3d
00000170: fce4 903d cc2d 533c 579d cf3d d4e3 cf3d
00000180: f217 353c d612 48bd 6ece 46bc 74ed e63e
00000190: e47b 1abd 8eac 3cbd 923a c3bb bc7b 3abd
000001a0: 135c dcbc b430 c73d cd72 0b3d 0803 cd3c
000001b0: 78c0 a73b b2da d93d 5c47 9c3d 4b04 263d
000001c0: 7971 c63d 80f6 7dbd 2a35 493d 0100 9dbb
000001d0: bd41 e43e 66f6 5abd cd1a 49bd 9946 5fbd
000001e0: 8e84 7dbd 4405 973d 2125 253d 4a05 313d
000001f0: 5dea b83d 41c8 e13d 7ddd 14bd 6f47 63bd

fc4.weight f4 [6, 128]
0.08932661 0.08960835 -0.043356244 0.012575499 -0.025333563 0.09048551 -0.017912377 0.0100334585
-0.009511434 0.0944798 0.02758919 -0.0392422 0.008422331 -0.048552055 0.08240512 0.05410316
0.020701252 0.065534145 0.088557 0.33669433 -0.05542365 0.08697267 0.014010174 0.057392914
0.02708478 0.023501528 -0.045406554 0.019274175 -0.0014737077 0.046418093 0.17063399 -0.03505239
0.050947644 0.08964548 -0.017076312 0.06012158 0.07337754 -0.034859627 0.07843178 0.023856308
0.045966513 0.026392972 0.009819131 -0.023072986 -0.03675794 0.07611234 -0.051230863 0.011963301
-0.031517405 0.058107607 -0.02068502 0.059172913 0.05911293 0.055694744 0.06341638 0.05508173
0.058148384 0.0026390373 -0.043180943 0.03521097 0.005699927 0.034281816 -0.063042074 -0.022643602
-0.040006906 0.06824239 -0.052006744 -0.055338185 -0.016083065 -0.01002652 0.031114353 0.025177345
0.04820768 -0.019186644 0.08112925 0.07599475 0.08227853 0.00517142 -0.056957263 -0.058797892
-0.02628824 -0.005699786 -0.047107924 -0.022488635 0.0479762 0.060508303 -0.017534733 0.069137655
-0.0004515748 0.16585968 -0.041535694 0.083985165 0.06741033 0.019461932 -0.054638997 -0.035097096
-0.022223558 0.012648222 0.030248232 0.33691996 0.037377145 0.07503862 0.009334713 0.038251765
-0.012927998 0.05386497 0.07776011 -0.0027779634 0.0015526942 0.05120631 0.073305994 0.00091120525
0.047521178 0.0043574125 -0.017029643 -0.050101142 0.3514277 0.08703554 0.07032053 -0.062142223
0.05622551 0.0021818457 0.046302732 0.021435687 0.073293895 0.085013226 0.04204345 0.028772227
-0.025931157 -0.012619486 0.077638805 -0.059197538 0.055362977 0.0072497474 -0.051006757 -0.032310277
-0.039915837 0.048893046 -0.003929047 0.05078137 0.0076750694 -0.06194132 0.0077928877 -0.032057952
0.04599887 -0.009633414 -0.024094641 -0.006318235 -0.023413982 0.07050438 0.005914847 0.03401581
0.053013053 -0.021975072 0.033413917 0.02512072 0.0017473754 -0.029948736 -0.031519104 0.025539035
0.034311797 0.05844694 -0.0008873623 -0.054382678 -0.0075647742 0.0026583457 0.057741486 0.042080924
0.070227146 0.025449341 0.06068243 -0.021563098 -0.006393523 0.060809337 -0.04399915 -0.010817874
0.0404487 0.035762668 0.012555082 -0.004980345 -0.00039740268 -0.0015347475 0.009633827 -0.03425982
-0.013472647 0.00045963385 -0.019416876 -0.034327537 -0.004232198 -0.049338017 0.008048844 0.01659031
-0.0038533446 -0.052528813 -0.025971716 0.012803293 0.013322968 0.019259833 0.010740553 0.044689644
-0.0021963438 -0.03817352 0.037401386 0.019216988 -0.026179766 0.0011141867 0.006606975 0.010445645
-0.01425464 -0.0003138914 0.047823705 -0.039918665 0.08670089 0.02251231 0.08077658 0.020821879
0.03839388 -0.011048524 0.062058523 -0.0071515325 0.016195087 0.0151203675 -0.041692965 0.061028533
-0.028955387 0.019681398 -0.04508311 -0.016723357 0.014454275 -0.034267586 -0.03377626 0.029034542
0.0064542205 0.0029924933 -0.0018946601 0.0035301156 -0.048795782 0.030027967 -0.063583374 -0.041665982
-0.040544674 0.08234119 0.016860073 0.03095118 0.015674453 0.08050017 0.04690344 0.0015329821
0.04536959 -0.0008801562 0.014940381 0.009653086 0.026077706 0.0321822 0.02956489 0.009228119
00000000: dff0 b63d 9584 b73d 5196 31bd 7709 4e3c
00000010: 5588 cfbc 7850 b93d fabc 92bc 6063 243c
00000020: d8d5 1bbc a07e c13d ba02 e23c 6ebc 20bd
00000030: d1fd 093c 85de 46bd 04c4 a83d 469b 5d3d
00000040: ac95 a93c c436 863d 5f5d b53d 3363 ac3e
00000050: e903 63bd ba1e b23d ee8a 653c d514 6b3d
00000060: e7e0 dd3c 4786 c03c 39fc 39bd e0e4 9d3c
00000070: 6d29 c1ba e620 3e3d adba 2e3e 1893 0fbd
00000080: 7aae 503d 0d98 b73d 9fe3 8bbc 0c42 763d
00000090: f746 963d f8c8 0ebd d7a0 a03d 4e6e c33c
000000a0: 6247 3c3d 1336 d83c 6ce0 203c 8f03 bdbc
000000b0: 7e8f 16bd c9e0 9b3d 74d7 51bd b901 443c
000000c0: 6518 01bd 3e02 6e3d a273 a9bc 4c5f 723d
000000d0: 6620 723d 2c20 643d 72e0 813d 619d 613d
000000e0: 002d 6e3d b3f3 2c3b 80de 30bd 6139 103d
000000f0: 74c6 ba3b 176b 0c3d 341c 81bd 137f b9bc
00000100: 48de 23bd abc2 8b3d 0605 55bd 4baa 62bd
00000110: a2c0 83bc 4646 24bc 87e3 fe3c b840 ce3c
00000120: 6b75 453d 4f2d 9dbc 1827 a63d 23a3 9b3d
00000130: a581 a83d 0475 a93b 054c 69bd 0fd6 70bd
00000140: 6f5a d7bc 45c5 babb 3df4 40bd 163a b8bc
00000150: b182 443d 8ed7 773d 00a5 8fbc 0b98 8d3d
00000160: 58c1 ecb9 1fd7 293e 5521 2abd 6a00 ac3d
00000170: 6d0e 8a3d a16e 9f3c 24cd 5fbd f9c1 0fbd
00000180: 2e0e b6bc 7d3a 4f3c 24cb f73c c680 ac3e
00000190: c718 193d d9ad 993d a0f0 183c e2ad 1c3d
000001a0: f4cf 53bc 84a1 5c3d b140 9f3d 7e0e 36bb
000001b0: c683 cb3a b5bd 513d 7421 963d f3dd 6e3a
000001c0: 91a5 423d a0c8 8e3b c081 8bbc db36 4dbd
000001d0: 55ee b33e b03f b23d 3604 903d d888 7ebd
000001e0: b84c 663d 4cfd 0e3b efa7 3d3d e599 af3c
000001f0: 1c1b 963d 6a1b ae3d c135 2c3d bcb3 eb3c
00000200: 946d d4bc f6c1 4ebc 1801 9f3d 1e79 72bd
00000210: 4ac4 623d 4a8f ed3b 76ec 50bd c857 04bd
00000220: ca7e 23bd 1344 483d 3cbf 80bb 2000 503d
00000230: 267f fb3b 2eb6 7dbd 7b5b ff3b 334f 03bd
00000240: 5069 3c3d 78d5 1dbc 2062 c5bc 3209 cfbb
00000250: aece bfbc 9a64 903d 55d1 c13b 2954 0b3d
00000260: 3724 593d 1105 b4bc 08dd 083d f8c9 cd3c
00000270: 3008 e53a 0d57 f5bc 2d1a 01bd 3d37 d13c
00000280: 878a 0c3d 0f66 6f3d e09d 68ba 5fc0 5ebd
00000290: ede1 f7bb a437 2e3b 5682 6c3d 0c5d 2c3d
000002a0: 40d3 8f3d 237b d03c 248e 783d 18a5 b0bc
000002b0: c280 d1bb 3613 793d 7438 34bd 743d 31bc
000002c0: 89ad 253d e07b 123d d5b3 4d3c 2932 a3bb
000002d0: 7c5a d0b9 9529 c9ba 33d7 1d3c 0654 0cbd
000002e0: 61bc 5cbc 03fb f039 2410 9fbc 089b 0cbd
000002f0: 40ae 8abb a916 4abd 4cdf 033c 67e8 873c
00000300: 6588 7cbb 7428 57bd a3c2 d4bc e7c4 513c
00000310: 9448 5a3c ccc6 9d3c 25f9 2f3c 7d0c 373d
00000320: 89f0 0fbb d65b 1cbd 3232 193d f26c 9d3c
00000330: f376 d6bc e709 923a 537f d83b 3624 2b3c
00000340: 4b8c 69bc ca91 a4b9 cae2 433d c181 23bd
00000350: 3c90 b13d bc6b b83c 316e a53d a592 aa3c
00000360: e742 1d3d de04 35bc 1431 7e3d 6757 eabb
00000370: 8fab 843c 6bbb 773c 3ec6 2abd 0ef9 793d
00000380: d933 edbc e23a a13c 11a9 38bd 6cff 88bc
00000390: a0d1 6c3c 2b5c 0cbd fa58 0abd d9d9 ed3c
000003a0: ed7d d33b b51d 443b 3e56 f8ba 8359 673b
000003b0: 16de 47bd 36fd f53c 0038 82bd f3a9 2abd
000003c0: 2c12 26bd 7fa2 a83d 231e 8a3c 548d fd3c
000003d0: b667 803c 46dd a43d d21d 403d 58ee c83a
000003e0: 77d5 393d 48ba 66ba 80c8 743c fa27 1e3c
000003f0: eaa0 d53c 7cd1 033d 1132 f23c 8931 173c

fc4.bias f4 [6]
-0.008850317 0.059886977 -0.0661282 -0.035667494 0.031683348 0.050103687
00000000: ec00 11bc 0c4c 753d 396e 87bd 1418 12bd
00000010: 66c6 013d 8639 4d3d
